attention_pooling35.pth (torch, 43665 bytes, 23 tensors)

gates.AtomicNum.nn.0.weight f4 [1, 12]
0	0xbd7c1a0c	-0.061548278
1	0xbd57fb88	-0.052730113
2	0xbde2ab00	-0.11067772
3	0x3d8d11f8	0.06888193
4	0xbe0e4f84	-0.1389752
5	0xbcdab5f0	-0.026698083
6	0x3ed77384	0.4208032
7	0x3ee70cd6	0.4512698
8	0x3f5e2147	0.8676953
9	0x3f7de93b	0.99184006
10	0xbe4cb21d	-0.1998982
11	0x3e8e7426	0.2782299

gates.Degree.nn.0.weight f4 [1, 6]
0	0x3d585ab7	0.052820887
1	0x3e86085d	0.26178256
2	0xbf23636d	-0.63823587
3	0x3e2f5d1d	0.17125364
4	0x3d2c8656	0.0421203
5	0xbea34f6f	-0.3189654

gates.TotalNumHs.nn.0.weight f4 [1, 5]
0	0xbec328f2	-0.38117176
1	0xbe33bd68	-0.17552722
2	0x3f4b570c	0.794297
3	0xbf14fc62	-0.58197606
4	0x3e185fc4	0.14880282

gates.ImplicitValence.nn.0.weight f4 [1, 6]
0	0x3e1ed800	0.15512085
1	0x3e9cd3ea	0.30630428
2	0xbd6ecaf0	-0.058299005
3	0xbe15a500	-0.14613724
4	0x3e8024a2	0.2502795
5	0xbd56a3a8	-0.05240217

gates.Hybridization.nn.0.weight f4 [1, 5]
0	0x3f552e73	0.83274
1	0x3ef80ded	0.48448125
2	0x3e2a65b2	0.16640356
3	0xbd732168	-0.05935803
4	0xbe26e1e8	-0.16297114

feats.AtomicNum.weight f4 [35, 12]
0	0xbcf324c0	-0.02968061
1	0x3d8e83b4	0.06958714
2	0xbd7e9718	-0.062155813
3	0x3e29d7ac	0.16586179
4	0xbe903e4b	-0.28172526
5	0x3d7e43e8	0.06207648
6	0x3e0d6083	0.13806348
7	0x3ef18526	0.47171897
8	0x3e5ae33f	0.2137575
9	0xbc3f9cda	-0.011695111
10	0xbe270319	-0.16309775
11	0xbdeaaea2	-0.1145909
12	0xbe205729	-0.15658249
13	0x3dee626c	0.11639866
14	0x3e8c47e6	0.27398604
15	0x3da2067c	0.07911393
16	0xbdbb383e	-0.09141587
17	0x3e3633ec	0.17793244
18	0xbe7e4eef	-0.24834798
19	0x3f069369	0.5256868
20	0xbd2daa25	-0.04239859
21	0x3fe0d53d	1.7565075
22	0x3dbcf040	0.092255116
23	0x3ce50370	0.02795574
24	0xbe521450	-0.20515561
25	0x3e1cebbe	0.15324304
26	0xbd3ba0fc	-0.045807824
27	0x3e8d089a	0.27545625
28	0xbd51a64c	-0.051183984
29	0x3badb680	0.0053012967
30	0xbf0f357a	-0.55940974
31	0x3ec1b439	0.3783281
32	0x3f3b680a	0.73205626
33	0xbefd8bbc	-0.4952067
34	0xbde6736a	-0.11252482
35	0xbd7460d0	-0.05966264
36	0xbe830ec4	-0.25597203
37	0xbe58946f	-0.21150373
38	0x3e4fdfd6	0.2030023
39	0xbe6e3154	-0.23261005
40	0xbd2fddb4	-0.042936042
41	0x3e47546a	0.19465795
42	0x3e54be7c	0.20775789
43	0xbe9472e5	-0.28993908
44	0x3f4491f3	0.767852
45	0x3f30da2a	0.6908289
46	0x3dff8c84	0.12477973
47	0x3e65a45c	0.2242598
48	0x3e55b30e	0.20869085
49	0x3e60ecc0	0.21965313
50	0x3e847ffa	0.25878888
51	0x3e3a6cc2	0.1820555
52	0x3e80ebbc	0.2517985
53	0xbdf8a1de	-0.12140249
54	0xbe248108	-0.16064847
55	0x3ed78087	0.42090246
56	0x3e782204	0.24231726
57	0x3e9b61b8	0.3034799
58	0xbe4e2872	-0.20132616
59	0x3e7a3358	0.24433649
60	0x3e127234	0.14301378
61	0x3e7267ec	0.23672456
62	0xbde787aa	-0.11305173
63	0xbd7644e0	-0.060124278
64	0x3d7536e8	0.059866816
65	0xbe2b6ae3	-0.16739993
66	0x3d12e89f	0.035866376
67	0xbe968256	-0.29396313
68	0x3d3abaf2	0.04558844
69	0xbea63c16	-0.32467717
70	0xbd093f18	-0.033507437
71	0xbe35c4b8	-0.17750823
72	0x3e8e6dd6	0.27818173
73	0x3ddb35e0	0.10703635
74	0x3df9cdfc	0.121974915
75	0xbdfcc68a	-0.12342556
76	0x3e1dc05c	0.1540541
77	0x3dc9ec80	0.09859562
78	0x3e40e11b	0.18835871
79	0xbffdbd55	-1.9823405
80	0x3eef3952	0.4672342
81	0x3f6f06c8	0.9336972
82	0xbe53037a	-0.20606795
83	0x3e3ed498	0.18635786
84	0xbe51e030	-0.20495677
85	0xbe898949	-0.26862553
86	0xbe1a652c	-0.15077657
87	0x3ddf4e44	0.109036
88	0x3e46e460	0.19423056
89	0xbc18fc60	-0.009337515
90	0xbe090116	-0.1337932
91	0xbe90bbef	-0.28268382
92	0xbeb65843	-0.35614213
93	0xbfa38fd0	-1.2778263
94	0x3da98c4c	0.08278713
95	0xbccce270	-0.025010318
96	0xbcbf1950	-0.0233275
97	0xbd37a740	-0.044837236
98	0xbe3806c6	-0.17971334
99	0xbe23cabd	-0.15995307
100	0xbdb2aa1a	-0.087238505
101	0x3e8206bc	0.25395763
102	0xbf0e01a7	-0.5547127
103	0x3e8c9764	0.27459252
104	0xbe24fd6e	-0.16112301
105	0xbec1671c	-0.3777398
106	0x3c4f4540	0.012650788
107	0xbe89f062	-0.2694121
108	0x3e247260	0.16059256
109	0xbd94934c	-0.07254657
110	0xbe8e8260	-0.27833843
111	0xbe84bae7	-0.25923845
112	0xbdf378ae	-0.11888252
113	0xbe8b41fe	-0.27198786
114	0xbe679b38	-0.22617805
115	0x3e15ff35	0.14648135
116	0x3ed0599e	0.40693372
117	0x3ef48e23	0.47764692
118	0x3d2bb158	0.041917175
119	0x3dd4893c	0.10377738
120	0xbdb6064c	-0.0888792
121	0xbe8e3229	-0.27772644
122	0xbd23c0b8	-0.039978713
123	0xbe37e791	-0.1795943
124	0xbe938ec8	-0.2881987
125	0x3e452854	0.19253665
126	0xbd99c7aa	-0.07508786
127	0xbe07a580	-0.13246727
128	0xbf3d4bf2	-0.7394401
129	0xbf77d051	-0.9680224
130	0xbd91916a	-0.07107814
131	0x3e4e3686	0.20137987
132	0xbda5f300	-0.08102989
133	0xbccf2430	-0.02528581
134	0x3d84b34c	0.06479511
135	0xbd84cd82	-0.0648451
136	0x3e8da3ea	0.2766412
137	0x3daf1f10	0.085508466
138	0xbd3c8112	-0.04602153
139	0x3ea016b7	0.3126733
140	0x3f01c3b1	0.50689226
141	0x3f319111	0.6936198
142	0x3c8b0760	0.01697129
143	0xbd68eb68	-0.056865126
144	0x3e1165d6	0.14199004
145	0x3e1c081a	0.15237466
146	0x3dff263c	0.124584645
147	0x3dccbd40	0.09997034
148	0xbd8b23e0	-0.06793952
149	0xbe88d540	-0.26725197
150	0x3e341dd8	0.1758951
151	0x3f4803ca	0.7813078
152	0xbf11a19a	-0.5688721
153	0xbf0079a6	-0.5018562
154	0xbe55affc	-0.20867914
155	0x3e8524e6	0.26004714
156	0x3da05714	0.07829109
157	0x3e53bbbc	0.20677084
158	0xbd4120c8	-0.047150403
159	0x3dfecec0	0.12441778
160	0xbe6e690c	-0.2328226
161	0x3de4c994	0.111712605
162	0x3dae611f	0.08514618
163	0x3facf127	1.3511094
164	0xbfb9371e	-1.4469945
165	0x3ea94432	0.3305984
166	0x3e564ade	0.20926997
167	0xbe75c178	-0.23999584
168	0xbca09230	-0.019600958
169	0xbd8ab396	-0.067725345
170	0x3e703914	0.23459274
171	0x3e80240c	0.25027502
172	0xbe4fb8e2	-0.20285371
173	0x3cf06f20	0.029349864
174	0x3c8265e4	0.015917726
175	0xbe858f64	-0.2608596
176	0xbf3f4e4b	-0.7472884
177	0xbf606687	-0.87656444
178	0xbe3ec78a	-0.18630806
179	0xbdd5941a	-0.10428639
180	0x3a735800	0.00092828274
181	0x3e93a4ea	0.28836757
182	0x3db6e0ec	0.08929619
183	0x3e4e9af8	0.20176303
184	0xbe66bcda	-0.22532979
185	0x3e28d760	0.16488409
186	0xbeced919	-0.40400007
187	0x3edcd0d3	0.4312807
188	0x3f484f7b	0.7824628
189	0x3f45a165	0.77199394
190	0xbe22c69e	-0.15896079
191	0x3d3ff950	0.046868622
192	0x3db25da8	0.0870927
193	0x3e76e2f4	0.24110013
194	0x3daa2564	0.08307913
195	0x3c120620	0.008912593
196	0x3e44e69a	0.19228593
197	0x3dcc3008	0.09970099
198	0xbe9c840d	-0.30569497
199	0xbe67509c	-0.22589344
200	0x3e18596b	0.1487786
201	0x4004656c	2.0686903
202	0x3e58435c	0.21119446
203	0xbd953ee0	-0.07287383
204	0xbdb3d940	-0.087816715
205	0x3e51d310	0.2049067
206	0xbe25864e	-0.16164514
207	0xbe3c7839	-0.18405236
208	0xbe7ec5f3	-0.24880199
209	0xbdbebcf2	-0.09313382
210	0x3d399aef	0.04531377
211	0x3f2cf737	0.6756472
212	0xbe693570	-0.22774291
213	0x3e0bd7e6	0.13656577
214	0x3e7e8cc8	0.24858391
215	0xbe748c94	-0.23881751
216	0xbe3fe955	-0.18741353
217	0x3c661400	0.014042854
218	0x3de3e2cc	0.111272424
219	0xbe0bcac2	-0.13651565
220	0xbdaf2b24	-0.0855315
221	0xbe725bf0	-0.23667884
222	0xbef9c003	-0.48779306
223	0x3edeba0a	0.43501312
224	0x3efd9593	0.4952818
225	0x3dc1f307	0.09470182
226	0xbdaf92ca	-0.0857292
227	0xbe4fc593	-0.20290212
228	0x3cf21490	0.02955082
229	0xbdf73f9c	-0.120726794
230	0xbe4c5242	-0.19953254
231	0x3e79ba58	0.24387491
232	0xbe1134dc	-0.1418032
233	0x3dec36e0	0.11533904
234	0x3ea3486f	0.318912
235	0x3ef1bcb4	0.47214282
236	0xbfa65c90	-1.2996998
237	0xbfda18c4	-1.7038808
238	0x3e3883f2	0.18019083
239	0xbe2a8a9a	-0.16654435
240	0x3d8e50e4	0.069490224
241	0xbc8631e0	-0.016381204
242	0x3ddbffb0	0.10742128
243	0x3cf982f0	0.030457944
244	0x3e333e78	0.17504299
245	0x3e12fccc	0.14354247
246	0x3da7cddc	0.081935614
247	0x3e30a95c	0.17252105
248	0xbf93975a	-1.1530564
249	0xbf77b209	-0.96756035
250	0xbacc3c00	-0.0015581846
251	0xbe0c17cc	-0.13680953
252	0x3e4e6560	0.20155859
253	0x3b01ff80	0.0019836128
254	0x3d9c8238	0.07642025
255	0xbd4bfa84	-0.049799457

feats.AtomicNum.bias f4 [35]
0	0x3f0cac16	0.5495008
1	0xbdafc293	-0.08582034
2	0xbd0a5ce9	-0.033780012
3	0x3f08529e	0.53251064
4	0x3e86a995	0.26301256
5	0x3e62d8a1	0.2215295
6	0xbe01e75a	-0.1268591
7	0x3e56510d	0.20929356
8	0xbec0a19a	-0.37623292
9	0xbcb73097	-0.022362037
10	0xbe62c5e0	-0.22145796
11	0x3dc49759	0.0959918
12	0xbd95034b	-0.07276019
13	0x3dccb40e	0.0999528
14	0xbe87f9ca	-0.2655776
15	0xbea1a3b5	-0.3157021
16	0xbd83901c	-0.06423971
17	0x3e73921e	0.23786208
18	0x3e15372c	0.14571828
19	0xbe9f0fc9	-0.3106673
20	0xbe3368a1	-0.17520382
21	0xbe9b529e	-0.3033647
22	0x3e9353a0	0.28774738
23	0x3db090f1	0.086213954
24	0x3e27ee52	0.16399506
25	0xbee41f71	-0.44555238
26	0x3dbc0db1	0.09182299
27	0x3f08ea17	0.5348219
28	0x3e38fd25	0.18065317
29	0x3c2043e5	0.009781812
30	0x3e2d7268	0.16938174
31	0xbd59c79a	-0.05316887
32	0x3da5f633	0.081035994
33	0xbdc4ff66	-0.09619026
34	0xbe7324e3	-0.2374454

feats.Degree.weight f4 [35, 6]
0	0xbf35322c	-0.7077968
1	0xbf6c73d5	-0.92364246
2	0x3eb014f4	0.34390986
3	0xbf118e16	-0.5685743
4	0xbfe425c9	-1.7824031
5	0x3d80cc7c	0.06289002
6	0xbfe0a6f8	-1.7550955
7	0x3fdbed4a	1.718179
8	0xbeb2070f	-0.3477101
9	0x3e7fdcc7	0.24986564
10	0xbc520264	-0.012817953
11	0x3e3d41d8	0.18482149
12	0x3fc76c1b	1.5579866
13	0xc00e64eb	-2.2249095
14	0x3f390178	0.72267866
15	0x3f1f27bb	0.6217
16	0x3fa2526e	1.2681406
17	0xbeb70363	-0.3574477
18	0xbd5c22be	-0.05374407
19	0x3e1dfcca	0.15428463
20	0xbef393d2	-0.47573715
21	0x3eaa6b05	0.33284774
22	0xbeb0a71d	-0.34502497
23	0x3eb9bf34	0.3627869
24	0x3ff373e9	1.9019748
25	0xc0003f78	-2.0038738
26	0x3dccf807	0.10008245
27	0xbe6f5424	-0.23371941
28	0xc01c6fdc	-2.4443274
29	0x3dd8c608	0.105846465
30	0x4003ea50	2.0611763
31	0xbf561092	-0.83619034
32	0x3f703790	0.9383478
33	0xbf796576	-0.9742044
34	0xc05c49e9	-3.442011
35	0x3e2eacec	0.17058152
36	0xbfee3ba1	-1.8611947
37	0x4038d797	2.8881586
38	0xbe7e0173	-0.2480524
39	0xbe997fe8	-0.29980397
40	0x3e9fc436	0.31204385
41	0x3ea971e6	0.3309471
42	0x3fb9644c	1.4483733
43	0xbf8b51bf	-1.0884322
44	0x3f6db08e	0.92847526
45	0xbf2fcc1c	-0.6867082
46	0xbfa3d98b	-1.2800764
47	0x3e423f4c	0.18969458
48	0x3e4fbffe	0.20288083
49	0x3e40f861	0.18844749
50	0xbf6e9a52	-0.93204224
51	0x3f1ade56	0.6049551
52	0x40053b70	2.0817528
53	0x3e86a036	0.26294106
54	0xbf9a7c0a	-1.2069104
55	0xba577a67	-0.00082198385
56	0x3e00cd04	0.12578207
57	0xbcb2ce24	-0.021826811
58	0x3f833949	1.0251857
59	0x3eaad44a	0.3336509
60	0x3fc00d1a	1.5003998
61	0xbec6353e	-0.38712496
62	0x3f59af00	0.85032654
63	0xbef028b2	-0.46906048
64	0xbfd86f18	-1.6908903
65	0x3eb5a2f2	0.3547588
66	0x3fbcdd8c	1.4755111
67	0xc0726d5f	-3.7879255
68	0xbe9dc888	-0.30817056
69	0x3f68de35	0.9096406
70	0x3edfe428	0.43728757
71	0xbd3863e0	-0.045017123
72	0x3f90d33c	1.1314464
73	0x3f815a8c	1.0105758
74	0xbdc87fe5	-0.09790019
75	0xbf8bd236	-1.0923526
76	0xc008c1a3	-2.1368186
77	0xbe6deea9	-0.23235573
78	0xbe8303b6	-0.2558877
79	0xbe8b4932	-0.2720428
80	0xbf6ac61e	-0.9170855
81	0x3f8b6b98	1.089221
82	0x3fc50f83	1.5395359
83	0x3e60a850	0.21939206
84	0x3f062063	0.5239317
85	0xbf40c5c6	-0.7530178
86	0x3e998dae	0.29990906
87	0xbd92f3a6	-0.071753785
88	0x3f87a4d4	1.0597177
89	0xbd3a33f0	-0.045459688
90	0x3fd6cf2a	1.6781971
91	0xbf1ff02f	-0.62475866
92	0x3f64dc98	0.893991
93	0xbe9a7b25	-0.30172077
94	0xbf5908f6	-0.847793
95	0xbe711936	-0.23544773
96	0xbff54037	-1.9160222
97	0x3f0cdcb3	0.5502426
98	0xbef680e4	-0.4814521
99	0xbe508656	-0.20363745
100	0x3f6e4a0e	0.9308175
101	0x3e62e5c8	0.22157967
102	0x3f5f35df	0.87191576
103	0xbfc90dd4	-1.5707345
104	0xbd5f2e5d	-0.054487575
105	0x3e8dc9ee	0.27693123
106	0x3e2bde0b	0.16783921
107	0x3e4d6628	0.20058501
108	0x3f38bf6e	0.721671
109	0xbf3c882d	-0.7364529
110	0xbf014587	-0.50496715
111	0x3db1af06	0.08675961
112	0x3e90a813	0.2825323
113	0x3e3eb9a0	0.18625498
114	0xbde43af7	-0.11144059
115	0x3ec9b29b	0.39394078
116	0x3f68aa13	0.9088451
117	0xbf0e2a49	-0.5553327
118	0xbfad165e	-1.3522451
119	0xbeb28371	-0.34865907
120	0x3f7ff0e4	0.99976945
121	0x3eccf751	0.40032437
122	0x3e3dddf4	0.185417
123	0xbea1bb27	-0.31588098
124	0xbf8fb960	-1.1228447
125	0x3eaebc66	0.34128112
126	0x3f816d89	1.0111552
127	0xbea8c54e	-0.32963032
128	0x3d10540a	0.035236396
129	0x3ecd78bb	0.40131173
130	0x3f75fb39	0.9608646
131	0x3ec9e958	0.3943584
132	0xbfde50b3	-1.7368377
133	0xbe40873b	-0.18801586
134	0x3f16bc84	0.588814
135	0xbe88d3a0	-0.26723957
136	0x3fcfa718	1.6222868
137	0xbea331f0	-0.31874037
138	0x3fa889ee	1.3167093
139	0xbfac48af	-1.3459681
140	0x3ebc77ac	0.36810052
141	0x3eee465c	0.46538055
142	0x3f625897	0.8841643
143	0xbe27accc	-0.1637451
144	0x3fc018ee	1.5007608
145	0xbe9adc20	-0.30246067
146	0xbe6feb27	-0.23429547
147	0x3d414b0d	0.047190715
148	0xbf774af6	-0.96598756
149	0x3e939068	0.2882111
150	0x3fa08be6	1.2542694
151	0x3effec4d	0.4998497
152	0xbe5783c2	-0.21046355
153	0xbf04b9fe	-0.518463
154	0xbf2ea817	-0.68225235
155	0xbdd16a0c	-0.10225305
156	0x3f1ba904	0.6080477
157	0xbf21e78d	-0.63243943
158	0xbe422800	-0.18960571
159	0x3dd2270f	0.10261356
160	0x3f993a1f	1.1970862
161	0xbe992828	-0.2991345
162	0x3fee3f27	1.8613023
163	0xc049c63f	-3.152725
164	0x3e3a2731	0.18179013
165	0x3f64fdcb	0.8944976
166	0x3f4536e6	0.77036893
167	0x3e5578ac	0.20846814
168	0xbf5c9e56	-0.861791
169	0x3fa0f760	1.2575493
170	0x3e10167b	0.14071076
171	0xbf480811	-0.7813731
172	0xbf00436a	-0.50102866
173	0x3ebf1d9e	0.37327284
174	0xbfec5371	-1.8462964
175	0x4072013d	3.7813256
176	0x3eac2407	0.33621237
177	0xbf917a3f	-1.1365432
178	0xbfb10ddf	-1.3832358
179	0x3ea026ec	0.31279695
180	0x3d5048a5	0.05085053
181	0xc01bb3ad	-2.4328415
182	0x3f6a187f	0.9144363
183	0xbe5e0687	-0.21682177
184	0xbecbb400	-0.39785767
185	0xbda31d18	-0.079645336
186	0x3f01085f	0.504034
187	0xbf0ab271	-0.5417853
188	0xbf21b6cc	-0.6316955
189	0x3f62f5a8	0.8865609
190	0x3fa6a0d0	1.3017826
191	0x3eb1d414	0.34732115
192	0xbf4b5802	-0.79431164
193	0xbfa0b4af	-1.255514
194	0x3f8d7c61	1.1053582
195	0x3ee6dd47	0.45090696
196	0x3f747232	0.9548675
197	0x3ec07a28	0.37593198
198	0xbf17c40f	-0.59283537
199	0x3f256b11	0.64616495
200	0xbf10dd57	-0.5658774
201	0x3deb91e6	0.11502437
202	0x3f18d8f0	0.5970602
203	0xbeadd88f	-0.33954284
204	0xbfe8fc49	-1.8201991
205	0x4007d96c	2.1226454
206	0xbf6f9d6a	-0.9359957
207	0x3eecdda1	0.4626284
208	0x402e7bc0	2.726303
209	0xbe870f5f	-0.26378915

feats.Degree.bias f4 [35]
0	0x3eecc3c9	0.46243122
1	0xbf04d5ca	-0.51888716
2	0x3e9b336c	0.3031267
3	0xbe120dbe	-0.14263055
4	0x3daacc65	0.083397664
5	0xbe04f1bc	-0.1298284
6	0xbc2f6630	-0.010705516
7	0x3e74e0d4	0.2391389
8	0x3e213060	0.1574111
9	0xbee26681	-0.4421883
10	0x3e4f8fd4	0.2026971
11	0x3ea33084	0.31872952
12	0x3e8f9bc8	0.2804854
13	0x3ea2905f	0.3175077
14	0xbee27391	-0.44228795
15	0x3e490ddb	0.19634192
16	0x3dd2c121	0.10290743
17	0x3e58364e	0.21114466
18	0x3eb87410	0.3602605
19	0x3e9affd4	0.30273306
20	0x3df8ba27	0.12144881
21	0x3e5c5049	0.21515001
22	0xbd1a124a	-0.037615098
23	0xbe00220b	-0.12512986
24	0xbe9e57bf	-0.3092632
25	0xbd37563b	-0.04475997
26	0xbd374569	-0.04474393
27	0x3e574ea2	0.2102609
28	0x3e422411	0.1895907
29	0xbeb650f8	-0.3560865
30	0x3e3db5b3	0.18526344
31	0x3ea6bb8b	0.3256496
32	0xbd743ad7	-0.059626427
33	0x3e87bb7e	0.26510233
34	0xbd2608e8	-0.040535837

feats.TotalNumHs.weight f4 [35, 5]
0	0xbdd030c9	-0.10165555
1	0xbe6af436	-0.22944722
2	0x3c7e8b63	0.015536162
3	0x3b8fcbc6	0.0043883054
4	0xbe4f44ff	-0.20241164
5	0xbe508f64	-0.20367199
6	0xbb8521ca	-0.004062866
7	0x3dbbf0e5	0.09176806
8	0xbfa2317d	-1.2671353
9	0xbe065bd8	-0.13120973
10	0x3cc3a800	0.02388382
11	0x3d83bf08	0.06432921
12	0xbe8311aa	-0.25599414
13	0x3f44eed5	0.7692693
14	0xbe8a741e	-0.27041715
15	0x3bd98fe4	0.0066394676
16	0x3e7b2310	0.24525094
17	0xbe9bc1e9	-0.3042138
18	0xbde42ea9	-0.11141712
19	0xbdab7058	-0.08371037
20	0xbd73815d	-0.059449542
21	0xbf39fdd8	-0.7265296
22	0x3e226243	0.15857796
23	0x3eefe514	0.4685446
24	0xbe9d2011	-0.30688527
25	0x3ec2873a	0.37993795
26	0xbf8ff2f2	-1.1246016
27	0xbdde228b	-0.10846432
28	0x3f06ff03	0.52732867
29	0xbecf1556	-0.40445966
30	0x3e1d6c04	0.15373236
31	0xbe4f444c	-0.20240897
32	0xbeaa755c	-0.33292663
33	0x3ee75277	0.45180103
34	0xbec06754	-0.37578833
35	0xbe01b751	-0.12667586
36	0xbf3f7df1	-0.74801546
37	0xbd8f234a	-0.06989153
38	0x3f43212c	0.7622249
39	0xbee1c4cb	-0.44095454
40	0xbd94b1ca	-0.07260473
41	0x3c255b13	0.010092515
42	0xbe073c8a	-0.13206688
43	0xbe65c18a	-0.2243711
44	0x3e3a7b5c	0.1821112
45	0x3d8df7df	0.06932043
46	0x3e0773bb	0.13227741
47	0x3f53d725	0.8275016
48	0xbedfe9d0	-0.43733072
49	0xbc56b100	-0.0131037235
50	0xbefecd4c	-0.49766004
51	0xbeb9bc2e	-0.36276382
52	0xbdb6786b	-0.08909687
53	0x3ed1b7d2	0.40960556
54	0x3e2d907c	0.16949648
55	0x3e29863e	0.16555116
56	0xbdcbcb37	-0.099508695
57	0x3ecfde31	0.40599206
58	0x3ed33620	0.41252232
59	0xbe5beda9	-0.21477379
60	0x3e7951f2	0.24347666
61	0x3bd7a30c	0.006580716
62	0xbecdf1a1	-0.4022341
63	0xbf1e49e4	-0.618315
64	0xbd4ed058	-0.05049166
65	0x3f0b5dfa	0.5444027
66	0xbe91a78c	-0.2844814
67	0x3e96881c	0.29400718
68	0xbf11f4a2	-0.57013905
69	0xbe8e2cd4	-0.27768576
70	0x3eff1aef	0.49825236
71	0x3dbf8e87	0.09353357
72	0x3e76581c	0.24057049
73	0x3ef6f04d	0.4823021
74	0xbeba5eae	-0.3640036
75	0xbe5e6776	-0.21719155
76	0x3ea3ef9d	0.32018748
77	0x3d0f6190	0.035005152
78	0xbedf5ef9	-0.43627146
79	0xbd2ff5c0	-0.042958975
80	0xbc5641df	-0.013077228
81	0x3d34223c	0.04397796
82	0x3e2e0717	0.16994892
83	0xbef9ea2b	-0.48811468
84	0x3e73dd0c	0.23814791
85	0x3e961e56	0.2932002
86	0xbea18e8b	-0.31554064
87	0x3ed4cc47	0.415621
88	0xbeb58df6	-0.3545987
89	0x3ed7c492	0.4214216
90	0xbd28af51	-0.04118282
91	0xbd76891c	-0.06018935
92	0xbe269a62	-0.1626983
93	0xbdd81472	-0.10550775
94	0xbe949102	-0.29016882
95	0x3dc95f46	0.09832625
96	0xbe40bbe9	-0.18821682
97	0x3f2a7763	0.6658842
98	0x3ddd5a3f	0.10808229
99	0xbd919428	-0.07108337
100	0x3b22a82e	0.0024819481
101	0x3eb4a029	0.35278443
102	0xbf1905be	-0.59774387
103	0x3e6533e2	0.22383073
104	0xbeb1ccbc	-0.34726512
105	0x3eed8ca6	0.4639637
106	0xbdf5dffa	-0.12005611
107	0x3ec40b1b	0.38289723
108	0xbea7b5b5	-0.3275582
109	0x3ec90434	0.3926102
110	0xbeabe2e8	-0.33571553
111	0x3ebd5832	0.3698135
112	0x3deca00e	0.115539655
113	0xbe5e7419	-0.21723975
114	0x3cb1b460	0.021692455
115	0xbe207fc3	-0.15673737
116	0x3f3246ea	0.69639456
117	0xbe2e599a	-0.17026368
118	0x3e95cf58	0.29259753
119	0x3de4df18	0.11175364
120	0xbe9ebf9e	-0.31005567
121	0x3db0449d	0.08606837
122	0x3e2c9e3b	0.16857235
123	0x3e893cac	0.268041
124	0x3e9eb78c	0.3099941
125	0x3e7de3fd	0.24794002
126	0xbf482b34	-0.7819092
127	0xbe66e8e9	-0.22549786
128	0xbd889272	-0.06668557
129	0xbec161f3	-0.37770042
130	0x3e7ca3d3	0.24671869
131	0x3e951ee9	0.29125145
132	0xbd8ab7d7	-0.06773346
133	0xbea771d9	-0.32704046
134	0xbe104b34	-0.14091188
135	0x3e8af7ff	0.2714233
136	0xbf6d2825	-0.9263938
137	0xbe354bdb	-0.17704718
138	0x3f4022c8	0.7505307
139	0x3e8fbb8a	0.28072768
140	0xbf282dd9	-0.6569496
141	0x3ec34c6c	0.38144243
142	0x3f088abf	0.5333671
143	0x3f1b42dd	0.606489
144	0x3ee2ecb8	0.44321227
145	0x3ea412fc	0.32045734
146	0x3e35d019	0.17755164
147	0x3ed528e3	0.41632757
148	0xbe175f64	-0.14782482
149	0xbed28291	-0.4111524
150	0x3e5a6909	0.2132913
151	0xbef0775d	-0.46966067
152	0x3e7d739d	0.24751134
153	0x3e42ba6d	0.19016428
154	0xbed782d3	-0.42091998
155	0x3ee66c09	0.450043
156	0xbe5f9af5	-0.21836455
157	0xbf188730	-0.5958128
158	0xbf24f918	-0.64442587
159	0x3ed1eb40	0.40999794
160	0xbeeda3b2	-0.46413952
161	0x3f02c262	0.51077855
162	0x3e1aba47	0.15110122
163	0x3e6c0f4f	0.23052715
164	0x3ee09af6	0.43868226
165	0xbe054fa1	-0.13018657
166	0x3ed1ffe0	0.4101553
167	0xbe9bdb09	-0.30440548
168	0xbed765d3	-0.42069873
169	0x3e29e024	0.16589409
170	0x3f7ce79b	0.987909
171	0x3cc5cd66	0.024145793
172	0x3de5ff6b	0.11230358
173	0xbf849172	-1.0356886
174	0xbde3c03c	-0.1112065

feats.TotalNumHs.bias f4 [35]
0	0x3e7ec95f	0.24881504
1	0x3def9f84	0.11700347
2	0x3e0c0f22	0.13677648
3	0xbe514827	-0.2043768
4	0xbc6005ea	-0.013673285
5	0x3ef845a7	0.4849064
6	0xbdba0f4f	-0.09084951
7	0x392cebda	0.0001649106
8	0xbd9ef5e7	-0.07761746
9	0xbd3e6637	-0.0464842
10	0xbe2e8092	-0.17041233
11	0xbeb46ea2	-0.35240656
12	0x3e99b343	0.30019578
13	0xbe9d4ba4	-0.30721772
14	0x3ebf99a8	0.37421918
15	0xbe59bffc	-0.21264642
16	0xbe71b383	-0.23603635
17	0xbe388583	-0.1801968
18	0x3dcaccad	0.0990232
19	0xbadef9c1	-0.0017011688
20	0xbebcec14	-0.36898863
21	0x3ea4c954	0.3218485
22	0xbeffc5b8	-0.49955535
23	0xbe4b4eaa	-0.19854227
24	0xbe5218a8	-0.20517218
25	0x3ea3de6b	0.3200563
26	0xbed05f06	-0.40697497
27	0xbe7ace93	-0.24492864
28	0x3e994dc7	0.29942152
29	0xbebe7460	-0.37198162
30	0x3d997a41	0.07494021
31	0xbe8c91d0	-0.27454996
32	0xbd89d9f3	-0.06731024
33	0xbeb12f4d	-0.346064
34	0x3cccfce0	0.025022924

feats.ImplicitValence.weight f4 [35, 6]
0	0xbcb97cb8	-0.022642478
1	0xbf8f5070	-1.1196423
2	0x3f090bb6	0.53533494
3	0x3dad76aa	0.08469899
4	0xbec5295f	-0.38508126
5	0x3eb63cc4	0.35593235
6	0xbd46a545	-0.048497457
7	0x3de1edff	0.11031722
8	0x3e30e9d2	0.17276695
9	0xbf450072	-0.76953804
10	0x3ebd576a	0.36980754
11	0xbecc793a	-0.3993624
12	0x3ef729c6	0.48274058
13	0xbf3780f9	-0.7168117
14	0xbe9f62bc	-0.31130016
15	0x3f5bbbf5	0.85833675
16	0xbeb410f1	-0.35169175
17	0x3e8d1940	0.27558327
18	0x3e48c1eb	0.19605224
19	0x3e86dfdd	0.2634267
20	0x3ec24549	0.37943485
21	0x3ec6d7f8	0.38836646
22	0xbe9e91e4	-0.3097068
23	0x3d8461ec	0.064639896
24	0x3efb7842	0.49115187
25	0xbdd79b48	-0.105276644
26	0xbec09c45	-0.37619224
27	0x3dbce7d0	0.09223902
28	0x3eafefd0	0.3436265
29	0x3ea026ea	0.3127969
30	0x3dddfc46	0.10839133
31	0xbf9a9efb	-1.2079767
32	0xbeca90de	-0.3956365
33	0x3f32b74a	0.69810927
34	0xbe917c23	-0.2841502
35	0x3e03384c	0.12814444
36	0xbed9d7cd	-0.42547455
37	0xbda0a9f2	-0.078449145
38	0x3c9c6b3b	0.0190941
39	0x3e9028fc	0.2815627
40	0xbece23cd	-0.4026169
41	0xbea06de5	-0.31333843
42	0x3ebb18e5	0.3654243
43	0xbf15e107	-0.5854649
44	0x3e24f1a8	0.1610781
45	0x3f830497	1.0235776
46	0xbe73fb25	-0.23826273
47	0xbe10fb7c	-0.14158434
48	0xbefac7ca	-0.48980552
49	0x3f522516	0.8208784
50	0x3c40d0b2	0.011768507
51	0xbdb9d3da	-0.090736106
52	0xbe7f4f20	-0.24932528
53	0x3dab9a68	0.0837906
54	0xbe9d3930	-0.30707693
55	0xbdd2214c	-0.10260257
56	0x3f223376	0.63359773
57	0xbec467d1	-0.38360456
58	0x3c3a7c60	0.011382192
59	0xbe63d4b3	-0.22249107
60	0xbee59165	-0.4483749
61	0xbe184de5	-0.14873464
62	0x3d899439	0.06717724
63	0x3f1443bd	0.5791586
64	0xbed07c15	-0.40719667
65	0xbebf485f	-0.37359902
66	0xbe50a99b	-0.203772
67	0xbcc04dc7	-0.023474587
68	0xbeb51e8c	-0.35374868
69	0x3f62c3b1	0.8857985
70	0x3e098c88	0.13432515
71	0x3e323290	0.174021
72	0x3f0688dc	0.5255258
73	0xbe4112dd	-0.18854852
74	0xbf03e5fb	-0.515228
75	0xbf17e38b	-0.5933158
76	0xbe676c0d	-0.22599812
77	0xbe9f9882	-0.31171042
78	0x3f42948d	0.7600792
79	0xbf10905a	-0.56470263
80	0xbe99eb17	-0.30062172
81	0xbf159e84	-0.58445
82	0x3bd92300	0.006626487
83	0x3e47b714	0.19503433
84	0xbe71c7d6	-0.23611388
85	0x3db0bd25	0.086298265
86	0xbe8fb12f	-0.28064868
87	0x3f361327	0.71122974
88	0x3dada800	0.08479309
89	0x3e96d78c	0.29461324
90	0x3da997c5	0.08280901
91	0xbe34d08c	-0.1765768
92	0x3efc2e01	0.49253848
93	0x3e7bd843	0.24594216
94	0x3eb5fc1e	0.35543913
95	0x3e96c2fa	0.2944563
96	0xbed234e2	-0.4105597
97	0x3ed40dc5	0.41416755
98	0xbe690655	-0.22756322
99	0xbef7abfc	-0.483734
100	0xbec1f1e9	-0.37879875
101	0x3ebaed98	0.36509395
102	0x3e543c6f	0.20726179
103	0xbf19ac00	-0.60028076
104	0x3dcf7a39	0.10130734
105	0xbe242958	-0.16031396
106	0xbe879696	-0.26482075
107	0x3e2200d0	0.15820622
108	0xbe260350	-0.16212201
109	0xbf46ae5f	-0.7760982
110	0xbe99761e	-0.2997293
111	0x3f03f712	0.51548874
112	0x3eb93b8c	0.36178243
113	0xbe863ace	-0.2621674
114	0x3dff01ca	0.12451513
115	0xbe9a8ec7	-0.30187055
116	0x3ece5a6f	0.4030337
117	0xbe827e64	-0.25487053
118	0xbe8590e8	-0.26087117
119	0x3e9e71c0	0.3094616
120	0x3d673f7c	0.056457028
121	0x3eac59fe	0.3366241
122	0xbf39309e	-0.7233981
123	0x3ecd0ba2	0.40047938
124	0xbda83d3c	-0.082148045
125	0xbd1baa40	-0.03800416
126	0xbe2bb7a8	-0.16769278
127	0x3f14e319	0.58159024
128	0x3e2df703	0.16988759
129	0xbe0b0955	-0.13577779
130	0x3e02c5dc	0.1277079
131	0xbe74d7f2	-0.23910502
132	0x3b93fd42	0.0045162747
133	0x3eca6c17	0.3953559
134	0xbd13a35c	-0.036044464
135	0xbe04d45c	-0.12971634
136	0x3e509f90	0.20373368
137	0xbccb0d90	-0.02478674
138	0xbf283ec3	-0.65720767
139	0x3ea7ba69	0.32759407
140	0x3edb3848	0.42816377
141	0x3e084008	0.13305676
142	0xbea677c2	-0.32513243
143	0x3e564c80	0.2092762
144	0x3e544cac	0.20732373
145	0x3f17fe70	0.59372616
146	0x3e745396	0.2386001
147	0xbeb6232b	-0.35573706
148	0xbd4e1680	-0.050314426
149	0x3e3ad6dc	0.18246025
150	0x3f5601d7	0.8359656
151	0xbf3f3fb4	-0.7470658
152	0xbf04b6a1	-0.5184117
153	0x3ef17d8c	0.47166097
154	0xbeaea01d	-0.34106532
155	0xbeceffc9	-0.40429524
156	0xbac13301	-0.0014739932
157	0xbe084a7b	-0.13309662
158	0xbe90e10f	-0.28296706
159	0xbe12c888	-0.14334309
160	0xbe393cf3	-0.18089657
161	0xbe581c0d	-0.2110445
162	0xbd032afe	-0.032023422
163	0xbedb6044	-0.42846882
164	0x3c80037f	0.015626667
165	0x3f837c83	1.0272373
166	0xbdc2075c	-0.0947406
167	0x3ecc1558	0.39860034
168	0xbf29eec2	-0.6637994
169	0x3df6cc72	0.120507136
170	0xbe1ed671	-0.1551149
171	0x3f283789	0.6570974
172	0xbd1840f0	-0.037171304
173	0xbe8d31ae	-0.27576965
174	0x3e1f39dd	0.15549417
175	0x3f5c8c18	0.86151266
176	0x3e565452	0.20930603
177	0xbec975b1	-0.39347604
178	0xbe9f64f4	-0.3113171
179	0xbe758b34	-0.23978883
180	0x3ed016a1	0.40642264
181	0xbf2b8111	-0.66993815
182	0xbe61b931	-0.22043301
183	0x3ebd3558	0.3695476
184	0xbdf315fc	-0.118694276
185	0x3e961f42	0.29320723
186	0x3f461e4f	0.7739
187	0xbe40bd56	-0.18822226
188	0xbe31fa5f	-0.17380665
189	0xbec581d0	-0.38575602
190	0x3ebdd8d4	0.3707949
191	0xbeb49861	-0.35272506
192	0xbf331ab7	-0.6996264
193	0x3e36fc8f	0.17869781
194	0x3ebda42b	0.37039313
195	0x3f685b70	0.9076452
196	0x3ebf183e	0.37323183
197	0x3daee158	0.08539075
198	0x3e8db467	0.276767
199	0x3eb0e91f	0.34552857
200	0x3e41ed5f	0.18938206
201	0xbf2d8214	-0.6777661
202	0x3e1a5a98	0.15073621
203	0x3e5ef108	0.21771634
204	0x3f46395e	0.77431285
205	0x3e968854	0.29400885
206	0x3d99e9ec	0.0751532
207	0xbf8333b9	-1.025016
208	0x3dbae5dc	0.091258734
209	0xbeb69b9f	-0.35665604

feats.ImplicitValence.bias f4 [35]
0	0x3d997a65	0.07494048
1	0x3e609990	0.2193358
2	0x3cabd878	0.020977244
3	0x3d26ba7d	0.040705193
4	0xbe5e4076	-0.21704277
5	0x3e8b0181	0.27149585
6	0x3e339bcf	0.17539905
7	0xbdcfcd28	-0.10146552
8	0x3cf31b2f	0.029676048
9	0x3e45dd8e	0.19322798
10	0x3dfe372a	0.124128655
11	0x3dff1466	0.124550626
12	0xbdf0240c	-0.117256254
13	0xbe309663	-0.17244868
14	0x3d98d0ea	0.07461722
15	0x3e857757	0.26067612
16	0xbe98460c	-0.29740942
17	0xbe936453	-0.2878748
18	0xbe05257c	-0.1300258
19	0xbd99e537	-0.075144224
20	0xbe4436f0	-0.19161582
21	0xbdc8bada	-0.09801264
22	0xbeec5c74	-0.46164286
23	0xbe29af90	-0.16570878
24	0x3ee402fe	0.44533533
25	0xbd206b1a	-0.03916464
26	0x3e5d0f0a	0.21587768
27	0xbefa437b	-0.4887961
28	0x3e9fbb47	0.3119757
29	0x3e80d750	0.2516427
30	0x3eb1c960	0.3472395
31	0xbea5c3f3	-0.3237606
32	0x3ead8bcf	0.33895728
33	0x3e80e354	0.25173438
34	0xbeadd99c	-0.33955085

feats.Hybridization.weight f4 [35, 5]
0	0xbe0552bc	-0.13019842
1	0x3d7a2e8f	0.061079558
2	0x3e9ec50e	0.31009716
3	0xbeb24d04	-0.34824383
4	0x3d8adb88	0.067801535
5	0xbfba181d	-1.4538609
6	0x3f3ad9cd	0.7298859
7	0xbf1e7b2e	-0.6190671
8	0xbee13e1f	-0.43992707
9	0xbe646889	-0.22305502
10	0x3fcc16c8	1.5944452
11	0xbf8ad95e	-1.0847585
12	0x3de23e25	0.110470094
13	0x3e923dd0	0.28562784
14	0xbda22d78	-0.07918829
15	0x3eca00e9	0.3945382
16	0xbe81bb22	-0.25338084
17	0xbe4834ca	-0.19551387
18	0x3e576d68	0.21037829
19	0xbe920a0e	-0.28523296
20	0xbf334016	-0.7001966
21	0xbe6ae369	-0.22938313
22	0x3e2c3659	0.16817607
23	0xbe3aa952	-0.18228653
24	0x3d637af0	0.055537164
25	0x3d544497	0.051823225
26	0xbf21ddb6	-0.6322893
27	0xbd9ce27a	-0.076603845
28	0x3ea41c74	0.32052958
29	0xbedace37	-0.42735454
30	0x3fd0eade	1.6321676
31	0xbe4c8c26	-0.19975337
32	0xbd6be2b0	-0.057589233
33	0x3ea82290	0.3283887
34	0xbd55b848	-0.052177697
35	0x3f1b33fd	0.606262
36	0xbf3bf6ac	-0.73423266
37	0x3b985df8	0.004649874
38	0xbe37b510	-0.17940164
39	0xbecd2354	-0.40066016
40	0xbe539dde	-0.2066569
41	0xbef076dd	-0.46965685
42	0x3e053c3f	0.13011263
43	0x3cef6e90	0.029227525
44	0x3e806970	0.25080442
45	0xbf77a828	-0.9674096
46	0x3eeb225c	0.45924652
47	0xbe8ed3d9	-0.27896002
48	0xbd535020	-0.051590085
49	0xbe3ea770	-0.1861856
50	0x3d6bef8a	0.05760149
51	0xbf0cd1b0	-0.5500746
52	0x3e952c44	0.29135334
53	0x3e50f298	0.20405042
54	0xbe98b4aa	-0.29825336
55	0xbcb1fe88	-0.021727815
56	0x3b2e0714	0.0026554512
57	0x3e95d26f	0.2926211
58	0x3e059df4	0.13048536
59	0x3eb7ba54	0.35884345
60	0xbf9ad849	-1.2097255
61	0xbec44a1a	-0.38337785
62	0x3e88a439	0.26687792
63	0x3e525060	0.20538473
64	0x3ec760d8	0.38941073
65	0xbd8e90c7	-0.06961208
66	0x3da68074	0.08129969
67	0x3dc11db3	0.09429493
68	0x3ca014c0	0.019541144
69	0x3e6ee708	0.23330319
70	0xbe807d3d	-0.2509555
71	0x3ec0c3f3	0.37649497
72	0xbe2f9713	-0.17147474
73	0xbede61d1	-0.43434003
74	0xbe855664	-0.26042473
75	0xbf6ec187	-0.9326405
76	0x3f2e6967	0.6812958
77	0xbde99f02	-0.114072815
78	0x3e94cd56	0.2906291
79	0x3dab3e00	0.08361435
80	0xbf10fec2	-0.5663873
81	0x3ee6290f	0.449532
82	0xbdc1acfd	-0.09456823
83	0x3e8fcd74	0.28086436
84	0x3ea21d92	0.31663185
85	0x3e759bd2	0.23985222
86	0x3f0a8524	0.54109406
87	0x3e3d14db	0.18464987
88	0x3ea8e2d6	0.32985562
89	0x3e848e34	0.25889742
90	0xbee0c682	-0.4390145
91	0xbf01e4c7	-0.5073971
92	0x3f2558b8	0.645885
93	0xbebf4824	-0.37359726
94	0xbe7d1265	-0.24714048
95	0xbec741de	-0.3891744
96	0x3e3c165d	0.18367906
97	0x3ec942b9	0.39308718
98	0x3e814ffa	0.2525633
99	0xbec97c8a	-0.39352828
100	0x3f08ceac	0.53440356
101	0xbee7eed0	-0.45299387
102	0xbe495a78	-0.19663417
103	0xbdd4974c	-0.1038042
104	0x3eca1408	0.39468408
105	0xbf663a48	-0.8993268
106	0xbe1fd1da	-0.15607396
107	0x3f3951f9	0.72390705
108	0x3e365da0	0.17809153
109	0xbedf674c	-0.43633497
110	0x3faaac3e	1.3333814
111	0xbe06b55d	-0.13155122
112	0xbe9c8eed	-0.30577794
113	0x3e7fba24	0.24973351
114	0xbe3e50b4	-0.18585473
115	0xbf8b3fbd	-1.0878826
116	0x3f00508e	0.50122917
117	0x3c9aa97c	0.018879645
118	0xbe00b40e	-0.12568685
119	0xbde0e170	-0.10980499
120	0xbf93f2ed	-1.155851
121	0x3f345780	0.70446014
122	0xbecc7720	-0.39934635
123	0xbec266d8	-0.3796909
124	0x3eacda1c	0.33760154
125	0xbd8f2148	-0.0698877
126	0xbf025a57	-0.509191
127	0x3f2e9205	0.6819156
128	0xbed08020	-0.40722752
129	0x3ee3da64	0.44502556
130	0xbf6bc2d6	-0.9209417
131	0x3db350ff	0.08755683
132	0x3ed7cb3d	0.42147246
133	0xbe9807ee	-0.2969355
134	0xbe8f7e30	-0.2802596
135	0x3f7469ad	0.9547375
136	0xbecf6e10	-0.4051366
137	0x3eababac	0.33529413
138	0x3c741160	0.014896721
139	0x3e72cf80	0.23711967
140	0x3e8e96be	0.27849382
141	0xbf2246fc	-0.63389564
142	0x3eb48563	0.35258016
143	0x3ec4539e	0.38345045
144	0x3ea04ba0	0.31307697
145	0xbec8010e	-0.39063305
146	0xbe883048	-0.26599336
147	0x3d500b71	0.05079216
148	0x3d403c00	0.04693222
149	0x3ea6ee18	0.32603526
150	0xbe7cef9f	-0.24700783
151	0x3e7c1d54	0.24620563
152	0x3eed613c	0.46363246
153	0xbebc65f0	-0.36796522
154	0x3dca23a8	0.09870082
155	0xbef05423	-0.4693919
156	0x3e358c46	0.17729291
157	0x3e961320	0.29311466
158	0xbd166668	-0.036718756
159	0xbed56373	-0.41677436
160	0x3f9b60c9	1.2138911
161	0x3e17dce8	0.14830363
162	0xbea55e53	-0.32298526
163	0xbe929b0e	-0.28633922
164	0x3e393be0	0.18089247
165	0xbfa806e8	-1.3127108
166	0x3f35ba73	0.70987624
167	0xbf127680	-0.57212067
168	0xbe13e818	-0.14444005
169	0x3cd83aa0	0.026395142
170	0xbeb476e0	-0.35246944
171	0xbf105caf	-0.56391424
172	0x3e9f0a92	0.31062752
173	0xbecbe75a	-0.39824945
174	0x3d2c7a40	0.042108774

feats.Hybridization.bias f4 [35]
0	0xbe796ab7	-0.24357115
1	0xbec0fa34	-0.3769089
2	0xbc01e323	-0.007927689
3	0x3f0b97d0	0.5452852
4	0xbe485bf3	-0.19566326
5	0xbe3499c6	-0.17636785
6	0x3e958134	0.29200137
7	0xbe807499	-0.25088957
8	0xbeffc19b	-0.49952397
9	0x3e8238c9	0.2543395
10	0xbc9023ec	-0.017595254
11	0xbe0d3229	-0.13788666
12	0xbe5ee303	-0.21766286
13	0x3db13b18	0.08653849
14	0x3e317375	0.173292
15	0xbe78dca3	-0.24302916
16	0x3e251a2b	0.16123264
17	0x3e0e9343	0.13923363
18	0xbd1ebee4	-0.038756266
19	0x3eef7667	0.4677002
20	0xbeb6df20	-0.35717106
21	0xbe883153	-0.2660013
22	0x3eb67121	0.35633186
23	0xbe834439	-0.25637987
24	0xbe83d719	-0.25750044
25	0xbecb03d7	-0.39651367
26	0xbecc0b26	-0.39852256
27	0x3ee4cc4b	0.44687113
28	0x3ea02413	0.31277522
29	0xbedc8c7d	-0.43075934
30	0x3e9d5906	0.30731982
31	0x3e4512c1	0.19245435
32	0xbe1e5fa5	-0.15466173
33	0xbed87a39	-0.42280748
34	0xb967e866	-0.00022116452

feats.FormalCharge.weight f4 [35, 1]
0	0x3d61a12b	0.055085342
1	0x3fa80388	1.3126078
2	0xbe03fc33	-0.12889175
3	0xbf9c0c9f	-1.2191352
4	0x3f0cdc28	0.5502343
5	0xbf6aa662	-0.9166013
6	0xc0163acc	-2.3473387
7	0xbe7ee258	-0.24891031
8	0x3e90bf72	0.2827106
9	0x3fbccc31	1.4749814
10	0xbee4c78d	-0.44683495
11	0x3e2b696d	0.16739435
12	0xbe0f39b1	-0.13986851
13	0x3e501b95	0.20323022
14	0x3f2e474b	0.68077534
15	0x3f904097	1.1269711
16	0x3f0d8828	0.5528588
17	0xbe7f9836	-0.24960408
18	0x3f23453b	0.6377751
19	0xbf391518	-0.7229781
20	0xbf316332	-0.69291985
21	0x3f5f7d56	0.8730062
22	0xbf7696bf	-0.9632377
23	0x3f362c1d	0.7116106
24	0x3fa8ed5a	1.3197434
25	0x3f2b58a2	0.6693212
26	0x3f935614	1.1510644
27	0xbfd60d04	-1.6722722
28	0x3e511227	0.20417081
29	0x3ef1550f	0.47135207
30	0xbf7abe60	-0.9794674
31	0x3c3f9b4f	0.011694743
32	0xc0182e33	-2.3778198
33	0x3f0d9333	0.55302733
34	0x3ee8c31d	0.4546136

feats.FormalCharge.bias f4 [35]
0	0x3ef659c8	0.48115373
1	0x3e608aae	0.21927902
2	0x3f893a3f	1.07209
3	0xbf54b842	-0.83093655
4	0xbf05a199	-0.52199703
5	0xbdc432af	-0.0957998
6	0x3ed6fcd4	0.41989768
7	0x3f85bed4	1.0448861
8	0xbf19941b	-0.59991616
9	0x3f2b3a77	0.66886085
10	0xbe32e04b	-0.17468373
11	0x3ea9778f	0.33099028
12	0xbef2c3d3	-0.47415027
13	0xbf0e8f40	-0.5568733
14	0xbf84f96c	-1.0388618
15	0xbefc98bd	-0.4933528
16	0x3f0af148	0.54274416
17	0x3f2453de	0.6419047
18	0xbe360a94	-0.17777473
19	0x3f862fae	1.0483301
20	0x3e8da61d	0.27665797
21	0x3e9c8d01	0.30576327
22	0xbcc95d9f	-0.024580775
23	0xbe06322b	-0.13105075
24	0xbf476d13	-0.7790081
25	0xbe3b52f9	-0.1829337
26	0x3d65471a	0.05597601
27	0xbecd76c8	-0.40129685
28	0xbee500e2	-0.44727236
29	0x3e78844d	0.24269219
30	0x3d59cb25	0.05317225
31	0x3f21bcfa	0.6317898
32	0xbecccf63	-0.40001974
33	0x3f525dee	0.82174575
34	0x3f69f49f	0.9138889

feats.IsInRing.weight f4 [35, 1]
0	0xbf8207ad	-1.0158592
1	0xbf5141d5	-0.81741077
2	0x3d1c4f5c	0.03816162
3	0x3e0bde5f	0.13659047
4	0xbf250427	-0.6445946
5	0xbd6d05ad	-0.05786674
6	0x3f71ad39	0.9440494
7	0x3e959ced	0.29221287
8	0x3e70fc16	0.23533663
9	0x3d80cb83	0.06288817
10	0x3f6907af	0.9102735
11	0xbd9e910d	-0.0774251
12	0xbbceb04d	-0.006307638
13	0xbf2a8421	-0.6660786
14	0x3eb95978	0.36201072
15	0x3effd33f	0.49965855
16	0x3f3d41c5	0.7392848
17	0xbf4a472c	-0.7901485
18	0x3da45baa	0.08025296
19	0x3e9c7595	0.30558458
20	0x3f751c28	0.9574609
21	0x3f0b721f	0.5447101
22	0x3f68478e	0.90734184
23	0xbe60ddf2	-0.21959665
24	0xbd182838	-0.03714773
25	0x3e49a665	0.1969238
26	0xbf15b151	-0.5847369
27	0xbe5e118e	-0.21686384
28	0x3f5239ca	0.8211943
29	0xbcccdc10	-0.025007278
30	0xbe9e9404	-0.30972302
31	0xbe9badb7	-0.3040597
32	0x3f89136c	1.0709052
33	0xbf5b9135	-0.85768443
34	0xbf6a9e29	-0.91647583

feats.IsInRing.bias f4 [35]
0	0xbd7dd193	-0.061967444
1	0x3f552a1f	0.83267397
2	0x3e25afd5	0.16180356
3	0xbf480464	-0.781317
4	0xbdc1c69c	-0.0946171
5	0xbf020f0e	-0.5080422
6	0xbf320e4d	-0.6955307
7	0x3e19a417	0.15004002
8	0x3f2fd1f9	0.6867977
9	0xbef49282	-0.47768027
10	0x3efc1aa9	0.4923909
11	0xbd0ca898	-0.03434047
12	0xbf714a73	-0.94254225
13	0x3f40b9ef	0.7528371
14	0x3f719909	0.9437414
15	0xbeda93dd	-0.42690936
16	0xbe765fe8	-0.24060023
17	0xbf101b8a	-0.5629202
18	0x3f7a2506	0.97712743
19	0xbede5417	-0.4342353
20	0xbd3b77e6	-0.04576864
21	0x3f526171	0.82179934
22	0x3f56b9ba	0.83877146
23	0xbf4bff3d	-0.7968634
24	0x3f34e916	0.7066816
25	0x3efd6022	0.49487406
26	0xbe246460	-0.16053915
27	0xbe60e4bf	-0.2196226
28	0xbf292362	-0.66069615
29	0x3f581ba9	0.84417206
30	0xbe82476a	-0.2544511
31	0xbeefa1cd	-0.46803132
32	0xbf10e98a	-0.5660635
33	0x3f1f2191	0.62160593
34	0x3c765baa	0.015036503

feats.IsAromatic.weight f4 [35, 1]
0	0x3faa484b	1.3303312
1	0xbb9fcb5e	-0.004876538
2	0x3da08d15	0.07839409
3	0x3da5b05a	0.08090277
4	0x3d4e1f30	0.05032271
5	0xbe135a39	-0.14389886
6	0x3f748304	0.95512414
7	0xbddd334f	-0.10800802
8	0xbf4fd402	-0.81182873
9	0xbf2719ea	-0.65273917
10	0x3f4995c7	0.7874417
11	0x3f2e7972	0.6815406
12	0xbe43b2a9	-0.19111122
13	0xbf03b931	-0.51454455
14	0xbf35ecb5	-0.7106431
15	0xbeee8a9e	-0.46590132
16	0x3ef5d6df	0.48015496
17	0x3fa46912	1.2844565
18	0x3e593262	0.21210626
19	0xbeb75638	-0.35807967
20	0x3cf09b95	0.029371062
21	0xbe033079	-0.1281146
22	0xbbcade30	-0.0061910376
23	0xbf0e79f8	-0.5565486
24	0x3e8994cf	0.26871344
25	0xbea78f0e	-0.3272633
26	0x3ee925fb	0.4553679
27	0x3f1ead63	0.6198332
28	0x3da61614	0.0810968
29	0xbf41a872	-0.7564765
30	0xbef59c6f	-0.47970912
31	0x3eeed813	0.46649227
32	0x3f433a8e	0.7626122
33	0xbf622219	-0.8833328
34	0x3ee502ab	0.44728598

feats.IsAromatic.bias f4 [35]
0	0xbf028fad	-0.5100048
1	0x3eb899bb	0.36054787
2	0xbf0d9bd4	-0.553159
3	0x3e3b4ede	0.18291804
4	0x3d5c4266	0.05377426
5	0x3ebefc25	0.37301746
6	0xbf93d3b5	-1.1548983
7	0x3e5c6a7b	0.21524994
8	0x3f3efc52	0.7460376
9	0x3ec73887	0.38910314
10	0xbf360006	-0.71093786
11	0xbe6fecae	-0.2343013
12	0x3f00bab8	0.5028491
13	0x3e453506	0.19258508
14	0x3e5c4374	0.21510106
15	0x3e20f3b8	0.15717971
16	0x3f141cbe	0.5785636
17	0xbf25a426	-0.64703596
18	0xbd85b053	-0.06527772
19	0xbe059b0f	-0.13047431
20	0x3ede3eee	0.43407387
21	0xbf4c12c7	-0.7971615
22	0x3df36aa5	0.11885575
23	0x3d7bcfea	0.06147758
24	0x3d287652	0.041128464
25	0xbeb4d495	-0.35318437
26	0x3eea4f15	0.4576346
27	0xbf582a2f	-0.8443937
28	0x3f37f6a7	0.71860737
29	0xbbbcb752	-0.005759158
30	0xbdbfe897	-0.09370535
31	0xbf2cb391	-0.67461497
32	0x3f05a8b0	0.5221052
33	0xbee3d048	-0.44494843
34	0x3e04014f	0.12891124

feats.NumRadicalElectrons.weight f4 [35, 1]
0	0xbf675b42	-0.90373623
1	0x3f4f45ba	0.8096577
2	0xbe0a9458	-0.13533151
3	0x3f542982	0.82875836
4	0x3e7462d8	0.23865831
5	0xbf305488	-0.68878984
6	0x3cf90ec0	0.030402541
7	0xbc677e80	-0.014129281
8	0xbd621a20	-0.055200696
9	0xbf0af624	-0.5428183
10	0x3f29ad8c	0.66280437
11	0xbf6a7e10	-0.91598606
12	0xbf109d7c	-0.564903
13	0x3f59deb4	0.85105443
14	0xbf59b1a2	-0.8503667
15	0xbe2b3ee0	-0.16723204
16	0xbf682244	-0.90677285
17	0x3f4c4ef8	0.79807997
18	0x3f7f1cbe	0.9965323
19	0xbf456bba	-0.771175
20	0x3eca4fc8	0.39513993
21	0xbf6b42f4	-0.9189904
22	0x3ea49048	0.32141328
23	0xbe6b5330	-0.22980952
24	0x3e13fd40	0.14452076
25	0x3f14c614	0.58114743
26	0x3d8f9fa0	0.07012868
27	0x3e7dc698	0.24782789
28	0x3e65e4c8	0.22450554
29	0xbf741d34	-0.9535706
30	0xbf5d1fae	-0.86376464
31	0x3f32f200	0.6990051
32	0xbf7da19a	-0.9907471
33	0x3ec658dc	0.3873967
34	0xbf6b96a2	-0.9202672

feats.NumRadicalElectrons.bias f4 [35]
0	0xbeba4155	-0.3637797
1	0x3f14a1f1	0.580596
2	0xbd9c71ac	-0.07638869
3	0xbf59bd34	-0.85054326
4	0x3db26b1c	0.08711836
5	0x3f10ee19	0.5661331
6	0x3e881787	0.2658045
7	0x3ea71b47	0.32637998
8	0x3f45028d	0.7695702
9	0xbea5e387	-0.32400152
10	0x3f01c0a2	0.5068456
11	0xbf77bf87	-0.9677662
12	0x3f3c359b	0.73519295
13	0x3f29af7f	0.6628341
14	0x3c2d435b	0.010575141
15	0xbdfeaacb	-0.1243492
16	0x3d311f1b	0.043242555
17	0xbdb3c688	-0.08778101
18	0xbf3efea6	-0.7460731
19	0x3eb60c75	0.3555638
20	0x3f526138	0.82179594
21	0xbf4abea9	-0.79197174
22	0x3f6292d6	0.88505304
23	0x3dcf8b6e	0.10134016
24	0xbf389a74	-0.72110677
25	0x3f8675af	1.0504664
26	0xbeadd55a	-0.33951837
27	0x3f3d3a9d	0.7391756
28	0xbe7917f7	-0.24325548
29	0x3e873db1	0.26414254
30	0xbe36df6b	-0.17858665
31	0xbf7fc634	-0.9991181
32	0xbe833253	-0.25624332
33	0xbe5033f9	-0.20332326
34	0x3f253715	0.64537174
