attention_pooling35_rat.pth (torch, 43689 bytes, 23 tensors)

gates.AtomicNum.nn.0.weight f4 [1, 12]
0	0x3e42ce14	0.19023925
1	0x3ee1a2a5	0.440694
2	0x3d88c31c	0.06677839
3	0x3f2fac11	0.6862193
4	0xbe8dda07	-0.27705404
5	0xc02bca8e	-2.684238
6	0x3f949141	1.1606828
7	0x3c8139ef	0.015774695
8	0xbd48527a	-0.04890678
9	0x3d1970e9	0.037461195
10	0xbdd21ec0	-0.10259771
11	0x3ebd665f	0.36992165

gates.Degree.nn.0.weight f4 [1, 6]
0	0xbe95a057	-0.29223892
1	0x3eb0c2e9	0.34523705
2	0x3ed80fed	0.4219965
3	0xbf1811bb	-0.59402055
4	0xbf34183e	-0.7034949
5	0x402f81e9	2.742304

gates.TotalNumHs.nn.0.weight f4 [1, 5]
0	0xbeb47078	-0.35242057
1	0xbebdbd1a	-0.37058336
2	0x3e895e4a	0.2682975
3	0xbeae94bf	-0.3409786
4	0xbe1a4f6c	-0.1506936

gates.ImplicitValence.nn.0.weight f4 [1, 6]
0	0xbf9ad937	-1.2097539
1	0xbf93f31e	-1.1558568
2	0xbe95d540	-0.2926426
3	0xbf06ee79	-0.5270763
4	0x3d8e0410	0.069343686
5	0xbd04a140	-0.032380342

gates.Hybridization.nn.0.weight f4 [1, 5]
0	0xbfd6fede	-1.6796529
1	0x3f43ca06	0.7648014
2	0x3fc40dcc	1.531671
3	0xbc5ccf60	-0.013477176
4	0x3fb9e6b7	1.4523534

feats.AtomicNum.weight f4 [35, 12]
0	0xbda5d0d4	-0.080964714
1	0x3e8e9e4d	0.2785515
2	0xbdcbae4e	-0.09945355
3	0xbf6707f1	-0.9024649
4	0xbd47cb40	-0.04877782
5	0x4010d0e8	2.2627506
6	0xbf1d80e7	-0.61524814
7	0x3da3bf36	0.07995455
8	0x3d8f3dd7	0.06994217
9	0xbdf53bd1	-0.119743
10	0x3e249dbe	0.16075799
11	0x3f930020	1.1484413
12	0x3e23a840	0.15982151
13	0x3e23a3c0	0.15980434
14	0xbdc8c5e2	-0.09803368
15	0xbf809b9c	-1.0047488
16	0x3e81488c	0.2525066
17	0xbeba56bf	-0.36394307
18	0xbe82a1ef	-0.2551417
19	0x3ed3bd54	0.41355383
20	0xbe441164	-0.19147259
21	0xbe445ca3	-0.19175963
22	0x3db4c5c8	0.08826786
23	0x3ec261ce	0.37965244
24	0x3da8936c	0.082312435
25	0xbed00878	-0.4063146
26	0xbe85270f	-0.26006362
27	0xbe83ff3e	-0.25780672
28	0xbddcedfe	-0.10787581
29	0xbfd8116b	-1.6880316
30	0x3ea85141	0.32874492
31	0x4005e58b	2.0921352
32	0xbf7a5dc2	-0.97799313
33	0xbf86e58b	-1.0538801
34	0x3e2fb61c	0.17159313
35	0x3dc1f67c	0.09470841
36	0xbe6a6642	-0.22890571
37	0xbf56aaaa	-0.8385416
38	0xbe90429f	-0.28175828
39	0x400805a3	2.125344
40	0x3da9d700	0.08292961
41	0xbfcf91c7	-1.6216363
42	0xbf4566aa	-0.7710978
43	0x4018826e	2.3829608
44	0x3f11e4bd	0.5698965
45	0xbfbfcd6f	-1.4984568
46	0xbd729678	-0.05922553
47	0x3f0b8bae	0.5451001
48	0xbe69ac4a	-0.2281963
49	0x3f2bd8ec	0.6712787
50	0x3e8a11b4	0.2696663
51	0x3f050ae9	0.5196977
52	0x3e5fc050	0.21850705
53	0x3fdeafb3	1.7397369
54	0x3f4f4a91	0.80973154
55	0xbead8b9d	-0.3389558
56	0xbf989bfe	-1.1922605
57	0xbf87f4dc	-1.06216
58	0x3c8e6830	0.017383665
59	0xbdce8215	-0.10083405
60	0x3dbfff0c	0.09374818
61	0xbd3b80c3	-0.045777094
62	0xbe43ba10	-0.19113946
63	0x3f1ee6ec	0.6207111
64	0x3dece4d4	0.11567083
65	0x3cb0ad3e	0.021566983
66	0x3f3a093b	0.72670335
67	0x3e457203	0.19281773
68	0x3f141dff	0.5785827
69	0xbf15c515	-0.5850385
70	0xbd2dde50	-0.04244834
71	0xbf30c05c	-0.6904352
72	0xbe75c96d	-0.24002619
73	0xbeb63320	-0.3558588
74	0x3dc9cf60	0.09854007
75	0x3fca6d10	1.5814533
76	0xbe421e1e	-0.18956801
77	0x3d63fb97	0.055659857
78	0xbdbe4866	-0.09291153
79	0x3f9c19fb	1.2195429
80	0xbe937bfe	-0.28805536
81	0x3c930ce9	0.017950492
82	0xbda2edae	-0.0795549
83	0xbf2165ff	-0.6304626
84	0x3e357138	0.17718971
85	0xbf94f226	-1.1636398
86	0x3dccbab4	0.09996548
87	0x3fe3440f	1.7755145
88	0x3c796320	0.015221387
89	0xbfa9ad78	-1.3256063
90	0xbe8e6f71	-0.27819398
91	0x3fc92154	1.5713296
92	0x3f5fe4a2	0.8745824
93	0x3f20009f	0.6250095
94	0xbe8c3ee3	-0.2739173
95	0xbf4da1ec	-0.803252
96	0xbe8a2463	-0.26980886
97	0xbe70dfe6	-0.2352291
98	0x3e357694	0.17721015
99	0x3ebbeb58	0.3670299
100	0xbbcf1d80	-0.0063206553
101	0xbf9f5cba	-1.2450173
102	0xbf6f3716	-0.9344343
103	0x3f83ee20	1.0307045
104	0x3fe4d2fc	1.7876887
105	0x3ea89812	0.3292852
106	0xbe8fb0da	-0.28064615
107	0xbe93c9a5	-0.2886478
108	0x3e2dfe12	0.16991451
109	0xbf1fe07c	-0.6245191
110	0xbd833a6c	-0.064076275
111	0xbf6917d1	-0.91051966
112	0x3d1f20c8	0.038849622
113	0xbf87e73d	-1.0617443
114	0xbbe15df1	-0.0068776538
115	0x3f5d4590	0.8643427
116	0xbf3f92ba	-0.7483326
117	0x3f6bf953	0.92177314
118	0x3d93b768	0.07212716
119	0x3e68be7a	0.22728911
120	0x3e76e45c	0.2411055
121	0xbe9f31e3	-0.31092748
122	0x3e00ab26	0.12565288
123	0x3fbe0d37	1.4847783
124	0x3e0471a4	0.12933975
125	0xbf599107	-0.8498692
126	0xbf283470	-0.65705013
127	0x3f8fb44a	1.1226895
128	0x3fb77903	1.4333805
129	0xbf45817f	-0.7715072
130	0xbdf22a64	-0.118244916
131	0x3f42bc6c	0.7606876
132	0x3e264c56	0.16240057
133	0xbdb73dd1	-0.089473374
134	0xbe3f9e14	-0.18712646
135	0x3d2e0c8a	0.042492427
136	0xbd9ade3a	-0.075619176
137	0xc01dcfbb	-2.4658039
138	0xbf598207	-0.8496403
139	0x3d14fab0	0.036371887
140	0x3ed02702	0.4065476
141	0x3f6c58f6	0.92323244
142	0xbe1e7ff6	-0.154785
143	0x3f482f19	0.78196865
144	0x3ddd110c	0.10794267
145	0x3de871d8	0.11349839
146	0x3e7e4838	0.24832237
147	0xbf1fd8f7	-0.6244044
148	0xbe6ffe04	-0.23436743
149	0xbf5e997f	-0.86952966
150	0xbf130ca1	-0.57441145
151	0xbf94126a	-1.156812
152	0x3f0af6cf	0.5428285
153	0x3f37a8e3	0.71742076
154	0x3d7f17e0	0.06227863
155	0x3ef830f1	0.4847484
156	0x3e3ea658	0.18618143
157	0x3d376b1b	0.044779878
158	0x3db5c5e4	0.08875635
159	0xbf8000ea	-1.0000279
160	0xbdebfb1e	-0.11522506
161	0xbf918c8c	-1.1371017
162	0x3ce2cdc2	0.027686004
163	0x3ebe9498	0.37222743
164	0xbf373548	-0.71565676
165	0x3ef8afd8	0.48571658
166	0xbe1b8ca2	-0.15190366
167	0xbe9d076e	-0.3066973
168	0xbe7afdf6	-0.24510941
169	0xbf1c7ce8	-0.6112809
170	0x3e84d3dc	0.25942886
171	0xbf247045	-0.6423381
172	0xbda6eb64	-0.08150366
173	0x3f56c5a6	0.8389534
174	0xbf0b51aa	-0.54421484
175	0x3f44487e	0.76673114
176	0xbda63ca6	-0.081170365
177	0x3dd7ad02	0.105310455
178	0x3d1c74e8	0.038197428
179	0x3e2cf89c	0.16891712
180	0xbe57e548	-0.21083558
181	0x3f8ddaa7	1.1082352
182	0xbe8dea71	-0.27717927
183	0xbfd63d1e	-1.6737401
184	0xbe3d7cd6	-0.18504652
185	0x3f340278	0.70316267
186	0x3e84fa45	0.2597219
187	0xc00c479c	-2.1918707
188	0xbfbbd6f8	-1.4674978
189	0x3fd68adc	1.6761127
190	0xbe1cd5f7	-0.15315996
191	0x3e9d9f75	0.3078572
192	0x3e2b51be	0.16730401
193	0xbf2b081d	-0.66809255
194	0xbe596f08	-0.21233761
195	0x3e7504b5	0.23927577
196	0xbd08b650	-0.03337699
197	0x3f3ab98e	0.72939384
198	0x3f22b141	0.6355172
199	0xbf8f0a48	-1.1175013
200	0xbf8074f9	-1.0035697
201	0xbfb224e4	-1.3917508
202	0xbda532b6	-0.08066313
203	0xbca63ed5	-0.020293633
204	0xbc6176c0	-0.013761222
205	0x3fab4971	1.3381788
206	0xbe21e447	-0.15809737
207	0x3e85e8d2	0.2615419
208	0xbe3bc0e6	-0.18335304
209	0x3f184d31	0.59492785
210	0x3ecfd803	0.4059449
211	0xbf5433ac	-0.82891345
212	0xbf9025ca	-1.1261532
213	0x3f21cc49	0.6320234
214	0xbdcf82ea	-0.10132392
215	0xbf6864ed	-0.90779
216	0xbb0ebb80	-0.002177924
217	0xbf5fc331	-0.87407213
218	0x3e1eed44	0.15520197
219	0x3f7ffe56	0.9999746
220	0x3e7f5564	0.24934918
221	0xbd90303b	-0.07040449
222	0xbef0193d	-0.46894255
223	0x3fcc2d47	1.5951318
224	0x3f3a883d	0.72864133
225	0xbf6e2b5c	-0.9303491
226	0xbd1928b0	-0.03739232
227	0x3e4e3abd	0.20139594
228	0x3cd49070	0.02594778
229	0x3f0acb99	0.54216915
230	0x3dce3adc	0.1006982
231	0xbe9cccef	-0.30625102
232	0x3e268d74	0.16264898
233	0xbf45c65e	-0.7725581
234	0xbf3890a3	-0.720957
235	0xbf727ede	-0.94724834
236	0x3fa2fb42	1.2732928
237	0x3f8f8aee	1.1214273
238	0x3e5b8f84	0.21441466
239	0x3f0f3393	0.5593807
240	0xbdcbd306	-0.09952359
241	0x3fba9a41	1.4578325
242	0x3e65c908	0.22439969
243	0x3f7fcdb2	0.9992324
244	0xbe54d158	-0.20782983
245	0xbf734293	-0.9502346
246	0x3ed5ea7c	0.4178046
247	0xbea13481	-0.3148537
248	0xbc18e76e	-0.009332521
249	0x3fa6cd9c	1.3031497
250	0xbe847648	-0.2587149
251	0xbfaf6db5	-1.3705355
252	0xbe8dce2a	-0.27696353
253	0xbf21ee27	-0.63254017
254	0xbddc9ada	-0.10771723
255	0xbd1dadba	-0.038495757

feats.AtomicNum.bias f4 [35]
0	0xbe0d352a	-0.13789812
1	0xbe18b884	-0.14914137
2	0xbd304b6f	-0.04304069
3	0xbea2903c	-0.31750667
4	0x3e914e35	0.2837998
5	0x3ec949f4	0.39314234
6	0x3d422f6c	0.047408506
7	0x3dd1607c	0.10223481
8	0x3bf7626e	0.0075495755
9	0xbe120088	-0.14258015
10	0xbe0291d4	-0.12750942
11	0xbf010a84	-0.5040667
12	0xbe100db1	-0.14067723
13	0xbec51bf7	-0.38497898
14	0xbf131ff6	-0.57470644
15	0xbd05b5de	-0.032644145
16	0xbdfce21a	-0.12347813
17	0x3ead56bd	0.3385524
18	0x3e52c5b0	0.20583224
19	0xbf275e81	-0.65378577
20	0x3ea8b943	0.32953843
21	0x3ed61b49	0.41817692
22	0xbe89788b	-0.2684978
23	0xbec4b8d0	-0.3842225
24	0x3d90d953	0.07072701
25	0xbd887cf9	-0.06664462
26	0x3e393979	0.1808833
27	0xbeb2f49a	-0.3495224
28	0xbdfad124	-0.12246922
29	0x3d5170ac	0.051132843
30	0x3e832617	0.25614998
31	0x3d6094f1	0.05482954
32	0xbb4708d0	-0.0030370243
33	0x3d5f5371	0.054522935
34	0xbdd0b842	-0.101913944

feats.Degree.weight f4 [35, 6]
0	0x3f42e2bb	0.76127213
1	0x3ef20dd5	0.47276178
2	0xbe94cb08	-0.2906115
3	0x400fe0e8	2.2481022
4	0x3fa99530	1.3248653
5	0xbec5920d	-0.3858799
6	0x3ea43996	0.32075185
7	0xbf3646e2	-0.7120191
8	0x3eca6556	0.39530438
9	0xbf1595c7	-0.5843167
10	0x3fc2d216	1.5220363
11	0xbeb3452e	-0.35013717
12	0x3f4c855d	0.79890996
13	0x3e8b7435	0.27237096
14	0xbe234d9b	-0.15947573
15	0xc00ae3f2	-2.1701627
16	0x3f746705	0.95469695
17	0xbfa683d7	-1.3008984
18	0xbf49862d	-0.7872036
19	0x3edfb34e	0.43691486
20	0x38d7a562	0.00010282804
21	0xbf2a0759	-0.6641746
22	0x3e09fa7f	0.13474463
23	0xbfce061d	-1.6095616
24	0x3d51d0ae	0.051224403
25	0x3f9c12f3	1.2193283
26	0xbf37f277	-0.71854347
27	0x3f197619	0.5994583
28	0x3f9a213f	1.2041396
29	0xbe83efdd	-0.2576894
30	0xbe681329	-0.22663559
31	0x3f10a7da	0.5650612
32	0xbed56698	-0.41679835
33	0xbdf7dd4c	-0.12102756
34	0xbedf449c	-0.43607032
35	0xbeb0458d	-0.34428063
36	0xbf8dbf60	-1.1074028
37	0x3fbeda88	1.491044
38	0xbeead406	-0.45864886
39	0x3f02c06a	0.5107485
40	0xbf45904e	-0.77173316
41	0xbf280779	-0.656364
42	0xbf334ef7	-0.70042366
43	0x3e63411c	0.22192806
44	0x3f26eaf8	0.65202284
45	0xbfde144c	-1.7349944
46	0xc0032d62	-2.049645
47	0xbf9c1683	-1.219437
48	0x3f497f65	0.78710014
49	0xbf3d05c5	-0.7383693
50	0x3f773757	0.96568817
51	0xbfa92e6f	-1.3217295
52	0xc04d7dc1	-3.2108004
53	0xbee2e783	-0.44317254
54	0x3f5f3733	0.871936
55	0xbebb1122	-0.3653651
56	0x3e18f793	0.14938192
57	0xbed5b013	-0.41735896
58	0xbd349351	-0.044085804
59	0xbd563abe	-0.052302115
60	0xbe135e1b	-0.14391367
61	0x3e815732	0.25261837
62	0x3c23fd58	0.010009132
63	0x3c838704	0.016055591
64	0xbc8c8982	-0.017155413
65	0xbfa48fb2	-1.2856352
66	0x3f282fcc	0.6569793
67	0xbecedaf6	-0.4040143
68	0x3f316b04	0.6930392
69	0xbe4a9dba	-0.1978673
70	0xbe53bebf	-0.20678233
71	0xbe0d3f28	-0.13793623
72	0x3ef08785	0.46978393
73	0xbf064858	-0.5245414
74	0x3ee1bcb4	0.44089282
75	0x3f83b568	1.0289736
76	0xbe4815ed	-0.19539614
77	0xbe3aea55	-0.18253453
78	0x3d43a898	0.047768205
79	0xbec348ed	-0.38141575
80	0x3e449f48	0.19201386
81	0x3f407220	0.7517414
82	0xbf783370	-0.9695349
83	0xbd3b3199	-0.045701597
84	0x3ed8bd44	0.42331898
85	0xbee0c340	-0.43898964
86	0xbe728298	-0.2368263
87	0x3f7c3a18	0.98526144
88	0x3faae2dd	1.3350483
89	0xbee61583	-0.44938287
90	0x3f7c528f	0.98563474
91	0x3e8fcb2e	0.280847
92	0xbe696207	-0.227913
93	0x3f356837	0.70862144
94	0x3f9dcbf5	1.2327868
95	0x3f8f314c	1.1186919
96	0xbdc15e1b	-0.09441777
97	0xbe575fab	-0.21032588
98	0xbf01e83f	-0.50745004
99	0xbe96253a	-0.29325277
100	0x3f6e45af	0.9307508
101	0x3e90c9e6	0.28279036
102	0xbdef7dd2	-0.1169392
103	0x3e20beed	0.15697832
104	0xbdea94a7	-0.114541344
105	0xbf48fcfe	-0.78511035
106	0xbf0185b8	-0.50594664
107	0x3f30ea76	0.6910776
108	0x3f2dff66	0.6796783
109	0x3ee9b4dd	0.456458
110	0x3eb4f1b7	0.35340664
111	0xbf929b53	-1.1453651
112	0xbf21a79a	-0.63146365
113	0xbf22ff82	-0.63671124
114	0x3ba18087	0.0049286517
115	0xbf0fb613	-0.561372
116	0x3f80a622	1.00507
117	0x3efc981b	0.49334797
118	0xbf86b472	-1.0523818
119	0x3ec75c74	0.38937724
120	0x3e273f93	0.16332845
121	0x3e627865	0.2211624
122	0x3f652b79	0.8951946
123	0xbf882301	-1.0635682
124	0xbf609a7f	-0.8773574
125	0x3f75722d	0.95877343
126	0xbf23515a	-0.6379601
127	0x3f6333b7	0.88750786
128	0xbf7d9301	-0.99052435
129	0x3f3f375a	0.74693835
130	0x3f9bdf72	1.2177565
131	0xbe56d3a5	-0.20979173
132	0xbf96380b	-1.1735853
133	0x3e9c8bc0	0.3057537
134	0x3f2f8e31	0.6857634
135	0xbfac7421	-1.347294
136	0xbe131417	-0.14363132
137	0xbf94e54b	-1.1632475
138	0x3eb56660	0.35429668
139	0xbe831b96	-0.25606984
140	0x3eceba2e	0.4037642
141	0xbeeca94b	-0.4622291
142	0xbf7aed27	-0.98018116
143	0xbf9cf94e	-1.2263582
144	0x3ec07566	0.37589568
145	0xbdbcf89a	-0.092271045
146	0x3f74146d	0.9534367
147	0xbe760f3b	-0.24029247
148	0xbdedf4cf	-0.11618959
149	0x3e845e1f	0.2585306
150	0x3fb2e302	1.3975527
151	0x3d2624d7	0.040562477
152	0xbb40622c	-0.002935539
153	0x3f8cc511	1.099764
154	0x3ea190e2	0.3155585
155	0x3ec10ce9	0.37705162
156	0xbf583057	-0.8444876
157	0xbe977e2f	-0.29588458
158	0xbecfddad	-0.40598813
159	0xbd8e23e3	-0.069404386
160	0x3e4a46e9	0.19753613
161	0x3fbe6b9c	1.487659
162	0x3f76f72c	0.96470904
163	0xbfcceed3	-1.6010383
164	0xbd148575	-0.036260087
165	0x3f5e0396	0.8672422
166	0x3f1b86ee	0.6075276
167	0x3e59d820	0.21273851
168	0xbf5cde71	-0.8627692
169	0x3f700d87	0.9377064
170	0xbeeef5f4	-0.46672022
171	0x3f901ea4	1.1259351
172	0x3fa1f7b6	1.265372
173	0xbf592047	-0.84814876
174	0xbfc96697	-1.5734433
175	0xbf8b2764	-1.0871396
176	0xbd207498	-0.039173692
177	0x3e9e3501	0.30899814
178	0x3d85140a	0.06497963
179	0xbe886aa7	-0.2664387
180	0x3ea65815	0.32489076
181	0xbd9e45dd	-0.07728169
182	0xbe92affc	-0.2864989
183	0x3e687d4c	0.22704047
184	0x3f4566f4	0.7711022
185	0x3eb92697	0.36162254
186	0x3e4213eb	0.1895291
187	0xbedd2f47	-0.43200132
188	0x3ed053d7	0.40688965
189	0x3ef9b465	0.48770443
190	0xbf7c4075	-0.98535854
191	0x3f2127a3	0.62951106
192	0xbe87f0c6	-0.26550883
193	0xbe5b4914	-0.21414596
194	0x3e84f9d1	0.25971845
195	0x3e1ec901	0.15506364
196	0xc00f10d3	-2.2354019
197	0xbd67f0a9	-0.056625996
198	0x3f223a0a	0.6336981
199	0x3ec6b77c	0.38811862
200	0xbf09aa7f	-0.5377578
201	0x3f40373a	0.7508427
202	0x3f5241dd	0.8213175
203	0xbdc8358a	-0.09775837
204	0xbf027ba1	-0.5096989
205	0x3c6ea4bd	0.014565644
206	0xbf445547	-0.7669262
207	0xbe2c1ca2	-0.16807798
208	0x3f8ae58f	1.0851306
209	0xbf436081	-0.7631913

feats.Degree.bias f4 [35]
0	0xbce37dce	-0.02776995
1	0xbe7412f9	-0.23835362
2	0xbbf90c6c	-0.0076003578
3	0x3e6cd896	0.23129496
4	0xbd107444	-0.03526713
5	0x3e3d5515	0.18489487
6	0x3eadeb8d	0.33968773
7	0x3f01e800	0.5074463
8	0x3f1abbc0	0.60442734
9	0x3e0963e8	0.13417017
10	0x3de2ab12	0.11067785
11	0x3ea7ecec	0.32797945
12	0x3df675d0	0.1203419
13	0xbdb61673	-0.088910006
14	0x3e300caf	0.17192338
15	0xbe8aba99	-0.27095488
16	0xbd9f4a43	-0.07777836
17	0x3e7bf1a6	0.246039
18	0xbe73b898	-0.23800886
19	0x3e36e18e	0.1785948
20	0xbe121337	-0.14265142
21	0xbf18d074	-0.59693074
22	0xbe91218e	-0.28345913
23	0x3eb51a86	0.35371798
24	0x3e846f3b	0.25866112
25	0xbc8771b6	-0.016533714
26	0x3dc8b232	0.09799613
27	0x3db367b8	0.08760017
28	0x3e24b016	0.16082796
29	0xbf1581ac	-0.5840099
30	0xbdb7b6a4	-0.08970383
31	0x3ef37801	0.47552493
32	0x3e89a6ca	0.26885062
33	0xbea3df0c	-0.3200611
34	0x3c9d5475	0.019205311

feats.TotalNumHs.weight f4 [35, 5]
0	0x3f942c1f	1.1575965
1	0xbfbb9f6a	-1.4658024
2	0xbfd02f21	-1.6264383
3	0x3e04c385	0.1296521
4	0xbeacf380	-0.33779526
5	0xbe3ca0cc	-0.18420714
6	0xbf134ca1	-0.575388
7	0x3f149391	0.5803767
8	0xbd3420d5	-0.043976624
9	0xbd1ba8d8	-0.03800282
10	0xbeffaa1a	-0.49934465
11	0xbf09610d	-0.5366371
12	0x4011ccf4	2.2781343
13	0x3e642d67	0.22282945
14	0x3c398440	0.011323035
15	0xbed3d0fb	-0.41370377
16	0xbe3948d5	-0.1809419
17	0x3e54b555	0.20772298
18	0x3f8062eb	1.0030187
19	0xbebf2f9d	-0.37341014
20	0x3f1a929c	0.6037996
21	0xbe619ac5	-0.22031696
22	0x3f0df3d5	0.55450183
23	0xbfc2a2a3	-1.5205883
24	0xbe85289c	-0.26007545
25	0x3eb097ef	0.34490916
26	0xbfe4b8d6	-1.7868907
27	0x3f1ae9f1	0.60513216
28	0x3f533fdc	0.82519317
29	0xbea766b4	-0.32695544
30	0xbf1761d6	-0.5913366
31	0x3f87d230	1.0611019
32	0xbf54b688	-0.8309102
33	0x3f8e86f3	1.1134933
34	0xbed1b11e	-0.40955442
35	0xbf1f4d38	-0.622272
36	0x3e32baf3	0.17454128
37	0x3f68c2b7	0.9092211
38	0x3fa28627	1.269719
39	0x3e4ca550	0.19984937
40	0xbe91cd37	-0.2847688
41	0x3ef12f08	0.47106194
42	0x3ef97d51	0.4872842
43	0x3fe87fa1	1.8163949
44	0x3ec3887e	0.38190073
45	0x3e4eaf15	0.20183976
46	0x3e9bfea5	0.30467716
47	0xbe8d354a	-0.2757972
48	0x3f607017	0.87671036
49	0xbe0c7922	-0.13718084
50	0x3ecff551	0.4061685
51	0xbfaa0f35	-1.3285891
52	0x3eb9a6c9	0.3626006
53	0x3fef45c0	1.8693161
54	0x3e58dbe8	0.21177638
55	0x3d79b546	0.06096389
56	0xbf626c22	-0.8844625
57	0x3f72fb77	0.94914955
58	0x3fab1f7b	1.3368982
59	0xbebb04b4	-0.36527026
60	0x3f872413	1.0557884
61	0xbf8099ec	-1.0046973
62	0xbf4731f5	-0.77810603
63	0x3f449d99	0.76802975
64	0xbee2df2d	-0.44310895
65	0x3f10a48b	0.5650107
66	0xbfae2282	-1.3604281
67	0xbf89e6e6	-1.077359
68	0x3ed1a40a	0.40945464
69	0xbe84bc44	-0.25924885
70	0x3f8f1058	1.1176863
71	0xbf0b04e3	-0.5430433
72	0xbfebdfb1	-1.842764
73	0x3ece6a24	0.40315354
74	0xbd897618	-0.06711978
75	0x3f2ed470	0.68292904
76	0xbe95589a	-0.2916916
77	0xbfa69a14	-1.3015771
78	0xbf87c330	-1.0606441
79	0xbec0c556	-0.37650555
80	0xbeb81eae	-0.35960907
81	0x3f41bfdf	0.756834
82	0xbd793bc1	-0.060848
83	0xbfc859bb	-1.5652384
84	0x3e672ea4	0.22576386
85	0xbee0c893	-0.43903026
86	0x40043044	2.065446
87	0xbf25a7af	-0.6470899
88	0xbe69b2f8	-0.22822177
89	0xbea79831	-0.327333
90	0xbf0196cd	-0.5062073
91	0x3e92ce40	0.2867298
92	0x3f0c6647	0.5484356
93	0x3f1f2ccb	0.62177724
94	0x3ee41b90	0.4455228
95	0x3f502c5a	0.81317675
96	0x3e15c68e	0.14626524
97	0xbff5a9b4	-1.9192414
98	0x3eb67402	0.35635382
99	0xbd6dc830	-0.05805224
100	0xbef2e8cd	-0.47443238
101	0x3e153f4e	0.1457493
102	0x3ec12159	0.37720755
103	0x3f24c46e	0.6436223
104	0x3c724080	0.014785886
105	0xbd29d7a4	-0.041465417
106	0xbe1f3d71	-0.15550782
107	0x3f12b8b3	0.5731308
108	0xbfb55c0b	-1.4168714
109	0x3e0d7208	0.1381303
110	0xbf1e38ef	-0.61805624
111	0xbeee76dc	-0.46575058
112	0x3f3076d5	0.68931323
113	0x3fa30dd6	1.2738597
114	0x3e790044	0.24316508
115	0xbe794151	-0.24341322
116	0x3eaea5a3	0.34110746
117	0x3f748df7	0.9552912
118	0x3f82d128	1.022008
119	0x3e77ee64	0.24212033
120	0x3e7b4810	0.24539208
121	0xbf27d139	-0.65553623
122	0x3e3e04be	0.18556497
123	0x3f6d3d6c	0.9267185
124	0xbd0d7a18	-0.034540266
125	0xbeaed939	-0.34150103
126	0x3f1b7f59	0.6074119
127	0xbeea4725	-0.45757404
128	0xbf668abc	-0.9005544
129	0x3dd83108	0.10556227
130	0x3eb965b1	0.36210397
131	0x3fa26797	1.2687863
132	0xbf84a370	-1.0362377
133	0xbfbfb390	-1.4976673
134	0xbe8521b2	-0.2600227
135	0x3e98f6c5	0.2987577
136	0xbf3ce1b3	-0.7378189
137	0xbe8ba122	-0.27271372
138	0xbf194080	-0.59864044
139	0x3e12b38c	0.14326304
140	0x3e24f2cf	0.16108249
141	0xbf24a92a	-0.64320624
142	0xbf252b2f	-0.6451902
143	0xbd43e786	-0.04782822
144	0x3ed3eaf4	0.41390193
145	0x3f168822	0.5880147
146	0xbef324be	-0.4748897
147	0xbead1c74	-0.3381077
148	0xbf202ce4	-0.625685
149	0x3ea6bd4e	0.32566303
150	0x3de893a7	0.113562874
151	0xbd0715f1	-0.03297991
152	0x3f5171d0	0.8181429
153	0x3e111fef	0.14172338
154	0x3e4f8320	0.20264864
155	0x3e7323e9	0.23744167
156	0x3ed70188	0.41993356
157	0xbfea8403	-1.8321537
158	0x3f68744e	0.90802467
159	0xbedd65f7	-0.43241856
160	0x3f07690e	0.52894676
161	0x3e1ee926	0.15518627
162	0xbf53ba8e	-0.82706535
163	0x3f85964d	1.0436493
164	0x3edc3c1e	0.43014616
165	0xbefc87fd	-0.493225
166	0xbf0d99e0	-0.5531292
167	0x3ea57156	0.3231303
168	0xbfa51a2e	-1.2898614
169	0xbeaf84b4	-0.34280932
170	0xbee903ae	-0.4551062
171	0xbd8b7c23	-0.068107866
172	0x3f64bf04	0.89353967
173	0xbfa06b5b	-1.2532762
174	0x3dbfa5c8	0.09357792

feats.TotalNumHs.bias f4 [35]
0	0x3e8f22d4	0.2795626
1	0x3c74f1db	0.014950241
2	0xbf1d0855	-0.6134084
3	0xb9cb3a34	-0.00038762542
4	0x3e856028	0.26049924
5	0x3c794f73	0.015216696
6	0x3f04c632	0.5186492
7	0xbd88c987	-0.06679063
8	0x3db5f202	0.0888405
9	0xbe08cd81	-0.13359644
10	0xbdf87123	-0.12130954
11	0xbd90fbfb	-0.070793115
12	0xbd32bef8	-0.043639153
13	0xbe29056b	-0.16505973
14	0x3daf975e	0.08573793
15	0x3cd7904d	0.026313925
16	0x3e8e2ec1	0.27770045
17	0x3f032b1c	0.51237655
18	0x3e9295b2	0.28629833
19	0x3e9be98e	0.30451626
20	0x3e03c10b	0.12866609
21	0xbea3e97d	-0.32014075
22	0x3e171356	0.1475347
23	0xbceac34f	-0.028657584
24	0xbe418193	-0.18897085
25	0x3ee7574e	0.45183796
26	0xbda095e6	-0.07841091
27	0xbeb728ed	-0.3577341
28	0xbcbc0c07	-0.022954954
29	0xbf008f64	-0.50218797
30	0x3ea7f3dc	0.32803237
31	0x3eeb614c	0.4597267
32	0x3e379466	0.17927703
33	0xbebabb20	-0.3647089
34	0xbe091dd6	-0.13390288

feats.ImplicitValence.weight f4 [35, 6]
0	0xbe6e4a06	-0.23270425
1	0xbee28557	-0.44242355
2	0x3e7bc3c8	0.24586403
3	0x3c5a90d1	0.013340191
4	0x3ec5428a	0.38527328
5	0x3dd1b488	0.10239512
6	0xbe5079d3	-0.20358972
7	0xbec8e526	-0.39237326
8	0x3f116a10	0.56802464
9	0x3e626f33	0.22112732
10	0xbec858ad	-0.39130154
11	0xbde8ac60	-0.11361003
12	0x3ea5474d	0.3228096
13	0xbf71a9a5	-0.9439948
14	0x3e9e844d	0.30960312
15	0xbe585f70	-0.21130157
16	0xbd2a6770	-0.041602552
17	0x3e89e498	0.26932216
18	0x3e52c242	0.20581916
19	0xbdfa5310	-0.12222874
20	0x3e2a2784	0.16616637
21	0x3e9b0bb9	0.3028238
22	0x3df3df30	0.11907804
23	0xbdb84588	-0.08997637
24	0xbe449a3a	-0.19199458
25	0x3f048f75	0.517814
26	0x3efaf96b	0.49018416
27	0xbe833714	-0.2562796
28	0x3e94344e	0.28946155
29	0xbeb1804b	-0.34668192
30	0x3f04b316	0.51835763
31	0xbfb76d31	-1.4330198
32	0x3e368cab	0.17827098
33	0x3d06701e	0.032821767
34	0xbe79bf0d	-0.24389286
35	0xbe684af7	-0.22684847
36	0xbd8c9898	-0.068650424
37	0x3e9a3d32	0.30124813
38	0xbe7c5d25	-0.24644907
39	0x3dc023a3	0.09381797
40	0x3e3fe720	0.18740511
41	0xbd54c4c0	-0.051945448
42	0x3f04ec5b	0.5192315
43	0xbe8bb0db	-0.27283368
44	0x3e8577bb	0.2606791
45	0xbdee40d9	-0.116334625
46	0xbe978a5e	-0.29597753
47	0xbe93b9cc	-0.2885269
48	0xbd452cdd	-0.048138488
49	0xbeb54494	-0.35403883
50	0x3e5d6362	0.21619943
51	0x3ee57027	0.44812128
52	0xbd98e0e8	-0.074647725
53	0xbe0dd590	-0.13850999
54	0x3d0c45b8	0.034246176
55	0xbe213bbd	-0.15745445
56	0xbe7331ad	-0.23749419
57	0x3cc6084d	0.02417388
58	0xbde2bb08	-0.1107083
59	0x3e3859d4	0.18003017
60	0x3ea52c6c	0.32260454
61	0xbff9ec28	-1.9525194
62	0x3e123a22	0.14279988
63	0x3dd8defa	0.105894044
64	0xbcd1fc00	-0.025632858
65	0x3ceb4c80	0.028723001
66	0xbf3d83bf	-0.74029154
67	0xbf0f9f7d	-0.56102735
68	0x3ee610d8	0.44934726
69	0x3e635361	0.22199775
70	0xbcec3a20	-0.02883631
71	0xbeaa71c0	-0.3328991
72	0xbeca8df1	-0.39561418
73	0xbf060634	-0.52353215
74	0xbe9741ef	-0.2954249
75	0xbeecd117	-0.46253273
76	0x3bb14000	0.0054092407
77	0x3e83b3c8	0.257231
78	0x3eb94239	0.36183336
79	0x3e9182aa	0.2842
80	0xbdac9438	-0.08426708
81	0xbdb57b50	-0.088614106
82	0xbebf30f6	-0.37342042
83	0x3df4c2d8	0.11951226
84	0xbe646acd	-0.22306366
85	0x3e804ab7	0.25057003
86	0xbef3855b	-0.4756268
87	0xbb98d023	-0.0046634837
88	0xbea749a8	-0.32673383
89	0x3e8c58b8	0.27411437
90	0xbf0d86f9	-0.55284077
91	0x3e1dc0e7	0.15405618
92	0xbc998fb9	-0.01874529
93	0xbdf93236	-0.1216778
94	0x3e3f9dc0	0.1871252
95	0xbeccc746	-0.39995784
96	0x3d2afe41	0.04174638
97	0x3fd2bef5	1.6464525
98	0x3e9fe6ce	0.31230778
99	0xbef54b33	-0.47908935
100	0x3ced4de0	0.028967798
101	0xbe9b613c	-0.3034762
102	0xbe3ca24f	-0.18421291
103	0x4009d602	2.153687
104	0xbcea0c36	-0.028570276
105	0x3dc6217a	0.09674354
106	0x3e51afbc	0.20477194
107	0xbecfcb7a	-0.40584928
108	0xbec19b62	-0.3781386
109	0xbf18b71a	-0.5965439
110	0x3f028cf5	0.50996333
111	0x3eb6f2e2	0.3573218
112	0x3e61b840	0.22042942
113	0xbeaf8f75	-0.34289137
114	0xbf1d7e3c	-0.61520743
115	0xbf4e400b	-0.8056647
116	0xbfb205b6	-1.3907993
117	0x3f61119b	0.8791749
118	0xbeca7e3c	-0.39549434
119	0x3d560df0	0.052259386
120	0xbe707611	-0.23482539
121	0xbf11cac4	-0.5695002
122	0x3e460a7e	0.1933994
123	0x3e0daa2f	0.13834451
124	0x3de5f728	0.11228782
125	0x3ecea960	0.40363598
126	0x3ebb6921	0.36603644
127	0x3d2eef5b	0.042708736
128	0x3f3ca53a	0.73689616
129	0xbf139201	-0.5764466
130	0xbc0643a0	-0.008194834
131	0x3e236470	0.15956283
132	0x3ee2604b	0.4421409
133	0xbf864cc4	-1.0492177
134	0x3e34f5e7	0.1767193
135	0x3f10cfa8	0.5656686
136	0x3c9dbe80	0.019255877
137	0xbec72260	-0.38893414
138	0xbe34430a	-0.17603698
139	0xbecbfc18	-0.3984077
140	0x3defb8af	0.117051475
141	0x3e7c433f	0.24635027
142	0xbd856ea4	-0.06515244
143	0x3de0e450	0.10981047
144	0xbf4c7367	-0.7986359
145	0xbf6b0427	-0.9180321
146	0x3d89fd1f	0.06737732
147	0x3d857c76	0.0651788
148	0xbe167ae6	-0.1469532
149	0x3ecef4ea	0.4042123
150	0xbf7c931e	-0.98661983
151	0x3fc44bbf	1.5335616
152	0x3f294e35	0.6613496
153	0xbe4cbae4	-0.19993168
154	0x3dce2aa0	0.10066724
155	0xbe5168f9	-0.204502
156	0x3e5de210	0.21668267
157	0x3f7dc078	0.9912181
158	0xbef0420a	-0.46925384
159	0x3e1d577a	0.15365401
160	0x3e89fa1a	0.26948625
161	0x3c00b440	0.007855475
162	0x3e4a763b	0.19771664
163	0xbf1d05a6	-0.61336744
164	0x3e3ea105	0.18616112
165	0xbe8c3478	-0.2738378
166	0xbe8e535f	-0.27797982
167	0x3dbf3730	0.09336698
168	0x3dccd458	0.10001439
169	0xbf3e422f	-0.7431974
170	0xbc6f1fd1	-0.014594988
171	0x3e482144	0.1954394
172	0x3eb51766	0.35369414
173	0x3dfe0fb0	0.12405336
174	0x3f4b7bcb	0.7948577
175	0xbf7df073	-0.9919502
176	0xbf19052c	-0.59773517
177	0xbbf33886	-0.0074225096
178	0x3e873a08	0.26411462
179	0x3de0b2d0	0.10971606
180	0x3e1c0dcb	0.15239637
181	0xbf6c8e97	-0.92405075
182	0xbe803c49	-0.25045994
183	0x3f2203a1	0.6328679
184	0xbe76eff6	-0.24114975
185	0xbddae0b8	-0.10687393
186	0xbe65b4fe	-0.22432324
187	0xbf82e525	-1.0226179
188	0xbf640a42	-0.8907815
189	0x3f01ab5a	0.50652087
190	0xbe174a2c	-0.14774388
191	0xbeb2ed5f	-0.34946725
192	0xbea51120	-0.32239628
193	0xbf592953	-0.8482868
194	0x3e0b1e52	0.13585785
195	0x3ebfd80c	0.37469518
196	0xbea20938	-0.31647658
197	0xbea2f399	-0.31826475
198	0x3d3d74db	0.04625402
199	0x3f3adab7	0.7298998
200	0x3f149cd3	0.58051795
201	0xbe0c6787	-0.13711368
202	0xbb1b2180	-0.002367109
203	0xbd101330	-0.03517455
204	0x3e907945	0.2821752
205	0x3f297dce	0.6620759
206	0x3f6e0318	0.9297347
207	0xbed7de13	-0.42161617
208	0x3e2767a8	0.16348135
209	0x3dd86a40	0.105671406

feats.ImplicitValence.bias f4 [35]
0	0xbf04eaeb	-0.51920956
1	0xbea97faf	-0.33105227
2	0x3f0de16e	0.55422103
3	0x3d76540b	0.060138743
4	0x3ed7b470	0.4212985
5	0xbdefdfb6	-0.11712591
6	0x3da99bd2	0.082816735
7	0x3e36117e	0.1778011
8	0xbed2a908	-0.41144586
9	0xbe862cb5	-0.26205984
10	0xbed9146a	-0.42398387
11	0xbea3e5e7	-0.3201134
12	0xbf2a1f4c	-0.66454005
13	0xbe76e572	-0.24110964
14	0xbe4b235f	-0.19837712
15	0xbf2b414b	-0.66896504
16	0x3f16b0ec	0.5886371
17	0x3e5f68d7	0.21817337
18	0x3e183e66	0.14867553
19	0xbf913e47	-1.134713
20	0xbe3017b5	-0.17196544
21	0x3ee1a240	0.440691
22	0x3e8b3ffa	0.27197248
23	0xbc8a9650	-0.016917378
24	0xbf1f69af	-0.62270635
25	0xbd7e8860	-0.062141776
26	0x3ca4c200	0.020112038
27	0xbef826ab	-0.48467
28	0xbea110c4	-0.31458104
29	0xbea59dea	-0.3234704
30	0xbe81c723	-0.25347242
31	0xbecd8c8a	-0.40146285
32	0xbdc0a499	-0.094063945
33	0xbcfb6b7c	-0.030690901
34	0x3f6b6bb5	0.9196122

feats.Hybridization.weight f4 [35, 5]
0	0x400674eb	2.100886
1	0xbee68abc	-0.4502772
2	0x3e43a123	0.19104438
3	0x3ea0c18c	0.31397665
4	0x3fac1d7a	1.3446496
5	0xbfcc4cfb	-1.5960993
6	0x3edfcdda	0.4371174
7	0x3ce53474	0.027979113
8	0x3e302ab0	0.17203784
9	0x3f5e7bff	0.86907953
10	0xc01ba78f	-2.432102
11	0x3fb2bd66	1.396405
12	0xbf144893	-0.5792324
13	0x3ebce522	0.36893564
14	0x3f156338	0.5835452
15	0xc02387ca	-2.555163
16	0x3f435f5d	0.7631739
17	0xbf3ad14d	-0.7297562
18	0x3ea250ee	0.3170237
19	0xc008f6c4	-2.1400614
20	0x4034c7c3	2.8246925
21	0xbf6a2e27	-0.9147667
22	0x3e807be1	0.25094512
23	0x3e2cf7d4	0.16891414
24	0xbf10ebf7	-0.56610054
25	0xbf2cd8e6	-0.6751846
26	0x3f711488	0.94171953
27	0xbedf1673	-0.43571815
28	0x3ea83146	0.32850093
29	0xbfabe63e	-1.3429639
30	0x3f285cf3	0.6576683
31	0xbe89653f	-0.26835057
32	0x3e8f7057	0.28015396
33	0xbe88f35a	-0.26748163
34	0xbf9cd7fa	-1.2253411
35	0xc0530c6b	-3.297633
36	0x3f9ac5b6	1.2091587
37	0xbfd45e2b	-1.6591238
38	0x3e24f268	0.16108096
39	0xbfd6e0c6	-1.6787345
40	0xc05c5671	-3.442776
41	0x3f8c0343	1.0938495
42	0xbfe30a84	-1.7737584
43	0xbd38bd20	-0.04510224
44	0x3e5b28e7	0.21402322
45	0xbef08f65	-0.469844
46	0x3eb9b280	0.36268997
47	0xbe72510a	-0.23663726
48	0xbd7bbea8	-0.06146112
49	0x3f740eb1	0.9533492
50	0xc01e159c	-2.470069
51	0x3fc54a16	1.5413234
52	0xbf026043	-0.50928134
53	0x3ec63e7c	0.38719547
54	0xbf8c1dc9	-1.094659
55	0x3f7a2d21	0.9772511
56	0x3ee65aaf	0.4499106
57	0xbec4c6b6	-0.38432854
58	0x3edf62e2	0.4363013
59	0x3f7fd32b	0.9993159
60	0x3f5e9257	0.86942047
61	0xbec05401	-0.3756409
62	0xbcc278f6	-0.02373932
63	0x3ea7c61c	0.32768333
64	0x3f9908b6	1.1955783
65	0x3e541ba1	0.20713665
66	0x3eb711eb	0.35755858
67	0xbd9cc8f9	-0.0765552
68	0xbe9db3cf	-0.30801246
69	0x3ebc8655	0.36821237
70	0xbf1ec5b7	-0.6202044
71	0x3ec846da	0.39116555
72	0x3e5b1fd5	0.21398862
73	0x3c98caa0	0.018651307
74	0x3e5d85a8	0.21633017
75	0x4028f548	2.6399708
76	0xbfea6724	-1.8312726
77	0x3f9509b3	1.1643585
78	0x3e98c5a8	0.298383
79	0x40096d6e	2.147304
80	0x3f8d2d99	1.102954
81	0xbfbe4970	-1.4866161
82	0x3f55b34c	0.8347671
83	0xbeaaf348	-0.33388734
84	0xbf269dc8	-0.65084505
85	0x40219164	2.524499
86	0xbf8902ea	-1.0704014
87	0x3ead9531	0.33902887
88	0xbdcfe640	-0.101513386
89	0x3fb1f3f8	1.3902578
90	0xc0251ac1	-2.579758
91	0x3f32012c	0.6953304
92	0xbf431569	-0.76204544
93	0xbe339740	-0.17538166
94	0xbfee2321	-1.860447
95	0x3e0faef8	0.14031589
96	0x3e63af0b	0.22234742
97	0x3e42cf53	0.190244
98	0x3e51b674	0.20479757
99	0x3fd7f911	1.6872884
100	0x3fef5f6c	1.8700995
101	0xbd8a4c85	-0.06752876
102	0xbdd38f87	-0.1033011
103	0x3d8f2a68	0.0699051
104	0x3e91ac2f	0.28451678
105	0x3f01cd29	0.50703675
106	0xbe885550	-0.26627588
107	0x3eba3d21	0.36374763
108	0x3e1c758c	0.15279216
109	0xbf272302	-0.6528779
110	0xc0297f27	-2.6483858
111	0x3fbd8300	1.4805603
112	0xbfb2b2b7	-1.396079
113	0xbd891b64	-0.066946775
114	0xc04859a1	-3.1304705
115	0xc03fd4af	-2.9973562
116	0x3ef8de03	0.48606881
117	0xbe3ad35b	-0.18244688
118	0x3ea62fa8	0.32458234
119	0xbf34bc70	-0.7060003
120	0x3fbaf54c	1.4606109
121	0xbedd90d0	-0.43274546
122	0xbeca7dc2	-0.3954907
123	0x3edf9fb2	0.43676525
124	0x3fbee81b	1.4914583
125	0x402789d8	2.6177883
126	0xbfe98357	-1.8243207
127	0x3e9da105	0.3078691
128	0x3eaff568	0.34366918
129	0x3f9f888a	1.2463543
130	0x403b4ea3	2.9266746
131	0xbf95a7f7	-1.1691884
132	0x3f1513e2	0.58233464
133	0xbdacfd0c	-0.08446702
134	0x3faaaf9c	1.3334842
135	0xbc93bc5b	-0.01803415
136	0x3e2a21ba	0.16614428
137	0xbc628a7b	-0.013826962
138	0x3d3f9df8	0.04678151
139	0x3fdc007b	1.7187647
140	0xbf3f55c7	-0.7474026
141	0x3d3697e0	0.044578433
142	0x3d986316	0.07440774
143	0xbd48ad00	-0.04899311
144	0xbfcdeb32	-1.6087401
145	0xc019199e	-2.3921885
146	0x3facf79b	1.3513063
147	0x3ece8085	0.40332428
148	0x3db07fe0	0.0861814
149	0xbe500b66	-0.20316848
150	0x3fbc7d32	1.4725707
151	0x3efac214	0.48976195
152	0xbdfe30b9	-0.12411637
153	0x3e8159a4	0.25263703
154	0x3fae1409	1.3599864
155	0x3fdc171e	1.7194555
156	0xbe8dfaea	-0.27730495
157	0x3e3a28c2	0.1817961
158	0xbce7ee00	-0.02831173
159	0x3e3792d7	0.17927109
160	0x3ef72487	0.48270056
161	0x3ecf173d	0.40447417
162	0x3e25d237	0.16193472
163	0xbe80d6cc	-0.25163877
164	0xbf4ab563	-0.79183024
165	0xbf75991f	-0.9593677
166	0xbf405e01	-0.7514344
167	0x3ed4d5d1	0.4156938
168	0xbed0d8ca	-0.40790397
169	0xbf45e548	-0.7730298
170	0xbf548b0d	-0.83024675
171	0xbe718940	-0.23587513
172	0x3ef801ad	0.4843878
173	0x3e617ce0	0.22020292
174	0xbfcd12a2	-1.6021311

feats.Hybridization.bias f4 [35]
0	0xbe318d56	-0.17339072
1	0xbe358694	-0.17727119
2	0xbe9188f6	-0.28424805
3	0xbcd099be	-0.025463935
4	0xbe7b845e	-0.24562213
5	0x3e94a845	0.2903463
6	0xbe881383	-0.26577386
7	0x3e09f972	0.13474062
8	0xbec2e358	-0.38064075
9	0x3d83436b	0.06409343
10	0x3ed56103	0.41675577
11	0xbe789b92	-0.24278095
12	0xbe664edf	-0.22491024
13	0x3e112eeb	0.14178054
14	0xbcb901ef	-0.02258393
15	0x3e079046	0.1323863
16	0xbe0fea9c	-0.1405434
17	0x3e1830e4	0.148624
18	0xbe2194d1	-0.15779425
19	0x3efe826b	0.49708876
20	0xbde791d7	-0.113071136
21	0xbed96cb4	-0.42465746
22	0x3e569e70	0.20958877
23	0xbe4b12fb	-0.19831459
24	0x3cd69059	0.026191877
25	0xbed8fe97	-0.42381737
26	0x3ef6eede	0.48229116
27	0xbdd777cb	-0.105208956
28	0xbd6c7104	-0.057724968
29	0x3f32dafc	0.69865394
30	0xbe5750c4	-0.21026903
31	0x3e2fb245	0.17157848
32	0x3d683bd6	0.05669769
33	0xbe8b2364	-0.27175438
34	0x3e50c075	0.20385917

feats.FormalCharge.weight f4 [35, 1]
0	0xbe500c2c	-0.20317143
1	0x3e61375c	0.21993774
2	0x3dd43a3d	0.103626706
3	0xbfed210d	-1.8525711
4	0xbfa819e3	-1.31329
5	0xbfa8c064	-1.3183713
6	0xbf17178a	-0.5902029
7	0xbf94df9b	-1.1630739
8	0x4004e512	2.0764813
9	0xbf0d6da4	-0.55245423
10	0xbf679dd8	-0.90475225
11	0xbe57d190	-0.21076035
12	0x3ebfec31	0.37484887
13	0xc0316b62	-2.7721791
14	0xbf2329e8	-0.6373582
15	0x3f05f6e2	0.5232984
16	0xbf81a8e1	-1.0129663
17	0x3fa1c8b7	1.2639378
18	0x401d7349	2.4601614
19	0x3f266f12	0.6501323
20	0x3ebbefa0	0.36706257
21	0xbf0ef2c3	-0.55839175
22	0xbf700331	-0.9375487
23	0x3e157297	0.14594494
24	0x3f0e6560	0.55623436
25	0xbf827c1f	-1.0194129
26	0xbf1c0945	-0.60951644
27	0x3f57f3ba	0.8435627
28	0xc0165763	-2.3490837
29	0x3f8a3ed4	1.0800424
30	0x3f78ef95	0.97240573
31	0x3f864c56	1.0492046
32	0xbe63db76	-0.22251686
33	0x3f75eaf6	0.96061647
34	0xbfb19d9a	-1.3876221

feats.FormalCharge.bias f4 [35]
0	0xbedb9e32	-0.4289413
1	0xbce5952f	-0.028025238
2	0xbee7a0d2	-0.45239884
3	0x3f22daab	0.6361491
4	0x3d50f271	0.05101246
5	0xbea97731	-0.33098748
6	0x3ed88872	0.422916
7	0xbd81574e	-0.0631548
8	0xbf7e0480	-0.99225616
9	0x3f666679	0.9000011
10	0xbf5f4288	-0.87210894
11	0xbe98d4d8	-0.29849887
12	0xbf1d79d7	-0.6151404
13	0xbf023ec4	-0.5087702
14	0xbec86935	-0.39142767
15	0xbf344e35	-0.70431834
16	0xbef4edc9	-0.47837666
17	0x3d48494e	0.048898034
18	0x3f5b537b	0.85674256
19	0xbe5906c5	-0.21193989
20	0x3f04c0ca	0.5185667
21	0x3f6b1bef	0.918395
22	0xbe33221e	-0.17493483
23	0xbe8ca992	-0.27473122
24	0x3e5db0a7	0.21649419
25	0xbf47fef8	-0.78123426
26	0x3d9b40cf	0.07580721
27	0xbf57699d	-0.8414553
28	0xbe48fff8	-0.19628894
29	0xbd19acdf	-0.03751838
30	0xbefb0e04	-0.4903413
31	0xbe0c15da	-0.1368021
32	0x3df5d357	0.120032005
33	0x3f2afa29	0.66787964
34	0xbf6db912	-0.9286052

feats.IsInRing.weight f4 [35, 1]
0	0xbf4efffc	-0.8085935
1	0xbca67e2f	-0.02032384
2	0xbeeab2bd	-0.4583949
3	0xbd90f376	-0.070776865
4	0xbe1e3be1	-0.1545253
5	0x3f99abec	1.2005591
6	0x3f3a59b4	0.72793126
7	0xbfb6fe44	-1.4296346
8	0xc00acfdd	-2.168937
9	0xbfee255d	-1.8605152
10	0xbf23fa32	-0.6405364
11	0xc0210e48	-2.5164967
12	0xc03a9d21	-2.9158404
13	0xbf9c3959	-1.2205001
14	0xbf3446e2	-0.7042066
15	0x3e42013c	0.18945783
16	0x3ff32c2c	1.8997855
17	0xbd7574d6	-0.059925877
18	0xbf978207	-1.1836556
19	0xbe799855	-0.24374516
20	0xc0318d4b	-2.7742488
21	0xbb88534c	-0.0041603204
22	0x3f5d6324	0.864794
23	0x3f1efcdd	0.6210459
24	0xbfe1938f	-1.7623156
25	0xbfa84ba9	-1.314809
26	0xbe4db383	-0.2008801
27	0xbed66eaa	-0.41881305
28	0xbce08b12	-0.027410064
29	0x3ff34f71	1.9008619
30	0xbfecd8c2	-1.8503649
31	0xbfc00a9f	-1.5003241
32	0xbdda9cbf	-0.10674428
33	0x3ff3a534	1.9034791
34	0x4057ae90	3.3700294

feats.IsInRing.bias f4 [35]
0	0x3de67f48	0.11254746
1	0x3eecd02a	0.46252567
2	0xbf03efe0	-0.51537895
3	0x3dd60447	0.104500346
4	0x3e4a0371	0.19727875
5	0xbf121066	-0.5705627
6	0x3f17f33c	0.5935552
7	0xbf08fe84	-0.5351336
8	0x3f27c5d0	0.6553621
9	0xbe51807d	-0.2045917
10	0xbf05d6ea	-0.5228106
11	0x3f232f22	0.63743794
12	0x3d30f4c9	0.043202195
13	0x3ef7495a	0.4829815
14	0x3f2d0353	0.675832
15	0xbe84a9bc	-0.25910747
16	0x3ebc64df	0.3679571
17	0x3e49cf29	0.19707932
18	0x3f5b7a5a	0.8573357
19	0x3e7e6821	0.2484441
20	0x3eebfb90	0.46090364
21	0xbea149db	-0.3150166
22	0xbf005616	-0.50131357
23	0xbf1adf56	-0.60497034
24	0x3e8f05ef	0.27934214
25	0xbebfc743	-0.37456712
26	0xbedfc870	-0.4370761
27	0x3f65da82	0.8978654
28	0x3c0abd5c	0.008467998
29	0xbe29432e	-0.16529533
30	0xbf162941	-0.586567
31	0x3e8c66dc	0.27422225
32	0xbec9be71	-0.39403108
33	0x3f299035	0.6623567
34	0xbf89b92a	-1.0759633

feats.IsAromatic.weight f4 [35, 1]
0	0xbed27550	-0.41105127
1	0x3eb72c71	0.35776094
2	0x3f85def3	1.0458664
3	0x3eaed0e9	0.3414376
4	0x3f9803f5	1.1876208
5	0xbefc1777	-0.49236652
6	0xbe2f46bc	-0.17116827
7	0xbf24768e	-0.642434
8	0xbf8f8b94	-1.1214471
9	0xbe97e942	-0.2967015
10	0xbf81ebdd	-1.0150105
11	0xbff63b18	-1.9236784
12	0xc006c778	-2.1059246
13	0xbf8db3ec	-1.1070533
14	0xbdea741c	-0.11447927
15	0x3bc0c0c4	0.0058823545
16	0x3fad3a0c	1.353334
17	0x3fbb710d	1.4643875
18	0x3f035b1c	0.51310897
19	0xc003a02c	-2.056651
20	0xbee500ff	-0.44727322
21	0x3fd26719	1.6437713
22	0xbf22b330	-0.6355467
23	0x3e92961c	0.2863015
24	0xc0013f23	-2.0194786
25	0xbf1e4532	-0.61824334
26	0x3fa5a01a	1.2939484
27	0x3ba7c928	0.0051204152
28	0xbf828cb9	-1.0199195
29	0x3f1574ab	0.58381146
30	0x3ebc5f50	0.36791468
31	0xbfa98a3d	-1.3245312
32	0xbf6f4356	-0.9346212
33	0x3f9d1a35	1.2273623
34	0x3f91f118	1.1401701

feats.IsAromatic.bias f4 [35]
0	0x3ce5c049	0.02804579
1	0xbf61125e	-0.8791865
2	0xbf2b7709	-0.6697851
3	0xbf1f2fd5	-0.6218236
4	0xbe4ff92d	-0.20309897
5	0x3e1676f2	0.14693812
6	0x3ea58acc	0.32332456
7	0xbf77701c	-0.9665544
8	0xbf7228ca	-0.9459349
9	0xbf5affcb	-0.8554656
10	0x3e697616	0.22798952
11	0x3f5ff23c	0.87478995
12	0xbece2e1e	-0.4026956
13	0x3f0997df	0.5374736
14	0xbede3715	-0.434014
15	0x3f4c9fe2	0.7993146
16	0x3f04de63	0.51901835
17	0xbf2440d3	-0.64161414
18	0xbf19d95d	-0.60097295
19	0xbe17b5a2	-0.14815381
20	0x3ebc74f0	0.36807966
21	0x3ecf3163	0.40467367
22	0xbd83e875	-0.06440822
23	0xbf3a9deb	-0.72897214
24	0xbe97e061	-0.29663375
25	0x3f6be152	0.92140687
26	0x3ecd3182	0.40076834
27	0xbecc820c	-0.39942968
28	0x3f5732b0	0.8406172
29	0xbf1926ae	-0.59824646
30	0xbe6872de	-0.22700068
31	0x3f35d54c	0.7102859
32	0x3f7b02e4	0.98051286
33	0x3db098e2	0.0862291
34	0x3f4e550c	0.8059852

feats.NumRadicalElectrons.weight f4 [35, 1]
0	0x3f0c6ca2	0.5485326
1	0xbf06c244	-0.52640176
2	0xbeb6b674	-0.35686076
3	0xbefb9af8	-0.4914167
4	0xbef9982c	-0.4874891
5	0xbf4a1368	-0.7893586
6	0x3ee6324c	0.44960248
7	0xbf27c7cc	-0.6553924
8	0x3e992b5c	0.29915893
9	0x3f563a16	0.8368238
10	0x3f2ed1fe	0.6828917
11	0x3de20ee0	0.110379934
12	0x3e6e5240	0.23273563
13	0xbc319e80	-0.010841012
14	0x3f787618	0.97055197
15	0x3e510cc0	0.2041502
16	0x3f7e9496	0.99445474
17	0xbe7d0b78	-0.24711406
18	0x3f7b290a	0.98109496
19	0xbe8f75b8	-0.280195
20	0xbe969db8	-0.29417205
21	0xbdc0eed0	-0.0942055
22	0xbf4bf718	-0.7967391
23	0x3e485bf0	0.19566321
24	0xbedb0c40	-0.42782784
25	0x3ebe7d68	0.37205052
26	0x3eac6aac	0.33675134
27	0x3ea2ba6c	0.31782854
28	0x3eda7dfc	0.42674243
29	0xbf69b894	-0.9129727
30	0x3f614d7e	0.8800887
31	0xbf660b86	-0.89861333
32	0x3f147fe2	0.58007634
33	0x3f589b8a	0.84612334
34	0xbe8d435c	-0.27590454

feats.NumRadicalElectrons.bias f4 [35]
0	0xbf214120	-0.6299
1	0x3ee3e239	0.44508532
2	0xbe10bdc6	-0.14134893
3	0x3bf3dd07	0.00744212
4	0xbf1266d5	-0.5718816
5	0x3d4975e8	0.04918471
6	0x3f962301	1.1729432
7	0x3d22525d	0.03962933
8	0x3f618466	0.8809265
9	0xbe9f4e2f	-0.31114337
10	0xbf54cd8f	-0.8312616
11	0x3e5683e2	0.20948747
12	0x3d73d069	0.059524927
13	0x3d226353	0.039645504
14	0xbf84559e	-1.0338628
15	0xbf0d7cb6	-0.5526842
16	0x3e8b640a	0.2722476
17	0x3f7ba9dd	0.98306066
18	0xbf0efd43	-0.55855197
19	0x3da2a332	0.07941283
20	0xbefdbc7d	-0.49557868
21	0x3e2bac9d	0.16765065
22	0xbf6abd98	-0.9169555
23	0x3eb812d9	0.3595188
24	0xbe8f20d8	-0.27954745
25	0xbe590e47	-0.21196853
26	0x3f2715f8	0.65267897
27	0x3e25934c	0.1616947
28	0xbefc747f	-0.4930763
29	0xbf84d7a8	-1.0378313
30	0x3e914de0	0.28379726
31	0x3e6bc5d8	0.2302469
32	0xbe86ace7	-0.2630379
33	0xbe92bd3d	-0.28660002
34	0x3eba4ef2	0.36388355
