attention_pooling3_human.pth (torch, 37673 bytes, 23 tensors)

gates.AtomicNum.nn.0.weight f4 [1, 12]
000000 b4 21 d0 bd 09 e8 99 3f e9 42 33 be 34 a3 56 3e
       -0.10162678 1.2023937 -0.17505993 0.20960695
000010 14 31 a0 3d e0 ca 10 bf 10 3b 7c bf 3a bb e5 bd
       0.07821861 -0.5655956 -0.9852762 -0.11217351
000020 82 03 b8 bf 08 57 60 bf b4 99 61 3e c5 93 aa be
       -1.437607 -0.876328 0.2203129 -0.33315864

gates.Degree.nn.0.weight f4 [1, 6]
000000 e4 8f 43 be 23 2e 0c 3d f8 93 cc 3d d6 be 8a bf
       -0.19097859 0.034223687 0.0998916 -1.0839489
000010 42 ae b2 3f 20 2e 18 3d
       1.3959429 0.037153363

gates.TotalNumHs.nn.0.weight f4 [1, 5]
000000 48 25 97 3d 86 4d c1 be 9d b8 4e be a0 ed 04 be
       0.07380158 -0.37754458 -0.20187612 -0.12981272
000010 ec 31 6f 3e
       0.23358887

gates.ImplicitValence.nn.0.weight f4 [1, 6]
000000 f8 a5 53 3e 2a f2 3d be 58 e9 ce be 20 5e 56 bd
       0.20668781 -0.1854941 -0.40412402 -0.05233586
000010 b0 e9 af 3e 6f 11 22 be
       0.34357977 -0.15826963

gates.Hybridization.nn.0.weight f4 [1, 5]
000000 e2 d9 f4 bd 5d be de be 51 c1 99 be 30 a0 9b be
       -0.1195562 -0.4350461 -0.300303 -0.3039565
000010 60 53 ff 3c
       0.031167686

feats.AtomicNum.weight f4 [3, 12]
000000 c0 2a b2 bb 0a 05 64 bf cc 1f 19 3e 30 a1 c1 3c
       -0.005437225 -0.8907019 0.14953536 0.02363643
000010 28 e7 db 3d 8d 45 8a 3e 5a 33 3a be 80 9d 19 3e
       0.10737449 0.27006188 -0.18183652 0.15001488
000020 ad d8 2d bf 72 56 cd 3e 3d 28 80 be 23 39 33 c0
       -0.67908746 0.40105015 -0.250307 -2.8003623
000030 8c fa 83 3e d3 2c 1f 3e f0 2b bf 3d 18 f7 a5 bd
       0.2577709 0.15544443 0.09334552 -0.0810377
000040 d0 50 1f bd fd 73 9d be 0a 97 fe 3c 8e ec 0c 3e
       -0.03889543 -0.30752555 0.03107788 0.13762113
000050 c9 47 7a 3f 34 41 b5 3e d2 09 91 be 74 03 90 3f
       0.97765785 0.3540131 -0.28327805 1.1251054
000060 50 77 13 3e c7 7f e8 3e df 06 15 be 1c 63 68 bd
       0.14400983 0.45409986 -0.14553402 -0.056735143
000070 d3 77 54 be 5e 53 6b be 51 22 07 3f 29 93 af be
       -0.20748834 -0.22981021 0.5278674 -0.34291962
000080 db ca b1 be 2b 6f f6 bc f7 a1 89 be ad 9a 2a 40
       -0.3472508 -0.030082306 -0.26881382 2.6656907

feats.AtomicNum.bias f4 [3]
000000 d6 b1 d0 be 6f 2c 8b 3e e6 2e cc 3e
       -0.40760678 0.27182338 0.3987953

feats.Degree.weight f4 [3, 6]
000000 42 31 e3 be 00 b6 12 3f 03 cb b1 bf f3 50 0c 3f
       -0.44373518 0.5730896 -1.3890079 0.5481102
000010 cf 1b 76 bf 8f 27 c5 be 10 20 dc bd c3 38 1e be
       -0.9613618 -0.38506743 -0.10748303 -0.1545134
000020 2a 1d 2b 3f f6 1e d2 be 25 ec 07 3f eb 76 2c be
       0.66841376 -0.41039246 0.530947 -0.16842239
000030 3e b0 0a 3f 9a a2 d7 bd c8 9a 51 3f 35 fa 6d bf
       0.54175174 -0.10529061 0.818768 -0.9295991
000040 97 a3 91 3f 80 a8 2b bc
       1.1378049 -0.010477185

feats.Degree.bias f4 [3]
000000 3a 4d ed bc d7 39 9c 3e 81 f2 08 3f
       -0.028967489 0.30512878 0.5349503

feats.TotalNumHs.weight f4 [3, 5]
000000 c0 92 2d 3e 25 65 4e 3f f2 82 a4 bf da de 37 c0
       0.16950512 0.80623084 -1.2852461 -2.8729768
000010 00 4e 99 3a e9 18 c7 ba 24 3a 2d bf 91 63 2c 3f
       0.001169622 -0.0015189919 -0.6766684 0.67339426
000020 8d fe 04 40 05 75 5f be ee cd 42 be c2 21 97 bc
       2.0780365 -0.21821983 -0.19023868 -0.018448714
000030 1c 34 9f 3f c4 30 6d 40 6a 99 81 be
       1.2437778 3.7061014 -0.25312358

feats.TotalNumHs.bias f4 [3]
000000 e9 48 51 be f9 ec 68 3e 4e 91 88 be
       -0.2043797 0.22746648 -0.2667336

feats.ImplicitValence.weight f4 [3, 6]
000000 f8 ae 29 3f 79 bb 29 c0 24 84 45 bf 14 2f 44 c0
       0.66282606 -2.6520674 -0.77154756 -3.0653734
000010 63 c3 88 be 88 52 75 3e e2 04 41 bf a7 da f3 3f
       -0.26711568 0.23957264 -0.75398076 1.9051102
000020 2f e8 93 3f 01 11 04 40 1a f6 9a be 44 38 ab bd
       1.1555232 2.0635378 -0.30265886 -0.08360341
000030 9d ca 4c bf 46 ca 59 40 80 2b 64 3f e0 5d 67 40
       -0.79996663 3.4029708 0.89128876 3.6151047
000040 34 9f a2 3d 2c 21 62 3e
       0.07940522 0.22082967

feats.ImplicitValence.bias f4 [3]
000000 0a 50 0f 3d e6 7b 09 3f 11 5b 80 3e
       0.03498844 0.5370468 0.25069478

feats.Hybridization.weight f4 [3, 5]
000000 bf 5a 87 40 c4 59 b3 be 98 eb b3 3f 6e 4b 33 be
       4.2298274 -0.35029423 1.4056273 -0.17509243
000010 ce d9 61 bf 64 75 19 c0 01 48 c8 3e 1c 26 01 bf
       -0.8822297 -2.39779 0.39117435 -0.50448775
000020 04 47 d6 be 7e de 9f be 36 11 b8 c0 58 53 f1 3e
       -0.41851056 -0.31224436 -5.752101 0.471339
000030 db ea 8f bf 20 ae d0 3c da 1c 6b 3f
       -1.1243547 0.025473654 0.918409

feats.Hybridization.bias f4 [3]
000000 89 49 e2 3e 1b a9 11 3f b9 d6 42 3e
       0.44196728 0.5689866 0.19027223

feats.FormalCharge.weight f4 [3, 1]
000000 3c dc f0 3e 93 a3 20 bf 27 f2 92 3f
       0.47043025 -0.62749594 1.1480149

feats.FormalCharge.bias f4 [3]
000000 b3 2b d1 3e f4 40 05 bf 40 3c 54 bf
       0.40853652 -0.52052236 -0.82904434

feats.IsInRing.weight f4 [3, 1]
000000 3c 69 f9 be 79 5e 2a 3d 6d 1c b0 bd
       -0.487131 0.041594002 -0.08599172

feats.IsInRing.bias f4 [3]
000000 16 80 5f bf f5 11 1c bf 89 bb 86 3f
       -0.8730482 -0.609649 1.0525981

feats.IsAromatic.weight f4 [3, 1]
000000 c1 04 83 3f a7 8c cc bd 96 f6 67 3e
       1.0235826 -0.09987765 0.22652659

feats.IsAromatic.bias f4 [3]
000000 e1 15 c5 3e 7f 39 72 3d 69 a4 16 3e
       0.38493255 0.059136864 0.14711155

feats.NumRadicalElectrons.weight f4 [3, 1]
000000 b8 68 f1 be 50 74 9f bd 42 bc 15 3f
       -0.47150207 -0.07785857 0.58490384

feats.NumRadicalElectrons.bias f4 [3]
000000 3d b9 75 bf b5 a4 6b 3c 3e 01 0a bf
       -0.95985776 0.014382531 -0.53908145
