attention_pooling_esol.pth (torch, 44059 bytes, 23 tensors)

gates.AtomicNum.nn.0.weight f4 [1, 12]
0	0x3cd7a070	0.02632162
1	0xbe61adf2	-0.22039011
2	0x3e21bba8	0.15794241
3	0xbe0d7bf4	-0.13816816
4	0xbdf3204e	-0.11871396
5	0xbc5b9440	-0.013402045
6	0xbe1a48bd	-0.1506681
7	0x3e4ac98d	0.19803448
8	0x3eb811b8	0.35951018
9	0xbf186312	-0.5952617
10	0x3e6d927c	0.2320041
11	0xbde234dd	-0.11045239

gates.Degree.nn.0.weight f4 [1, 6]
0	0x3e28a334	0.16468507
1	0xbebaa00c	-0.3645023
2	0xbd4823e0	-0.048862338
3	0xbe31e120	-0.17371035
4	0x3d40e148	0.047089845
5	0x3e27b95c	0.16379303

gates.TotalNumHs.nn.0.weight f4 [1, 5]
0	0xbdd06184	-0.1017485
1	0x3d81a6c8	0.06330639
2	0xbbb58500	-0.0055395365
3	0xbe0e6408	-0.13905346
4	0x3eb90e6e	0.3614382

gates.ImplicitValence.nn.0.weight f4 [1, 6]
0	0xbe3d40cd	-0.18481751
1	0x3e3a1ccc	0.18175048
2	0xbd9efc2a	-0.0776294
3	0xbea45153	-0.32093295
4	0x3e70c3f4	0.2351225
5	0x3d53bb60	0.051692367

gates.Hybridization.nn.0.weight f4 [1, 5]
0	0x3c0433d0	0.008068994
1	0xbe349238	-0.17633903
2	0xbea27470	-0.3172946
3	0xbe9a0dbe	-0.3008861
4	0x3e6733b4	0.22578317

feats.AtomicNum.weight f4 [35, 12]
0	0x3c622100	0.013801813
1	0xbe42c44b	-0.19020192
2	0x3c039120	0.008030206
3	0x3dabcb84	0.08388427
4	0xbcb8b150	-0.022545487
5	0xbe4165be	-0.18886468
6	0xbe83369d	-0.25627604
7	0xbd0fa2e9	-0.035067473
8	0xbd9c4670	-0.076306224
9	0x3d420d69	0.04737607
10	0x3cf00650	0.029299885
11	0xbe80d31f	-0.25161073
12	0x3d47cda8	0.048780113
13	0xbe937c70	-0.28805876
14	0x3e576ce8	0.21037638
15	0xbe493cba	-0.19652072
16	0xbdac7f32	-0.08422698
17	0xbaf52300	-0.0018702447
18	0xbda087dc	-0.07838413
19	0x3ea91a21	0.33027747
20	0x3f0fa651	0.56113154
21	0x3e8e7813	0.27825984
22	0x3c8ca540	0.017168641
23	0xbd4a06a9	-0.049322758
24	0x3e939078	0.28821158
25	0x3cfffa90	0.031247407
26	0x3dd95098	0.10611075
27	0x3e2e2186	0.17004976
28	0x3e33fb50	0.17576337
29	0x3de873ec	0.11350235
30	0xbd2e3441	-0.042530302
31	0x3d077b97	0.03307685
32	0x3edebf87	0.435055
33	0x3e85c1c9	0.2612441
34	0xbe6eecd0	-0.23332524
35	0xbd8e544c	-0.06949672
36	0xbddc99c0	-0.10771513
37	0x3e514736	0.20437321
38	0xbc707120	-0.014675409
39	0xbda592b6	-0.080846235
40	0x3d4f6c20	0.050640225
41	0xbe5bf056	-0.214784
42	0x3e5f011a	0.21777764
43	0xbef2865e	-0.4736814
44	0xbf2100d7	-0.62891906
45	0xbc5446d7	-0.012956343
46	0xbd4fdc5c	-0.05074726
47	0x3e9d4714	0.3071829
48	0x3e690068	0.22754061
49	0x3e064ac4	0.13114458
50	0x3ca75360	0.020425498
51	0x3d52c520	0.051457524
52	0xbd988ba6	-0.07448511
53	0xbe4bd133	-0.19904022
54	0x3ea8fe09	0.33006313
55	0xbd2cdeb0	-0.04220456
56	0x3e837f82	0.25683218
57	0xbbf217b7	-0.007388081
58	0xbda52a02	-0.08064653
59	0xbd2ad5a0	-0.041707635
60	0xbe55bbdf	-0.20872448
61	0x3e1fe556	0.15614828
62	0x3e7ae268	0.2450043
63	0x3d61b910	0.05510813
64	0x3e4233c8	0.18965065
65	0xbdee208a	-0.116273
66	0x3de4ced6	0.11172263
67	0x3dade964	0.08491781
68	0x3e438de0	0.1909709
69	0x3fc63638	1.5485296
70	0xbe2a1083	-0.16607861
71	0xbf4a8a9f	-0.7911777
72	0xbcede800	-0.02904129
73	0x3d7408e8	0.059578806
74	0x3e6505d0	0.22365499
75	0x3c6715c0	0.014104307
76	0xbdd00902	-0.10157968
77	0x3dda72b4	0.10666409
78	0x3eaa3b2a	0.33248264
79	0xbe026c40	-0.12736607
80	0xbf059793	-0.5218441
81	0xbeb4b406	-0.35293597
82	0x3daca120	0.0842917
83	0x3ef768eb	0.48322234
84	0xbe78fa16	-0.2431415
85	0x3e4cfd80	0.20018578
86	0x3dec5774	0.11540118
87	0x3e29b332	0.16572264
88	0xbe26fe12	-0.16307858
89	0xbc9e3e70	-0.019316882
90	0x3e254bca	0.16142192
91	0xbe9173d9	-0.28408697
92	0xbe42c4e4	-0.1902042
93	0x3e340699	0.17580642
94	0x3d8c1970	0.06840789
95	0x3e013220	0.12616777
96	0x3da0bdf0	0.07848728
97	0xbce0f440	-0.027460217
98	0xbdcb0098	-0.099122226
99	0xbd48f0b0	-0.049057662
100	0xbcabac00	-0.02095604
101	0x3d035cd0	0.032070935
102	0xbe40f885	-0.18844803
103	0xbe287c1b	-0.16453592
104	0xbe57bcb2	-0.21068075
105	0x3e20fb5d	0.15720887
106	0xbde27e14	-0.11059204
107	0x3eeb547c	0.45962894
108	0x3d409310	0.04701525
109	0x3db6d850	0.08927977
110	0x3e85086e	0.25982994
111	0x3e6d98f0	0.23202872
112	0xbd477b64	-0.04870166
113	0xbdc514ec	-0.09623131
114	0x3d547b5e	0.051875465
115	0xbc5234aa	-0.012829939
116	0xbe8304fb	-0.25589737
117	0x3eabe5cd	0.33573762
118	0xbdbb1890	-0.09135544
119	0xbdceb5c9	-0.100932665
120	0xbe3a78c1	-0.18210126
121	0xbe782a6c	-0.24234933
122	0xbe824126	-0.2544033
123	0xbbb6e6c0	-0.0055817068
124	0xbe008136	-0.1254929
125	0x3e2b93b8	0.16755569
126	0xbeb3b950	-0.3510232
127	0x3ec24937	0.37946483
128	0xbd3bff13	-0.045897555
129	0x3e4ce4c7	0.20009147
130	0xbe461570	-0.19344115
131	0xbe5c3875	-0.21505912
132	0x3e5f6378	0.21815288
133	0x3e230632	0.15920332
134	0x3e5b5f38	0.21423042
135	0x3e106a6a	0.14103094
136	0xbdf69b20	-0.120413065
137	0x3d82009c	0.063477725
138	0xbe9fa684	-0.3118173
139	0x3ef0c164	0.47022545
140	0xbe8eebc4	-0.2791425
141	0xbe127e40	-0.14305973
142	0xbe4e60c4	-0.201541
143	0xbeed69f9	-0.46369913
144	0x3e0071c0	0.12543392
145	0xbe81aea4	-0.25328553
146	0x3e3ce426	0.18446407
147	0xbe710852	-0.2353833
148	0xbe74df0f	-0.23913215
149	0xbe835020	-0.25647068
150	0x3e2363e0	0.15956068
151	0xbef01438	-0.46890426
152	0xbdd309fc	-0.10304639
153	0x3ec5eb2c	0.38655984
154	0xbe24bdbe	-0.16088006
155	0xbaedb1df	-0.0018134675
156	0xbe3388b5	-0.17532618
157	0xbe61a8d4	-0.22037059
158	0x3e41dd90	0.18932176
159	0x3de13420	0.1099627
160	0xbe8ef537	-0.2792146
161	0x3e834fb6	0.25646752
162	0xbdf5999e	-0.11992191
163	0x3e0dfa87	0.138651
164	0xbea3018c	-0.31837118
165	0xbf8f64d3	-1.1202644
166	0xbe5a44fc	-0.21315378
167	0x3e9eae48	0.3099234
168	0x3d30e098	0.04318294
169	0x3c2fc520	0.010728151
170	0x3e533fb2	0.20629767
171	0xbe5aa33b	-0.2135133
172	0xbe4cac42	-0.19987586
173	0x3e15e79c	0.14639133
174	0xbe0b081e	-0.13577315
175	0x3ec9b454	0.39395392
176	0x3e907698	0.2821548
177	0xbd3d2b3c	-0.04618381
178	0xbe6f22d7	-0.23353134
179	0xbe774d83	-0.24150662
180	0xbd209e44	-0.039213434
181	0xbe3079c8	-0.17233956
182	0x3e5a24c0	0.21303082
183	0xbe777b29	-0.24168076
184	0xbd9fb4ca	-0.07798155
185	0x3e8b214e	0.27173847
186	0xbc6cd4f7	-0.014455072
187	0x3e627b19	0.2211727
188	0x3e2e37ec	0.1701352
189	0x3f00c5e4	0.5030196
190	0x3e24fe18	0.16112554
191	0x3ee09ea8	0.43871045
192	0xbdc1cf28	-0.0946334
193	0x3e0a6d30	0.13518214
194	0x3d25c5b8	0.040471762
195	0xbe636052	-0.22204712
196	0x3e25ae92	0.16179875
197	0x3d8b55d4	0.0680348
198	0xbee4afdc	-0.4466542
199	0x3e3464a4	0.17616516
200	0xbe200f9d	-0.15630956
201	0xbe5bb9b8	-0.21457565
202	0xbe2c948c	-0.16853541
203	0x3e46c702	0.19411853
204	0x3dc14e7c	0.09438798
205	0xbe25d53e	-0.16194627
206	0xbe5e3e29	-0.217034
207	0x3df02754	0.11726251
208	0xbde15ab6	-0.1100363
209	0xbdf8247e	-0.12116335
210	0xbeb9e235	-0.36305395
211	0x3f0b0df4	0.54318166
212	0x3e7775c9	0.24166025
213	0x3d688413	0.05676658
214	0x3e6e791c	0.23288387
215	0xbed50754	-0.41607153
216	0xbc8cb970	-0.017178267
217	0x3e8687e2	0.26275545
218	0xbe89a774	-0.2688557
219	0xbe85fc62	-0.26169115
220	0x3e6ceb08	0.23136532
221	0xbdd5d09c	-0.1044018
222	0x3e0e0b25	0.13871439
223	0xbec11500	-0.37711334
224	0x3e6f366f	0.23360609
225	0x3d4f0c83	0.05054904
226	0xbe20a703	-0.1568871
227	0x3e7d7d41	0.24754812
228	0x3dc96dc4	0.09835389
229	0x3e4134a4	0.18867737
230	0xbe8c9572	-0.27457768
231	0xbd999e52	-0.075009
232	0xbe6c0d77	-0.23052011
233	0xbe7383e4	-0.23780781
234	0xbf1170d7	-0.56812805
235	0xbe0bcc14	-0.13652068
236	0x3e8310ae	0.25598663
237	0x3d9f2c6f	0.07772147
238	0xbdc1c682	-0.094616905
239	0xbf29bb1f	-0.6630115
240	0x3e2d437c	0.16920274
241	0x3df9b814	0.12193313
242	0xbe87a1f5	-0.2649075
243	0xbe6e9287	-0.23298083
244	0xbe6e9f72	-0.23303011
245	0xbdb38310	-0.087652326
246	0x3e6e7957	0.23288475
247	0xbec36c82	-0.38168722
248	0xbd1a286d	-0.03763621
249	0xbe21af4c	-0.15789527
250	0x3d53ca38	0.051706523
251	0xbecb7e67	-0.39744875
252	0x3e2227f0	0.15835547
253	0xbe8fa2e8	-0.28053975
254	0xbe0a59f1	-0.13510872
255	0x3deba2ac	0.115056366

feats.AtomicNum.bias f4 [35]
0	0xbd72a828	-0.059242398
1	0xbde55ab4	-0.11198941
2	0x3db1934a	0.08670671
3	0xbe041a95	-0.12900765
4	0x3e456fd6	0.19280943
5	0xbe05d041	-0.13067724
6	0x3dde4a96	0.1085407
7	0x3e51bf04	0.20483023
8	0x3ac3346d	0.0014892943
9	0x3e16357a	0.14668837
10	0xbe318b24	-0.17338234
11	0x3d5be4ab	0.05368487
12	0xbe043364	-0.12910229
13	0xbda8b0a6	-0.08236818
14	0xbe565e2b	-0.2093436
15	0x3d99a403	0.07501986
16	0xbdf3c351	-0.11902488
17	0x3e847c31	0.25876
18	0xbe2447e5	-0.1604305
19	0xbdf6ec9f	-0.12056851
20	0xbe1c08e6	-0.1523777
21	0x3e288edd	0.16460748
22	0x3e57bb43	0.21067528
23	0x3e966d20	0.2938013
24	0xbde50ae6	-0.11183719
25	0xbe3e3049	-0.18573107
26	0x3c4d749f	0.012540012
27	0xbd254313	-0.04034717
28	0xbe435f66	-0.1907936
29	0xbe0b0b43	-0.13578515
30	0x3e2d2d33	0.16911773
31	0x3e11c9eb	0.14237182
32	0xbe2bc7a3	-0.16775374
33	0x3db81d75	0.089899935
34	0x3da8702f	0.08224522

feats.Degree.weight f4 [35, 6]
0	0x3cba4df0	0.022742242
1	0x3d396ab7	0.045267787
2	0xbe268e09	-0.1626512
3	0xbdbdb1ca	-0.09262426
4	0x3f778507	0.9668736
5	0x3e52b938	0.20578468
6	0x3e0b20bc	0.13586706
7	0x3ed51849	0.4162009
8	0x3ec2f657	0.38078567
9	0xbf38e81c	-0.7222917
10	0xbf21d964	-0.63222337
11	0x3eb6bf46	0.35692805
12	0x3e1a79ec	0.15085572
13	0x3f5d4aa0	0.86441994
14	0xbe71c411	-0.2360995
15	0x3dfe8176	0.124270365
16	0xbfa5f62e	-1.2965753
17	0xbcc06ff0	-0.023490876
18	0x3eb415d0	0.35172892
19	0xbe45a320	-0.19300508
20	0x3e65323f	0.22382449
21	0x3f236f56	0.6384176
22	0x3f836bfc	1.0267329
23	0x3e815f36	0.25267953
24	0xbdd15180	-0.10220623
25	0xbe1d37fa	-0.15353385
26	0x3ececdb9	0.4039133
27	0xbecb120b	-0.39662203
28	0xbeb04218	-0.34425426
29	0xbe253666	-0.16134033
30	0x3ec7bcec	0.39011323
31	0x3de0b149	0.109713145
32	0xbe8c7514	-0.27433074
33	0xbc12eae4	-0.008967135
34	0xbee0766e	-0.43840355
35	0x3cda8df0	0.02667901
36	0x3e6072fc	0.21918863
37	0xbebb0d82	-0.36533743
38	0xbe94d676	-0.2906987
39	0xbe5b0c17	-0.2139133
40	0x3eb60059	0.3554714
41	0x3e07619c	0.13220829
42	0x3df7c968	0.12098962
43	0x3f154e84	0.5832293
44	0xbd3aac02	-0.045574196
45	0xbf0e2571	-0.5552588
46	0x3f96dd8d	1.1786362
47	0xbbe8a5c0	-0.007099837
48	0x3de1c9e8	0.11024839
49	0xbf4eb75f	-0.8074855
50	0x3d1e2c2c	0.038616344
51	0x3f0383bc	0.51372886
52	0x3f8d5bf7	1.104369
53	0x3de8ac20	0.11360955
54	0xbe82cc3f	-0.25546452
55	0x3eb0428a	0.34425765
56	0x3e724b24	0.23661476
57	0xbc741275	-0.014896979
58	0xbf2a0e04	-0.66427636
59	0x3d95af30	0.07308805
60	0x3e9d37fe	0.3070678
61	0x3e7d7c5b	0.24754469
62	0xbe4d8261	-0.20069267
63	0x3e35836e	0.17725918
64	0xbf74f3d3	-0.95684546
65	0x3e55e838	0.20889366
66	0x3e81c0cc	0.25342405
67	0x3f2a7944	0.66591287
68	0xbe5d2f26	-0.21600017
69	0xbf25a8f2	-0.64710915
70	0xbf51baf7	-0.8192591
71	0x3ed0c2e4	0.4077369
72	0xbe15eadc	-0.14640373
73	0xbe5af7bf	-0.2138357
74	0xbd82c84e	-0.06385861
75	0x3f0550ae	0.5207623
76	0x3b217e52	0.0024641943
77	0xbda95cf8	-0.082696855
78	0xbe039662	-0.12850335
79	0x3d5a8de8	0.05335799
80	0x3f00be83	0.502907
81	0xbf6e0cdf	-0.9298839
82	0xbec414ae	-0.38297027
83	0x3e48d58c	0.19612712
84	0xbe391c02	-0.1807709
85	0x3dacd3b1	0.084388144
86	0x3f00b29c	0.50272536
87	0xbe9a760e	-0.30168194
88	0xbf563860	-0.8367977
89	0x3c6c14e0	0.014409274
90	0x3dd5c510	0.10437977
91	0x3e01748c	0.12642115
92	0xbe3eec1f	-0.1864476
93	0x3d9207bb	0.07130381
94	0x3f4bf47f	0.79669946
95	0xbe499edf	-0.19689511
96	0x3cc030f0	0.023460835
97	0x3e1c5e77	0.1527041
98	0x3e5b5937	0.21420752
99	0xbc9d0057	-0.019165201
100	0x3ecd0565	0.40043178
101	0x3d8dbfdc	0.0692136
102	0x3d606c60	0.054790854
103	0x3f503b0a	0.81340086
104	0xbe52bd05	-0.20579918
105	0xbec0f6e5	-0.37688366
106	0x3d4fa710	0.050696433
107	0xbec995f3	-0.39372215
108	0xbe577b0f	-0.21043037
109	0x3f11fb60	0.5702419
110	0xbd15b29c	-0.03654729
111	0xbf2b047d	-0.66803724
112	0xbec9a96e	-0.39387077
113	0x3eccbeac	0.3998922
114	0xbd2f75b8	-0.042836875
115	0x3e1d01d2	0.15332726
116	0x3eb23aa9	0.3481038
117	0xbe62b09a	-0.2213768
118	0xbea43a65	-0.32075801
119	0x3e050584	0.12990385
120	0x3dbe9f60	0.09307742
121	0xbe44fb47	-0.1923648
122	0x3ea2a851	0.3176904
123	0x3c5e9caa	0.013587156
124	0x3f117e8d	0.56833726
125	0xbea25289	-0.31703594
126	0xbe6994b4	-0.22810632
127	0xbf12d25c	-0.5735223
128	0x3eb754d7	0.35806915
129	0x3cf21658	0.02955167
130	0xbe12e502	-0.14345172
131	0xbe384e9f	-0.17998742
132	0xbec7f279	-0.3905218
133	0x3f4c7c53	0.79877204
134	0x3e951b99	0.29122618
135	0xbf6d7cca	-0.9276854
136	0xbf27c06c	-0.6552799
137	0x3eca52d0	0.39516306
138	0x3d6b3138	0.057419986
139	0xbf012508	-0.5044713
140	0x3ec1b0c3	0.3783017
141	0xbed1b38b	-0.40957293
142	0x3ea1b466	0.31582946
143	0x3ea4b67a	0.3217047
144	0xbe29b78f	-0.16573928
145	0xbf202061	-0.62549406
146	0xbe8977e8	-0.26849294
147	0x3f275ed5	0.6537908
148	0x3e727b18	0.23679769
149	0xbe4a1e52	-0.19738129
150	0x3ec995c4	0.39372075
151	0x3e83e33c	0.25759304
152	0xbe361a2c	-0.17783421
153	0x3e908396	0.28225392
154	0x3f31ee6a	0.69504416
155	0xbe8ddde2	-0.27708346
156	0x3d1102f0	0.035403192
157	0x3e484ac5	0.19559772
158	0x3e9f3440	0.3109455
159	0xbd834b74	-0.06410876
160	0xbeec36f3	-0.46135673
161	0x3d24dce0	0.040249705
162	0x3e8bf684	0.27336514
163	0x3ec54907	0.38532278
164	0x3d0b1c05	0.03396227
165	0xbee7f9e5	-0.45307842
166	0xbf457f4f	-0.7714738
167	0x3e71e854	0.23623782
168	0xbea32b54	-0.31868994
169	0x3e258751	0.161649
170	0x3eb82149	0.35962895
171	0xbf1ed57e	-0.62044513
172	0xbe993914	-0.2992636
173	0xbecd9c2d	-0.40158215
174	0xbec7e7d8	-0.3904407
175	0x3ee14f93	0.44006023
176	0xbe2a80d0	-0.166507
177	0xbd9f47c7	-0.07777362
178	0xbf2979fb	-0.6620175
179	0x3e23101c	0.15924114
180	0x3e85fe0c	0.26170385
181	0xbe90111d	-0.28138056
182	0x3f083d1f	0.53218263
183	0xbf076180	-0.5288315
184	0x3eeb4034	0.4594742
185	0xbe665d41	-0.22496511
186	0x3e6f57c4	0.23373324
187	0xbf90be30	-1.1308041
188	0xbd443f50	-0.047911942
189	0x3c90d7cb	0.017681023
190	0x3e5271f1	0.20551278
191	0x3eb8e5dc	0.3611287
192	0xbeb4c77b	-0.35308442
193	0x3f2ee3bb	0.6831624
194	0xbdf22434	-0.118233114
195	0xbe1eed84	-0.15520293
196	0xbedfc307	-0.43703482
197	0x3ec11aaa	0.37715656
198	0xbe82d6f0	-0.2555461
199	0xbe53fc5e	-0.20701739
200	0x3e419bd0	0.18907094
201	0x3df3e754	0.11909357
202	0xbe24b4ba	-0.16084567
203	0xbe27c6ab	-0.1638438
204	0x3e352410	0.17689538
205	0xbe95cbcb	-0.29257044
206	0xbe58744f	-0.21138118
207	0x3f10ddd5	0.5658849
208	0x3e217182	0.15765956
209	0x3e5036b0	0.20333362

feats.Degree.bias f4 [35]
0	0xbe21112a	-0.15729204
1	0xbea6d725	-0.32586017
2	0x3e99fb6b	0.3007463
3	0x3ea6f05e	0.3260526
4	0xbd03638a	-0.03207735
5	0x3e82c637	0.2554185
6	0x3d5c0fc5	0.053725976
7	0x3d84da62	0.06486966
8	0x3e05e4c2	0.13075545
9	0x3eaf184d	0.34198228
10	0xbe68451a	-0.2268261
11	0xbe9c421a	-0.3051918
12	0x3e74f36b	0.23920982
13	0x3e5b5732	0.21419981
14	0x3e38c22a	0.18042818
15	0x3ea59c72	0.3234592
16	0xbc752d41	-0.014964403
17	0xbea42900	-0.3206253
18	0x3ed1b594	0.40958846
19	0xbea85a99	-0.3288162
20	0x3eb731f9	0.35780314
21	0xbef09b12	-0.4699331
22	0x3e591332	0.21198729
23	0xbe45a753	-0.1930211
24	0xbe4efb4f	-0.20213054
25	0xbe63a076	-0.2222918
26	0x3b59b6e9	0.0033220595
27	0x3e93ed7a	0.28892118
28	0xbe33854a	-0.17531314
29	0x3d1a64c9	0.037693772
30	0xbe13d1b1	-0.1443546
31	0xbe858a1b	-0.2608193
32	0xbe7eb54c	-0.24873847
33	0x3c967df0	0.018370599
34	0xbe669fce	-0.22521898

feats.TotalNumHs.weight f4 [35, 5]
0	0xbe958dda	-0.29209787
1	0xbd902ad8	-0.07039422
2	0x3e993bf9	0.29928568
3	0xbd85fb31	-0.065420516
4	0xbd51a498	-0.05118236
5	0xbf08a923	-0.5338308
6	0x3ec49f63	0.38402852
7	0xbe1ddd5b	-0.15416472
8	0x3f4bc1b3	0.79592437
9	0xbe5da9db	-0.21646826
10	0xbed5a5cb	-0.41728052
11	0x3ee7d525	0.45279804
12	0xbd998563	-0.074961446
13	0x3f558665	0.83408195
14	0xbe68c8a6	-0.22732791
15	0x3e1fe278	0.15613735
16	0xbe9b6a0e	-0.3035435
17	0xbdf6bc91	-0.12047685
18	0xbf7fac53	-0.9987232
19	0x3dfccc18	0.12343615
20	0x3d7c21f4	0.061555818
21	0xbf399376	-0.7249063
22	0xbe8eeaa3	-0.2791339
23	0x3dea26a8	0.11433154
24	0xbedd187c	-0.43182743
25	0xbe366179	-0.1781062
26	0x3f44cd0d	0.7687538
27	0xbef9f0e4	-0.48816597
28	0xbe883f37	-0.2661073
29	0x3e86993c	0.26288784
30	0xbe6bc50b	-0.23024385
31	0xbe8e2b0e	-0.27767223
32	0xbdf34aa9	-0.11879475
33	0xbe1f04d8	-0.15529191
34	0xbeaa723b	-0.33290276
35	0x3e914ce7	0.28378984
36	0xbe87d04b	-0.26526102
37	0x3e5f67f2	0.21816996
38	0x3d466b5d	0.048442233
39	0x3e21d230	0.15802836
40	0xbe499ea8	-0.19689429
41	0x3e8b1b82	0.27169424
42	0x3e9b21ee	0.30299324
43	0xbf0d53e4	-0.5520613
44	0x3cd3ad20	0.025839388
45	0xbeb91734	-0.36150515
46	0xbe8e491e	-0.2779016
47	0x3e9df0ca	0.3084777
48	0x3f1af0b9	0.60523564
49	0x3e929eec	0.28636873
50	0x3e232b94	0.15934592
51	0xbd6e9e16	-0.05825623
52	0xbe506889	-0.20352377
53	0x3f08db37	0.53459495
54	0x3e1c91f8	0.15290058
55	0x3aaeded2	0.0013341552
56	0x3f036b6c	0.5133579
57	0x3e13792d	0.14401694
58	0x3f52ddbc	0.8236959
59	0x3e80672a	0.25078708
60	0xbe704565	-0.23463972
61	0x3d7e146e	0.062031202
62	0xbf1f2539	-0.6216617
63	0xbf40bb04	-0.75285363
64	0xbec40d36	-0.3829133
65	0x3e1dd939	0.15414895
66	0xbe145e29	-0.14489044
67	0x3e2658f6	0.16244873
68	0x3f7bdd4e	0.9838456
69	0xbebe34d0	-0.37149668
70	0xbf12c33d	-0.5732916
71	0x3daf8b7c	0.085715264
72	0x3df168b9	0.117875524
73	0x3ee7b373	0.45254096
74	0xbe33b410	-0.17549157
75	0xbeab7e50	-0.33494806
76	0x3f0d5d44	0.5522044
77	0x3e71a4d3	0.23598032
78	0x3e0c407f	0.13696478
79	0xbe86cfe1	-0.26330474
80	0xbed65893	-0.41864452
81	0xbd850ec3	-0.06496956
82	0xbe1d7be5	-0.15379293
83	0xbd871d20	-0.06597352
84	0xbe3ed9fa	-0.18637839
85	0xbf0feb8b	-0.56218785
86	0xbebc1ad3	-0.36739215
87	0x3e948857	0.2901027
88	0x3f1ba7f3	0.60803145
89	0x3ebf22fc	0.37331378
90	0x3dd295cd	0.102824785
91	0xbf449677	-0.7679209
92	0x3f0910e4	0.535414
93	0x3f241a24	0.6410239
94	0x3ec0c24e	0.37648243
95	0xbe4caba0	-0.19987345
96	0xbdba2bb0	-0.09090364
97	0x3e2276a1	0.15865566
98	0x3eca96f6	0.395683
99	0x3cf5ed10	0.030020267
100	0xbe5cf90c	-0.21579379
101	0xbe6392e3	-0.22224002
102	0x3ebc2d7e	0.36753458
103	0x3cef9222	0.029244486
104	0x3da8a340	0.082342625
105	0xbd3bd775	-0.045859773
106	0x3e4c6eb5	0.19964106
107	0xbdea3faf	-0.11437928
108	0xbd71bcb0	-0.059017837
109	0xbdee91f8	-0.11648935
110	0x3e9c4a80	0.3052559
111	0xbe3dbf7d	-0.18530078
112	0x3e992a7f	0.29915234
113	0x3f46c9f5	0.7765191
114	0xbd138358	-0.03601393
115	0xbd813c65	-0.063103475
116	0x3e480028	0.1953131
117	0x3ef9edc2	0.48814207
118	0xbcd83f88	-0.026397482
119	0x3e223d20	0.1584363
120	0x3daffe1d	0.0859339
121	0x3e528986	0.20560274
122	0xbef83766	-0.48479766
123	0xbf3d2b65	-0.7389434
124	0xbe0089b6	-0.12552533
125	0xbe91df40	-0.2849064
126	0x3e9fe2cb	0.31227717
127	0x3e8a96bd	0.2706813
128	0x3d9df9dd	0.07713673
129	0xbe48c602	-0.19606784
130	0xbe6ca69a	-0.23110428
131	0x3e836316	0.25661534
132	0x3f08a166	0.53371274
133	0x3e5c61cb	0.2152168
134	0x3ec578da	0.38568765
135	0x3e8f18a0	0.27948475
136	0xbdcb0580	-0.099131584
137	0x3e207e06	0.15673074
138	0xbd8f4fe6	-0.06997661
139	0xbe7a935a	-0.24470273
140	0x3e7b70de	0.24554774
141	0x3e12949e	0.14314505
142	0x3df6c74e	0.12049733
143	0x3bc5c838	0.006035831
144	0x3ea62d06	0.32456225
145	0x3efa4b53	0.48885593
146	0x3e332271	0.17493607
147	0xbe2a32c2	-0.16620925
148	0x3d9761a7	0.073916726
149	0xbcebbfb0	-0.028777927
150	0x3e244700	0.1604271
151	0xbe9c8e49	-0.30577305
152	0x3db3b297	0.08774298
153	0xbe56ce77	-0.20977198
154	0xbdfb81c8	-0.12280613
155	0xbf3d6a32	-0.73990166
156	0x3ddf2c94	0.108971745
157	0x3ea234e4	0.31680977
158	0xbea31114	-0.31848967
159	0x3e320c50	0.1738751
160	0xbe6ef6b7	-0.23336302
161	0xbf0ca7bd	-0.5494345
162	0x3f0b64e6	0.54450834
163	0x3f25bb7a	0.6473919
164	0x3e91d91a	0.28485948
165	0x3e14f78e	0.1454756
166	0x3e491a00	0.19638824
167	0x3b294e44	0.0025834003
168	0x3d79c1d9	0.060975883
169	0xbed02a8b	-0.40657458
170	0xbe130fd3	-0.14361505
171	0xbf19ece2	-0.6012708
172	0xbe32ed59	-0.17473353
173	0x3e1b0c50	0.15141416
174	0xbecc34e8	-0.39884114

feats.TotalNumHs.bias f4 [35]
0	0x3c2fe3bc	0.010735448
1	0xbecb1d3f	-0.3967075
2	0x3d10ae13	0.03532226
3	0x3e949006	0.2901613
4	0x3dfcd508	0.1234532
5	0xbdb91fcd	-0.09039269
6	0xbe833043	-0.25622758
7	0xbea66ec5	-0.32506385
8	0x3cc0f771	0.02355549
9	0x3ee6ca55	0.45076242
10	0xbe1ec2e6	-0.15504035
11	0x3c09d2d4	0.008412082
12	0x3e0bae4f	0.13640712
13	0xbea742f2	-0.32668263
14	0x3e04339d	0.12910314
15	0xbdaf5260	-0.08560634
16	0x3e9ee521	0.31034186
17	0xbeef5514	-0.46744597
18	0xbe3891ef	-0.18024419
19	0x3dbde472	0.09272088
20	0x3e7b24e6	0.24525794
21	0xbe7d2644	-0.24721628
22	0x3e48e032	0.19616774
23	0xbe9be847	-0.3045065
24	0xbe20f2b3	-0.15717582
25	0x3ed728ed	0.4202341
26	0x3ed0d346	0.4078619
27	0x3ec3b77a	0.3822592
28	0x3e8f5214	0.27992308
29	0xbc43da82	-0.011953952
30	0x3e651dcd	0.2237465
31	0x3ebc5ab0	0.3678794
32	0x3c726897	0.014795444
33	0x3ddbf607	0.10740285
34	0x3e591bb4	0.21201974

feats.ImplicitValence.weight f4 [35, 6]
0	0xbc5f260b	-0.01361991
1	0xbe27b8d2	-0.16379097
2	0x3e1a953b	0.1509599
3	0xbef7e73d	-0.48418608
4	0x3d648c40	0.055797815
5	0xbe4d211b	-0.2003216
6	0x3e873978	0.26411033
7	0x3ecbf8cd	0.39838257
8	0x3ea472de	0.32118887
9	0x3f2f37e7	0.68444675
10	0xbe904330	-0.2817626
11	0x3d861268	0.065464795
12	0xbf0a3ab5	-0.5399583
13	0x3ece7db4	0.4033028
14	0x3e776b3f	0.24162005
15	0x3f322d0c	0.69599986
16	0x3ea38888	0.31940103
17	0x3ec0d0b0	0.37659216
18	0x3e4fdf20	0.20299959
19	0x3e6ffdcb	0.23436658
20	0xbe444283	-0.19165997
21	0xbf4ad0d5	-0.792249
22	0x3ea41296	0.3204543
23	0xbe71b1b1	-0.2360294
24	0xbdfe438e	-0.12415229
25	0xbf3e67c1	-0.74377066
26	0x3d8ffcd0	0.07030642
27	0x3f117958	0.5682578
28	0x3e8d9b44	0.2765752
29	0x3e9a1b14	0.30098784
30	0xbe235c80	-0.15953255
31	0x3e940935	0.28913274
32	0xbed6a725	-0.41924396
33	0xbd33193c	-0.043725237
34	0x3c6c4400	0.014420509
35	0x3dcaf530	0.09910047
36	0xbed1e3a8	-0.40994
37	0xbec14ea8	-0.37755322
38	0xbc0cdc50	-0.0085974485
39	0xbe8d4cfd	-0.275978
40	0x3e187b08	0.14890683
41	0xbeac4298	-0.33644557
42	0x3f13ffdd	0.5781229
43	0xbdd05f05	-0.101743735
44	0xbf011ee1	-0.5043774
45	0x3d3647b1	0.044501964
46	0xbe9dd5ad	-0.30827084
47	0xbeb18895	-0.34674516
48	0x3e568c11	0.20951869
49	0x3dc651bb	0.096835576
50	0x3de71380	0.11283016
51	0xbedd0904	-0.4317094
52	0xbe44aaf4	-0.19205838
53	0x3ec9f640	0.39445686
54	0xbe2f8ee0	-0.17144346
55	0x3d67f917	0.056634035
56	0xbe25b45e	-0.16182086
57	0x3efdf4ac	0.49600732
58	0x3ea5e490	0.32400942
59	0x3e57f22c	0.21088475
60	0xbeb64161	-0.35596755
61	0xbea13e21	-0.31492713
62	0xbd73ecd1	-0.059552018
63	0x3f0493a3	0.51787776
64	0xbe8d6098	-0.27612758
65	0x3e9ea4e2	0.3098517
66	0xbe330cbf	-0.17485331
67	0x3e191e8a	0.14953056
68	0xbf079785	-0.52965575
69	0x3f10b9a0	0.5653324
70	0x3cf58cc0	0.029974341
71	0x3deb08f0	0.11476314
72	0x3e9fb837	0.31195232
73	0xbebfd5b8	-0.37467742
74	0xbe8b661e	-0.27226347
75	0xbf1d98e5	-0.61561424
76	0x3ec3571a	0.3815239
77	0xbd7e6bc8	-0.062114507
78	0xbe534816	-0.20632967
79	0xbe390fc5	-0.18072422
80	0x3f1136db	0.5672433
81	0x3f4e8fe3	0.80688304
82	0xbe293df3	-0.16527538
83	0x3e9e8982	0.30964285
84	0xbf087220	-0.5329914
85	0x3f05b1c5	0.5222438
86	0x3dd6765e	0.104717955
87	0x3f3493f9	0.7053829
88	0xbecb8ed8	-0.3975742
89	0xbeaa17cc	-0.3322128
90	0xbe9d7cc7	-0.3075926
91	0xbd8e1361	-0.0693729
92	0xbd709d9a	-0.05874405
93	0xbe2ef97e	-0.17087361
94	0x3ea82370	0.32839537
95	0xbe91c299	-0.2846878
96	0x3c9a1489	0.01880862
97	0x3e67aa5d	0.22623582
98	0xbf06fd47	-0.5273022
99	0x3c989f7f	0.018630741
100	0xbe131254	-0.1436246
101	0x3ea31b12	0.3185659
102	0x3e454b51	0.19267012
103	0xbdbda036	-0.092590734
104	0x3dc65536	0.096842214
105	0x3ea9736c	0.33095872
106	0x3e9cdc70	0.3063693
107	0x3e5e9bf0	0.21739173
108	0xbe94ea8b	-0.29085192
109	0xbec316f8	-0.3810346
110	0x3ea7a26c	0.32741106
111	0x3f1d88bf	0.6153678
112	0xbe5e94af	-0.21736406
113	0x3dc415d0	0.09574473
114	0xbd3c4726	-0.04596629
115	0xbe2f017e	-0.17090413
116	0xbeb64724	-0.3560115
117	0x3f221bff	0.6332397
118	0x3e8ed29e	0.27895063
119	0xbd8c7c94	-0.06859699
120	0x3e11f9a5	0.14255388
121	0x3e451a4b	0.19248311
122	0x3ebcf8f2	0.3690868
123	0x3c2ee7fa	0.010675425
124	0x3e03c498	0.12867963
125	0xbdefe4d0	-0.117135644
126	0xbeb53356	-0.3539073
127	0x3e9253a2	0.28579432
128	0xbf02416a	-0.50881064
129	0xbf53570b	-0.8255469
130	0x3eb76222	0.35817057
131	0x3e84aa88	0.25911355
132	0x3e8974da	0.26846963
133	0xbe233af4	-0.15940458
134	0x3eb19dc2	0.34690672
135	0x3ed99121	0.42493537
136	0x3e46547c	0.19368166
137	0xbea8ed8d	-0.32993737
138	0xbe13ba86	-0.14426622
139	0x3e0d1e60	0.13781118
140	0xbd9cd4d0	-0.07657778
141	0x3eb3b18e	0.350964
142	0xbea32017	-0.3186042
143	0xbe76316d	-0.24042292
144	0xbcd6f113	-0.026238
145	0x3e71a331	0.23597409
146	0xbe33c7af	-0.17556642
147	0xbf45853c	-0.77156425
148	0xbdb2c33c	-0.08728644
149	0x3df944b8	0.1217131
150	0xbe20ab7e	-0.15690419
151	0xbe66fa45	-0.22556408
152	0x3ec245cf	0.37943885
153	0xbce6cd3a	-0.028174032
154	0x3b023a80	0.0019871294
155	0x3df6bfb0	0.1204828
156	0xbec031fb	-0.37538132
157	0x3d6bf7be	0.057609312
158	0x3f023645	0.5086406
159	0x3e8ef7bb	0.27923378
160	0xbeb038b4	-0.3441826
161	0xbdfe4428	-0.124153435
162	0xbee87d0f	-0.45407912
163	0xbc2115e5	-0.00983188
164	0x3eb47841	0.35247996
165	0x3e738d10	0.2378428
166	0x3d2cd2b0	0.042193115
167	0xbd117098	-0.03550777
168	0x3cdba384	0.026811369
169	0x3f246060	0.64209557
170	0x3ddc213a	0.10748525
171	0xbd94b8f6	-0.07261841
172	0x3e2e39f0	0.17014289
173	0x3e65306c	0.22381753
174	0xbe4c2e61	-0.19939567
175	0x3e8bcd6b	0.2730516
176	0x3e94d066	0.29065245
177	0xbda20f1c	-0.07913038
178	0x3e971aa2	0.29512507
179	0xbe02b2f2	-0.12763575
180	0xbe0f1add	-0.13975091
181	0xbd3f5c65	-0.046718974
182	0xbec5f519	-0.38663557
183	0xbeb20850	-0.34771967
184	0x3e2539e8	0.1613537
185	0x3e032518	0.12807119
186	0xbed1f113	-0.41004238
187	0x3dd4a9db	0.1038396
188	0xbe9adf3b	-0.30248436
189	0xbf2de78d	-0.67931443
190	0x3ea62270	0.3244815
191	0x3eaf93b8	0.34292388
192	0xbe09374e	-0.13400003
193	0xbd199bb2	-0.037502
194	0x3e2f7854	0.17135745
195	0x3f25416a	0.6455294
196	0xbeb15a67	-0.34639284
197	0x3e55fee0	0.20898008
198	0x3ed30329	0.41213349
199	0x3e86e273	0.26344642
200	0xbe63832a	-0.22218004
201	0x3ce3dca6	0.027815174
202	0xbe91d380	-0.28481674
203	0x3ea03796	0.3129241
204	0x3dacadcd	0.08431587
205	0x3e034c4b	0.12822072
206	0xbeff78d6	-0.49896878
207	0xbeae466b	-0.340381
208	0xbebc48fc	-0.36774433
209	0x3e8e391a	0.2777794

feats.ImplicitValence.bias f4 [35]
0	0xbe56b200	-0.20966339
1	0x3e3495b5	0.17635234
2	0x3ecd9f61	0.4016066
3	0xbdb8aca6	-0.09017305
4	0xbd460cf0	-0.048352182
5	0x3ea4697d	0.3211173
6	0xbe97c8bc	-0.29645336
7	0xbeb7b722	-0.35881907
8	0xbe98e31a	-0.29860765
9	0x3e8d5e1b	0.2761086
10	0xbdedc52d	-0.11609874
11	0xbe06741a	-0.13130227
12	0xbe976f81	-0.29577258
13	0xbead4787	-0.33843634
14	0xbec12c17	-0.3772895
15	0x3f0b3d0e	0.5439004
16	0xbd925664	-0.07145384
17	0xbe385119	-0.17999686
18	0xbeb02623	-0.34404096
19	0xbd3096fe	-0.043112747
20	0xbd1a995b	-0.037743907
21	0xbe43e4d4	-0.1913026
22	0xbe9a9180	-0.30189133
23	0xbdc2bbb8	-0.09508461
24	0xbd1d47e1	-0.038398627
25	0x3e217e90	0.15770936
26	0xbe2edb34	-0.17075807
27	0xbe2f7770	-0.17135406
28	0x3d25d230	0.040483654
29	0xbe83bda1	-0.25730613
30	0x3e6c32fd	0.23066325
31	0x3db652b6	0.089024946
32	0x3d99a02a	0.07501252
33	0xbe990225	-0.2988445
34	0x3e7ec1b4	0.2487858

feats.Hybridization.weight f4 [35, 5]
0	0x3d8fe0f8	0.07025331
1	0xbe4a5651	-0.1975949
2	0x3e48adab	0.19597499
3	0x3c0ed640	0.008718073
4	0xbea4113a	-0.32044393
5	0xbd961ef0	-0.073301196
6	0x3e773bf8	0.2414397
7	0xbe4d02a4	-0.20020539
8	0xbe1a19c6	-0.15048894
9	0xbeca266d	-0.39482442
10	0x3efaa5e6	0.48954695
11	0xbd72abcd	-0.059245873
12	0x3eb19717	0.34685585
13	0xbe201362	-0.15632394
14	0x3ed3462e	0.4126448
15	0x3d792074	0.060821965
16	0xbd1eb33e	-0.038745157
17	0x3ec5a647	0.38603422
18	0x3e38e978	0.18057811
19	0x3da805c0	0.08204222
20	0x3ed9225b	0.42409024
21	0x3e7780ea	0.2417027
22	0xbeb02cbf	-0.3440914
23	0x3e5e881c	0.21731609
24	0x3e06f7d0	0.1318047
25	0x3dd0b694	0.10191074
26	0xbdf6ac69	-0.120446034
27	0x3e9cb6dc	0.3060826
28	0x3c559620	0.013036281
29	0x3ebc100a	0.36730987
30	0xbd8305bb	-0.063975774
31	0x3ea2161f	0.31657502
32	0x3c015794	0.007894415
33	0xbe910fbc	-0.28332317
34	0x3e5744e0	0.21022367
35	0xbed10291	-0.4082227
36	0xbca8caec	-0.020604573
37	0xbe00fecd	-0.12597199
38	0xbe9022a3	-0.28151426
39	0xbeb53d34	-0.35398257
40	0xbe4ed5c2	-0.2019873
41	0xbec85da5	-0.39133945
42	0xbec61aec	-0.38692415
43	0xbed475fa	-0.4149626
44	0xbc5fe960	-0.013666481
45	0x3f39b952	0.725484
46	0xbe8a6387	-0.27029058
47	0x3ea196a1	0.31560233
48	0x3c96f430	0.018426985
49	0x3dbd9e48	0.092587054
50	0x3e9f823c	0.31154048
51	0xbe0231d5	-0.12714322
52	0x3e3cc02c	0.18432683
53	0x3d110d38	0.035412997
54	0x3e39a0c4	0.18127733
55	0x3ebecf50	0.37267542
56	0xbccefe41	-0.025267722
57	0x3e3e5cd4	0.18590099
58	0x3e1a7988	0.15085423
59	0x3e247554	0.16060382
60	0x3d9d08ee	0.07667719
61	0xbeb46059	-0.35229757
62	0xbdf20cd2	-0.118188515
63	0xbbffe280	-0.0078089833
64	0xbe218ee0	-0.15777159
65	0x3f90391d	1.126743
66	0x3e01b4c5	0.12666614
67	0xbebd6cd4	-0.36997092
68	0x3d122538	0.035680026
69	0xbe9685fc	-0.29399097
70	0x3f05646f	0.52106375
71	0x3ee9c55f	0.45658395
72	0x3eab9a86	0.3351633
73	0x3ece71fa	0.40321332
74	0xbe652135	-0.22375949
75	0xbf0d625a	-0.552282
76	0xbe9fd6e3	-0.31218633
77	0x3e128af3	0.14310817
78	0xbe063cfc	-0.13109201
79	0xbe4ff2b6	-0.2030743
80	0x3d676b76	0.056498967
81	0xbee923db	-0.45535168
82	0x3be80342	0.0070804665
83	0x3e1a709c	0.1508202
84	0x3e1e80a0	0.15478754
85	0x3f1428f8	0.57875013
86	0xbe2bc468	-0.16774142
87	0x3e40fd08	0.18846524
88	0xbe80609e	-0.25073713
89	0x3d97f8d0	0.07420504
90	0x3eee973e	0.46599764
91	0x3e7774df	0.24165677
92	0x3e70ca9a	0.23514786
93	0x3cd973b0	0.026544422
94	0xbed145dc	-0.4087361
95	0xbdabcb24	-0.083883554
96	0x3e8f3f9c	0.27978218
97	0xbdf6393b	-0.120226346
98	0x3e4a3e80	0.19750404
99	0x3d033810	0.032035887
100	0xbefc3494	-0.49258864
101	0xbbcc0f58	-0.006227415
102	0xbe24470e	-0.1604273
103	0x3e84a99c	0.25910652
104	0xbeb766b4	-0.35820544
105	0x3d56c4e4	0.052433863
106	0xbe6b2793	-0.22964315
107	0x3e7c9019	0.24664344
108	0x3e87151a	0.26383287
109	0x3eb6fd16	0.35739964
110	0x3eb6ceab	0.3570455
111	0xbe21d5a0	-0.15804148
112	0x3e78c1d2	0.24292687
113	0xbd9324a4	-0.07184723
114	0x3ec6ae30	0.3880477
115	0xbee16e80	-0.44029617
116	0x3d957a4b	0.07298716
117	0x3d085433	0.033283424
118	0x3ea8c210	0.32960558
119	0x3edf11ae	0.43568176
120	0xbf2747af	-0.65343755
121	0xbdce9d9b	-0.100886546
122	0x3d156284	0.036470905
123	0xbe9749b0	-0.29548407
124	0x3ed33ae8	0.4125588
125	0x3dfc9232	0.12332572
126	0xbeac5c32	-0.3366409
127	0xbe4e4392	-0.20142964
128	0x3e4abbf8	0.19798267
129	0xbe0c9450	-0.13728452
130	0xbd28c350	-0.04120189
131	0x3ccbe78b	0.024890682
132	0x3ef2a6f1	0.4739299
133	0x3dfd4318	0.12366313
134	0xbcbfd5a0	-0.023417294
135	0x3f05e605	0.52304107
136	0xbe482c00	-0.19548035
137	0x3ea11a4c	0.31465375
138	0x3e968e9a	0.2940567
139	0x3e7582a4	0.23975617
140	0xbe8a1a80	-0.26973343
141	0xbe4d5e68	-0.20055544
142	0x3eb16265	0.34645382
143	0xbeadf97e	-0.3397941
144	0xbe8634b9	-0.262121
145	0x3eb1cf2c	0.34728372
146	0xbc28f321	-0.010311873
147	0x3e843cc9	0.25827625
148	0x3ebfd8aa	0.3746999
149	0xbd7ac5b0	-0.061223686
150	0x3f135479	0.5755077
151	0xbe94ac02	-0.29037482
152	0x3e7982ce	0.24366304
153	0x3b2b3900	0.0026126504
154	0x3cc303d0	0.023805529
155	0x3e27dd13	0.16392927
156	0xbe23f14b	-0.16010015
157	0xbe07fbb7	-0.13279615
158	0xbe2e1d1c	-0.17003292
159	0x3eccba0c	0.39985693
160	0xbddab4e4	-0.106790334
161	0xbd5f9906	-0.054589294
162	0x3da72280	0.08160877
163	0x3e9e9f24	0.3098079
164	0x3e16b450	0.14717221
165	0x3d67da6a	0.05660478
166	0x3eb703bc	0.35745037
167	0x3e820b4d	0.25399247
168	0x3e5add14	0.21373397
169	0x3eb644ae	0.35599273
170	0x3d568425	0.052372117
171	0x3e706186	0.23474702
172	0xbca4b33f	-0.020105002
173	0x3e8d7dea	0.27635127
174	0xbe124744	-0.14284998

feats.Hybridization.bias f4 [35]
0	0xbe4db32f	-0.20087884
1	0xbeaf1cc0	-0.34201622
2	0x3d80969a	0.06278725
3	0xbf016b3f	-0.5055427
4	0xbe349cd9	-0.17637958
5	0x3e2f0a02	0.17093661
6	0xbca66414	-0.020311393
7	0xbd2c4524	-0.042058125
8	0xbe4c78ca	-0.19967952
9	0x3d9c7d6c	0.0764111
10	0x3eab3832	0.3344131
11	0x3e755595	0.23958428
12	0x3db51211	0.088413365
13	0x3e8dd18d	0.27698937
14	0x3e17604b	0.14782827
15	0xbe4ef931	-0.20212246
16	0x3e384267	0.1799408
17	0xbdfa44d1	-0.12220157
18	0x3da8bfd6	0.08239715
19	0xbc87ad04	-0.016561992
20	0xbee29ef2	-0.4426189
21	0xbde9dc24	-0.114189416
22	0x3d020920	0.031746984
23	0xbe9692ff	-0.29409024
24	0x3bfbe40a	0.0076870965
25	0xbd07b967	-0.033135798
26	0xbe22c939	-0.15897073
27	0x3ed6c7b0	0.41949224
28	0x3ca0a3b6	0.019609313
29	0xbd93ec6b	-0.072228275
30	0x3ecef47a	0.40420896
31	0xbe86a19c	-0.26295173
32	0x3f036b5c	0.5133569
33	0xbe6de0db	-0.23230307
34	0x3e872693	0.26396617

feats.FormalCharge.weight f4 [35, 1]
0	0xbebf436e	-0.37356132
1	0xbdfcbd6e	-0.12340818
2	0x3ffadf20	1.9599342
3	0x3e8dd77d	0.27703467
4	0x3f1c952d	0.61165124
5	0x40170fa8	2.3603306
6	0xbfe081cf	-1.7539614
7	0xc01f4bf9	-2.489012
8	0x3f2376c3	0.6385309
9	0x3e5270e9	0.20550884
10	0xbf333ea7	-0.70017475
11	0xbf785f6b	-0.97020596
12	0x3f37a5d9	0.7173744
13	0xc020e7fc	-2.5141592
14	0x3f23f416	0.6404432
15	0x3fb83663	1.4391598
16	0xbf0bd762	-0.54625523
17	0xbfa23531	-1.2672483
18	0x3f8f77c1	1.1208421
19	0x3e5e9d1a	0.21739617
20	0x3f137161	0.5759488
21	0xbf920fab	-1.1411031
22	0xbf184886	-0.5948566
23	0xbf828a5c	-1.0198474
24	0x3e754936	0.23953709
25	0x3f9b4894	1.2131524
26	0x3e806f4d	0.25084916
27	0x3f69b409	0.91290337
28	0x3fcafca0	1.5858345
29	0x3fe1a53d	1.7628552
30	0xbf8748e4	-1.056912
31	0xbedb5dfd	-0.42845145
32	0xbee4cb7b	-0.44686493
33	0x3f43b96e	0.7645482
34	0x3ef6be7b	0.481922

feats.FormalCharge.bias f4 [35]
0	0x3f6057b5	0.8763383
1	0x3f4baa28	0.7955651
2	0xbe0d4c1b	-0.13798563
3	0xbf26eab1	-0.6520186
4	0xbe16585e	-0.14682147
5	0x3e0b62b4	0.13611871
6	0x3e3a6ae0	0.18204832
7	0xbf5a9b64	-0.8539336
8	0xbd475019	-0.04866037
9	0xbf5b9d10	-0.85786533
10	0x3f00c64f	0.50302595
11	0x3f0bc212	0.54593
12	0x3eaa1e6a	0.3322633
13	0xbda92456	-0.08258884
14	0x3cea331f	0.02858883
15	0xbf55cb73	-0.83513564
16	0xbed8a9a9	-0.4231694
17	0xbf24d3cd	-0.6438568
18	0xbf4eb50b	-0.80745
19	0x3dd82058	0.10553044
20	0x3f205fed	0.6264637
21	0xbeb10198	-0.34571528
22	0xbf6632ca	-0.8992125
23	0x3dadadcc	0.08480415
24	0xbe9e9e29	-0.30980042
25	0xbf1692d7	-0.5881781
26	0xbeb01ca4	-0.3439685
27	0xbf1d5ef6	-0.61473024
28	0xbdf312ea	-0.11868842
29	0xbf4811fb	-0.78152436
30	0xbe796027	-0.24353085
31	0x3efd8031	0.49511865
32	0x3dfb4f2a	0.12270959
33	0x3e4b9c46	0.19883832
34	0xbeee51ca	-0.46546775

feats.IsInRing.weight f4 [35, 1]
0	0x3f3172d1	0.6931582
1	0x3f81b3f5	1.0133044
2	0xbf2498a9	-0.6429544
3	0x3e1966cd	0.14980622
4	0x3f66c23f	0.90140146
5	0xbf49128e	-0.7854394
6	0xbe84c0a9	-0.25928238
7	0x3f6d5dc0	0.92721176
8	0x3f11f72e	0.5701779
9	0xbf70308c	-0.93824077
10	0x3efae69b	0.49004063
11	0xbdde4953	-0.10853829
12	0x3f3b61f2	0.7319633
13	0x3ee0a391	0.4387479
14	0xbf6886bc	-0.9083059
15	0xbea56db6	-0.32310265
16	0x3ef039cf	0.46919104
17	0x3ea30345	0.31838432
18	0x3f931a36	1.1492374
19	0x3c21ddee	0.009879572
20	0x3ecd6e82	0.40123373
21	0x3f0aa508	0.5415807
22	0x3f1141e8	0.5674119
23	0x3ef3cccc	0.47617185
24	0x3f048ac4	0.5177424
25	0x3e9f2897	0.31085655
26	0xbe83f847	-0.25775358
27	0xbe78b270	-0.24286819
28	0x3f45891b	0.7716233
29	0x3fa41674	1.2819352
30	0xbf675a01	-0.9037171
31	0xbf87bf96	-1.0605342
32	0x3e284661	0.16433097
33	0xbd2283ea	-0.039676584
34	0x3edbe68f	0.4294934

feats.IsInRing.bias f4 [35]
0	0xbe8dc547	-0.27689573
1	0xbf466dca	-0.77511275
2	0xbf585909	-0.84510857
3	0x3f023dae	0.50875366
4	0x3ea33fa8	0.31884503
5	0xbe293a09	-0.16526045
6	0xbf7c7700	-0.9861908
7	0x3f6755f6	0.9036554
8	0x3d9c2dd3	0.07625928
9	0xbf061531	-0.52376086
10	0x3e349240	0.17633915
11	0x3e861484	0.26187527
12	0x3f6abc80	0.9169388
13	0x3f30a4f8	0.6900172
14	0xbf170b5e	-0.5900172
15	0xbf2d38e9	-0.67664963
16	0x3e994a7f	0.29939649
17	0xbe56e4f9	-0.20985784
18	0x3e6fb10d	0.23407383
19	0x3f672c96	0.9030241
20	0x3eda051d	0.42582026
21	0x3f14c42d	0.5811184
22	0x3f6c8b34	0.9239991
23	0xbed8ba7f	-0.42329785
24	0x3f1fcdd0	0.6242342
25	0x3e4946a8	0.1965586
26	0xbed8be54	-0.4233271
27	0x3f2312ac	0.63700366
28	0xbded964a	-0.11600931
29	0xbda75231	-0.08169974
30	0xbecdd809	-0.40203884
31	0xbf79f610	-0.97641087
32	0xbea0f63d	-0.31437865
33	0xbf33e631	-0.7027312
34	0x3f5ab179	0.8542705

feats.IsAromatic.weight f4 [35, 1]
0	0xbf087ca1	-0.5331517
1	0xbf6ddfd5	-0.92919666
2	0x3f4c0b12	0.7970439
3	0x3f2e1054	0.67993665
4	0x3eaadc2c	0.33371103
5	0xbf43d225	-0.7649253
6	0x3ed089f5	0.40730253
7	0xbe9b1cad	-0.30295315
8	0x3eceb4b2	0.40372235
9	0x3f39eae1	0.7262402
10	0x3e9d3868	0.30707097
11	0xbf01cb3c	-0.50700736
12	0x3f5f73a1	0.8728581
13	0x3e88bf7a	0.26708585
14	0x3d6d5a24	0.057947293
15	0x3ec415af	0.38297793
16	0x3f39d44e	0.72589576
17	0xbdacc28c	-0.08435544
18	0x3ecaf59b	0.39640507
19	0xbf3ea6bd	-0.7447317
20	0xbf1d1dda	-0.61373675
21	0x3eb2e1a4	0.34937775
22	0xbf432697	-0.7623076
23	0x3cbae0ad	0.022812212
24	0x3f0286a3	0.5098669
25	0xbbe47297	-0.006971668
26	0x3e12a7f8	0.14321887
27	0x3ecebec0	0.40379906
28	0xbf5dbb76	-0.8661417
29	0x3ee7ae4f	0.45250174
30	0xbee211f2	-0.44154316
31	0x3f414385	0.7549365
32	0x3f382f4b	0.71947163
33	0xbeacb671	-0.33732942
34	0x3ec2e5a0	0.38065815

feats.IsAromatic.bias f4 [35]
0	0x3f427c73	0.75971144
1	0x3e12f62a	0.14351717
2	0xbea35e03	-0.31907663
3	0x3f2f4744	0.6846812
4	0xbf59bcf2	-0.8505393
5	0xbf06a322	-0.5259267
6	0x3f10b390	0.5652399
7	0x3e2c54c6	0.16829214
8	0x3f5be499	0.8589569
9	0x3ecc56ac	0.39909875
10	0xbe668b56	-0.2251409
11	0x3f34979c	0.7054384
12	0xbeb72c26	-0.3577587
13	0xbdc91a38	-0.09819454
14	0xbd9f68b9	-0.07783646
15	0x3e3ce2fc	0.18445963
16	0x3f107742	0.56431973
17	0x3f63072c	0.8868282
18	0xbf334a24	-0.70035005
19	0x3f04ae95	0.5182889
20	0xbe453c92	-0.19261387
21	0x3e6ae13f	0.22937487
22	0xbf778275	-0.96683437
23	0xbea639d5	-0.32465997
24	0xbe1e5541	-0.1546221
25	0x3f7e4ce1	0.9933606
26	0xbf4c75a8	-0.7986703
27	0xbe70a838	-0.2350167
28	0xbf448ec5	-0.7678035
29	0x3ebb1e25	0.36546436
30	0x3f1a6754	0.60313916
31	0x3f4fb039	0.8112827
32	0xbda4e3ec	-0.08051285
33	0xbe2c9867	-0.16855012
34	0xbe3a71eb	-0.18207519

feats.NumRadicalElectrons.weight f4 [35, 1]
0	0xbf3e4fb8	-0.7434039
1	0xbedf7fe4	-0.4365226
2	0x3e56bce8	0.209705
3	0x3ed461f0	0.4148097
4	0x3f19956e	0.59993637
5	0xbe9eb40c	-0.3099674
6	0x3e00b7f0	0.12570167
7	0x3e86f134	0.26355898
8	0x3ecd9474	0.40152323
9	0xbf074b36	-0.5284914
10	0xbdfb0aa0	-0.12257886
11	0x3f02f9b0	0.5116224
12	0xbf06fbce	-0.52727973
13	0xbec1b280	-0.37831497
14	0xbeb1cb14	-0.3472525
15	0xbeb46bcc	-0.35238492
16	0x3f3790dc	0.7170541
17	0xbe7d3c60	-0.24730062
18	0x3f73f60c	0.9529731
19	0x3f01f004	0.5075686
20	0xbf69a5fa	-0.91268885
21	0xbef4459c	-0.47709358
22	0xbf3fa09c	-0.74854445
23	0x3ee40ddc	0.44541824
24	0x3eff0f34	0.49816287
25	0x3e7f9708	0.24959958
26	0xbf790682	-0.97275555
27	0x3df1b570	0.118021846
28	0xbf2a1ac6	-0.66447103
29	0x3f19c534	0.60066533
30	0xbf465f10	-0.77488804
31	0x3f7ba032	0.98291314
32	0x3e556898	0.2084068
33	0xbf79ad6e	-0.9753026
34	0x3f3cebf4	0.73797536

feats.NumRadicalElectrons.bias f4 [35]
0	0x3f3e0137	0.74220604
1	0x3e0a8e6c	0.13530892
2	0xbee7e5e5	-0.45292583
3	0xbecb53c4	-0.39712346
4	0xbe986608	-0.29765344
5	0x3f81765f	1.0114249
6	0x3f220674	0.63291097
7	0xbe979ad7	-0.2961032
8	0x3dd4d395	0.103919186
9	0xbf429eaa	-0.7602335
10	0x3f06c2de	0.52641094
11	0xbf7c433c	-0.9854009
12	0xbf197c18	-0.5995498
13	0xbeac13d8	-0.3360889
14	0x3f1bdfb8	0.6088824
15	0xbf0efe73	-0.5585701
16	0xbdd30861	-0.103043325
17	0x3e2872a7	0.16449986
18	0x3edfd100	0.43714142
19	0x3f335658	0.70053625
20	0x3eadcce9	0.33945397
21	0x3e975bdc	0.2956227
22	0x3f6eed64	0.9333098
23	0x3e0a35d9	0.13497104
24	0x3eb6faaf	0.3573813
25	0xbee2eda9	-0.44321945
26	0x3eb053ec	0.34439027
27	0xbed394da	-0.41324502
28	0x3da9bc00	0.08287811
29	0xbf1d57e9	-0.61462265
30	0xbf1c2181	-0.6098862
31	0x3f33d572	0.70247567
32	0xbf4e632f	-0.8062009
33	0xbea5f07d	-0.3241004
34	0x3df8febd	0.121579625
