attention_pooling3.pth (torch, 37539 bytes, 23 tensors)

gates.AtomicNum.nn.0.weight f4 [1, 12]
0.2331019 0.062482625 -0.1837814 -0.018808633 0.26509959 -0.06455523 -0.3725915 -0.78611577
1.0252175 0.47109053 -0.22862487 -0.285078
00000000: 44b2 6e3e c8ed 7f3d 3131 3cbe 9014 9abc
00000010: 22bb 873e 8835 84bd 50c4 bebe e23e 49bf
00000020: 543a 833f c732 f13e a31c 6abe bef5 91be

gates.Degree.nn.0.weight f4 [1, 6]
1.4035532 -1.0422317 -0.73487234 -0.74422044 -0.87577015 -0.09101224
00000000: a2a7 b33f d967 85bf 9820 3cbf 3b85 3ebf
00000010: 7932 60bf a064 babd

gates.TotalNumHs.nn.0.weight f4 [1, 5]
-0.3355172 0.01582247 -0.344104 -0.17956302 0.35423362
00000000: e9c8 abbe 209e 813c 662e b0be 5edf 37be
00000010: 1c5e b53e

gates.ImplicitValence.nn.0.weight f4 [1, 6]
0.23201448 0.29963064 -0.15837207 0.34090298 0.20381975 0.36967695
00000000: 3495 6d3e 3069 993e 4a2c 22be d68a ae3e
00000010: 20b6 503e 4c46 bd3e

gates.Hybridization.nn.0.weight f4 [1, 5]
-0.114160895 0.3278733 0.05212614 0.29409844 -0.32484633
00000000: 30cd e9bd 02df a73e 3882 553d 1294 963e
00000010: 4252 a6be

feats.AtomicNum.weight f4 [3, 12]
0.28175688 -0.016352028 -0.19522877 -0.13267337 0.2670405 -0.1902605 -1.2286018 1.7137283
1.9884498 -2.1413608 0.07237223 -0.028806835 -0.2291713 -0.049941167 0.15699646 -0.2283718
0.26927423 0.19816053 0.04269206 -0.6244187 -3.0891106 -5.9914412 -0.28365782 -0.21004921
0.24509418 0.23419935 -0.09182146 -0.017760366 -0.09025158 -0.113033 -0.380407 0.61290854
4.505141 5.259795 0.19925386 0.21892118
00000000: 7042 903e b0f4 85bc 0dea 47be 87db 07be
00000010: 88b9 883e a6d3 42be d342 9dbf 735b db3f
00000020: 8685 fe3f 0e0c 09c0 e437 943d 50fc ebbc
00000030: e2ab 6abe 1c8f 4cbd aec3 203e 4cda 69be
00000040: 50de 893e 98ea 4a3e dfdd 2e3d e7d9 1fbf
00000050: fdb3 45c0 e3b9 bfc0 993b 91be 2417 57be
00000060: f8f9 7a3e f4d1 6f3e e40c bcbd 307e 91bc
00000070: d2d5 b8bd d87d e7bd b5c4 c2be 93e7 1c3f
00000080: 1d2a 9040 3e50 a840 3409 4c3e e02c 603e

feats.AtomicNum.bias f4 [3]
-0.6379109 -0.13393971 -0.19282076
00000000: 214e 23bf 7e27 09be ce72 45be

feats.Degree.weight f4 [3, 6]
-0.3973948 -0.3668053 0.31829613 0.6539695 0.8723135 0.12592238 0.7679906 -0.34693062
1.9180961 0.3491701 -0.5365058 -0.31515136 -1.2721533 0.2379078 -0.11690117 0.29909158
-0.25438502 0.019630522
00000000: 5577 cbbe e7cd bbbe b6f7 a23e 8c6a 273f
00000010: f04f 5f3f ccf1 003e 089b 443f e4a0 b1be
00000020: 2c84 f53f 6cc6 b23e 7258 09bf 855b a1be
00000030: ebd5 a2bf 1a9e 733e e169 efbd 8822 993e
00000040: c13e 82be 30d0 a03c

feats.Degree.bias f4 [3]
0.37817392 0.7810523 -0.25005376
00000000: 03a0 c13e 0bf3 473f 0c07 80be

feats.TotalNumHs.weight f4 [3, 5]
1.297389 -0.24388726 -0.085764095 -2.3199162 -0.20981988 0.32220963 -0.9525413 -0.8123149
0.11237052 -0.32413593 0.5681333 0.38008738 0.27632758 -1.3746625 -0.1452905
00000000: d810 a63f 95bd 79be 16a5 afbd 8279 14c0
00000010: 06db 56be a9f8 a43e bfd9 73bf dff3 4fbf
00000020: 8422 e63d 25f5 a5be 2f71 113f d09a c23e
00000030: cf7a 8d3e f1f4 afbf 08c7 14be

feats.TotalNumHs.bias f4 [3]
0.1961877 0.20785211 -0.18197486
00000000: 6ee5 483e 2fd7 543e 9e57 3abe

feats.ImplicitValence.weight f4 [3, 6]
0.79459333 -0.045946322 -0.32199335 -2.0247087 -0.31340334 -0.07949978 -0.064380445 -0.26853126
-1.3851469 0.28028712 0.15977216 0.26074827 0.3983671 0.19254267 0.59857 -1.5754794
0.20369542 0.004891753
00000000: 786a 4b3f 3632 3cbd 50dc a4be d494 01c0
00000010: 6776 a0be c8d0 a2bd e5d9 83bd ee7c 89be
00000020: 7e4c b1bf cb81 8f3e 509b 233e cc80 853e
00000030: c6f6 cb3e e829 453e e23b 193f 4fa9 c9bf
00000040: 8895 503e 004b a03b

feats.ImplicitValence.bias f4 [3]
-0.59236693 0.028473387 0.14164767
00000000: 5ca5 17bf 0541 e93c 160c 113e

feats.Hybridization.weight f4 [3, 5]
-3.1130865 -0.59357303 0.47150415 -0.13140163 0.30835724 -2.468233 -0.33228093 -0.07131859
-0.33318228 -0.026228666 -1.5754185 1.2305993 -0.37235168 0.050998867 -0.26302496
00000000: cf3c 47c0 67f4 17bf fe68 f13e 268e 06be
00000010: 00e1 9d3e 88f7 1dc0 ba20 aabe 7b0f 92bd
00000020: de96 aabe 80dd d6bc 50a7 c9bf 4784 9d3f
00000030: e1a4 bebe 30e4 503d 35ab 86be

feats.Hybridization.bias f4 [3]
-0.06720458 -0.23567294 0.14093554
00000000: 8ea2 89bd 3f54 71be 6851 103e

feats.FormalCharge.weight f4 [3, 1]
1.8114125 -0.4110792 0.86323494
00000000: 5ddc e73f f978 d2be f7fc 5c3f

feats.FormalCharge.bias f4 [3]
0.6681256 -0.50759465 0.1405528
00000000: 480a 2b3f b9f1 01bf 13ed 0f3e

feats.IsInRing.weight f4 [3, 1]
-0.33927536 0.28208843 -1.5385284
00000000: 80b5 adbe e56d 903e 80ee c4bf

feats.IsInRing.bias f4 [3]
-0.66294134 -0.7873289 0.04342576
00000000: 86b6 29bf 638e 49bf 36df 313d

feats.IsAromatic.weight f4 [3, 1]
-0.6779282 -0.21599364 -0.17115931
00000000: b48c 2dbf 702d 5dbe 6344 2fbe

feats.IsAromatic.bias f4 [3]
0.48771834 -0.52349615 0.01601963
00000000: 38b6 f93e d803 06bf 993b 833c

feats.NumRadicalElectrons.weight f4 [3, 1]
-0.32101822 -0.064973116 -0.7526592
00000000: 805c a4be a010 85bd 46ae 40bf

feats.NumRadicalElectrons.bias f4 [3]
0.37419063 0.82592076 0.5149258
00000000: ea95 bf3e 8b6f 533f 2dd2 033f
