attention_pooling100.pth (torch, 55871 bytes, 23 tensors)

gates.AtomicNum.nn.0.weight f4 [1, 12]
00000000: 74ce 873e e87d 6cbe 5665 71be 185d 043d
00000010: e5d6 1dbe 9022 5fbd 54d2 853e fc70 843e
00000020: 9885 363e 0cf6 913e d8e3 2cbe 7c6e d7bd
0.265247 -0.23094904 -0.23573813 0.032315344 -0.15414007 -0.05447632 0.2613703 0.2586745
0.178244 0.2850803 -0.1688379 -0.1051912

gates.Degree.nn.0.weight f4 [1, 6]
00000000: 3926 c0be 5923 3d3f e0fe 21bf 89ee c53e
00000010: 1473 7cbe b001 753e
-0.37529162 0.7388206 -0.63279533 0.3865855 -0.24653274 0.23926425

gates.TotalNumHs.nn.0.weight f4 [1, 5]
00000000: 5c0f 203e 7bcd 86be 800d 4e3d 0015 cfbe
00000010: 9fab 80be
0.15630859 -0.26328644 0.050305843 -0.4044571 -0.25130937

gates.ImplicitValence.nn.0.weight f4 [1, 6]
00000000: 864e d6be b770 2b3e 9159 0a3f 66f8 ae3e
00000010: 3ac9 0ebe 4011 28bd
-0.41856784 0.16742216 0.5404292 0.34173888 -0.1394395 -0.041032076

gates.Hybridization.nn.0.weight f4 [1, 5]
00000000: 363c 94be 1db9 3a3e 4bee 813e 9c9a 90bd
00000010: 219b b4be
-0.28952187 0.18234678 0.25377116 -0.070607394 -0.35274604

feats.AtomicNum.weight f4 [100, 12]
00000000: 38fc 773e a32d 24be 1068 1c3e 3000 f8bc
00000010: 8467 883d 102e 253d 5d6f 203f be3e 1ec0
00000020: efc6 20bf dbf1 703f 8068 c9bc e4e4 f0bd
00000030: e756 75be a632 903e 4eb0 35be 7433 8e3e
00000040: 30cb b63d 4aed 94bd 4b17 9c3e c649 8fbf
00000050: 6766 343f 56b9 1f40 28a2 693e c2bd 79be
00000060: b886 73bd 16a9 90be 5943 2cbe c230 2d3e
00000070: 8e3e 31be 4036 12be 9574 0b3e f157 e03d
00000080: a757 bbbe 9bc5 ddbf 280e 6e3e ac3e d6bd
00000090: 8212 a8bd 1a2a 7abe 0273 923e be12 95bd
000000a0: bc54 b23d b4d0 5d3e f6e8 49be b03e 09be
000000b0: 38dc 6c3e 6e55 5c3d d86a 6bbd 000c 0c3e
000000c0: 0481 4fbd 0ae8 823e ece7 903d 6e54 dabd
000000d0: 5be6 7fbe 4b5b 6fbe 0953 c6bd 7518 8a3e
000000e0: 75c0 00be ea5b 73bf 901a e23c 706f 31be
000000f0: 80cc 2d3d f36e 7dbe f489 bb3d 9c02 31be
00000100: 3699 07be b0a2 c53c 0d74 aa3e c8da 7ebf
00000110: 11d3 e63e 73ae 1d40 204c c83d 883e 0abd
00000120: fe69 8b3e d879 783e 1c75 8abe b4f4 953d
00000130: 59b9 22be a27d 8a3e 69e3 6fbe 1f39 393f
00000140: a4d9 a4be f5a3 863e 30c0 c0bc 8017 2dbb
00000150: 9eb3 903e e04b 42bd 98a1 a83d cc1c ed3d
00000160: d2af aebd 4258 68be 43da 063e ca91 113e
00000170: 7c6d 3bbe 8b9c c4bf b853 5d3e fcda 8d3e
00000180: c8ef 7bbe 00dd 70bc 4027 4fbd c06e ef3c
00000190: 18a1 483e 7817 c3bd 4eda 533e daf7 18bf
000001a0: deae 573e 7454 a03f 4c6a 833e 2824 61bd
000001b0: 120b 68be 00b0 0eba a6f5 893e 80c9 7bbb
000001c0: 95b4 54be c0d0 633e 7ce9 303e e78d 1ebe
000001d0: a6d4 48be 1ef4 803f a03b 833d 0008 073c
000001e0: 5a97 83be 5640 0d3e bc4d d93d f009 913d
000001f0: a024 583d cc32 e93d df0a 05bd 0dcd c0be
00000200: 9f16 a5be 2d69 e3bf a3ed 1bbe bd3f 13be
00000210: 1449 a53d 2825 6b3e 6aa1 3a3e 02e1 853e
00000220: 14f0 bc3d b8cc d6bd 2582 093e fe92 8e3e
00000230: 6442 0fbd 9b46 303e 5077 9b3d a8b9 7c3d
00000240: fc00 4a3e 414d 82be 3fa8 74be ac03 113e
00000250: 2023 083d 4cd4 34be 0f7a 55be b213 0d3e
00000260: 8fb0 083f fb7d d5be 204c 79be 3a83 15be
00000270: f014 763d 5671 8dbe bcfb 683e b0e8 643e
00000280: e04b 38bd 2070 093e 3594 8abe 2d04 7c3e
00000290: 94f6 253f b5f4 c83f 4099 533e 6c33 5cbe
000002a0: f2cf 873e 0b09 88be 643a f33d 1052 c93d
000002b0: 50bb 0d3e 403b 803b f727 04bf ab98 d23e
000002c0: d2f1 953f fdc1 83bc c02e 863e 9a91 95bd
000002d0: 7c28 823e cac6 afbd a40e 6abd 6c3f 923e
000002e0: 3e20 823e d88c 6fbe 4e3b 48be 5404 2d3f
000002f0: 19f7 69be 91d6 debf dc05 c93d 3ae5 16be
00000300: f080 743d ac51 94bd 4aae 3c3e b4da 633e
00000310: 70e2 ab3d d846 143d a322 00be 4737 0e3e
00000320: 1431 3e3e 5206 d1bf 6c37 f53d 9021 533e
00000330: 006f 9b3b 8010 abbc b044 6c3e 14fc 74bd
00000340: 0483 273e 5d0f 65be 5694 aa3e 5cdb 0d3e
00000350: a874 113f 2c86 f93f 20bb 7e3c 0075 fcbb
00000360: 0122 43be d063 733d 6a2d 81bd 2213 a3bd
00000370: 16b3 2cbe f64f ffbd 25ae fbbd ea0e 353e
00000380: 5af8 2f3e b82e bdbf f83c 513d 32b4 473e
00000390: e4c6 8f3d c540 90be bc0e fd3d 5660 f2bd
000003a0: 5607 76be 1ca4 a53d b1e0 8f3e 90d8 ef3d
000003b0: f4fb e1be da4b 8b3f d894 0a3d 9c46 4d3e
000003c0: e80e 0c3e 0cb5 27be a6b3 803e 2882 483d
000003d0: c00c e7bc ec4a 4cbe 32cb 243d dcd1 ae3e
000003e0: 8c28 5c3d 6043 bcbf 94b4 773e f8f4 6d3e
000003f0: 2895 cfbd f850 743d 4e56 203e 34ad ad3d
0.24217308 -0.16033034 0.15274072 -0.030273527 0.06660369 0.04032713 0.62669927 -2.4725795
-0.6280355 0.9411904 -0.024585962 -0.117624074 -0.23958932 0.28163642 -0.17743036 0.2777363
0.08925474 -0.07271822 0.3048652 -1.1194389 0.70468754 2.495687 0.22815764 -0.24388793
-0.05945465 -0.28254002 -0.16822566 0.16913131 -0.17309019 -0.14278507 0.13618691 0.109542735
-0.3659031 -1.7325929 0.23247588 -0.104611725 -0.08206655 -0.24430123 0.2860337 -0.072789654
0.08707568 0.21661645 -0.19717774 -0.1340282 0.23130882 0.05379241 -0.05747494 0.13676453
-0.05066015 0.25567657 0.070754856 -0.10660635 -0.24990217 -0.23374669 -0.096838064 0.26971784
-0.12573417 -0.95062125 0.027600557 -0.17327666 0.042431355 -0.24749355 0.09157172 -0.17286152
-0.13242039 0.024125427 0.33291665 -0.99552584 0.45082906 2.4637725 0.09780145 -0.03375104
0.27229303 0.2426523 -0.27042472 0.07322064 -0.15891017 0.27048975 -0.23426594 0.72352785
-0.32197297 0.26296964 -0.023529142 -0.0026411712 0.28262037 -0.04743564 0.082339466 0.11577758
-0.08529629 -0.22689918 0.13169198 0.1421577 -0.18303484 -1.5360273 0.21613967 0.27706134
-0.24603188 -0.014701128 -0.05057454 0.029227614 0.19592702 -0.09525961 0.20688745 -0.5975319
0.210628 1.2525773 0.25667036 -0.054966122 -0.22660473 -0.0005443096 0.26945227 -0.0038419664
-0.20772012 0.222476 0.17276567 -0.15483819 -0.19612369 1.0074499 0.06407857 0.008241653
-0.2570141 0.13794073 0.1061053 0.070819736 0.052769303 0.11386642 -0.03248107 -0.3765644
-0.3224382 -1.7766472 -0.1522737 -0.14379783 0.08070579 0.22963393 0.18225637 0.2614823
0.09225479 -0.10488266 0.13428552 0.2784652 -0.034975424 0.17214434 0.075911164 0.061700493
0.19726938 -0.25449565 -0.23892306 0.14161557 0.033236623 -0.1765911 -0.20847343 0.13777044
0.5339441 -0.41697678 -0.24345446 -0.1460084 0.06007856 -0.2762553 0.22752279 0.22354388
-0.044994235 0.13421679 -0.27066198 0.24610968 0.64829373 1.5699679 0.20663929 -0.21503991
0.26525837 -0.265694 0.118763715 0.09830105 0.13840985 0.003913313 -0.5162348 0.411321
1.1714423 -0.016083712 0.26207542 -0.07303162 0.25421512 -0.08582838 -0.05714287 0.28564012
0.25415224 -0.23393571 -0.19553873 0.6758473 -0.22848167 -1.740923 0.09815571 -0.1473588
0.059693277 -0.0724214 0.18425861 0.22251397 0.08392799 0.036200374 -0.12513213 0.13888274
0.1857341 -1.6330054 0.119734615 0.20618272 0.004743457 -0.020881891 0.23073077 -0.059810713
0.16358572 -0.22369142 0.33316296 0.1385321 0.5681863 1.9494071 0.015547544 -0.007704377
-0.1905594 0.05942136 -0.0630749 -0.07962634 -0.16865191 -0.12466423 -0.12289075 0.1768147
0.17184582 -1.4779882 0.051083535 0.19502333 0.07020357 -0.28174415 0.12356326 -0.11834781
-0.24026236 0.08087942 0.28101113 0.11711228 -0.44137537 1.0882523 0.033833355 0.20046467
0.13677561 -0.16377658 0.2513706 0.04895225 -0.028204322 -0.19950455 0.040232845 0.34144485
0.053749606 -1.4708061 0.24189979 0.2323798 -0.10135871 0.05964753 0.15657923 0.084803015

feats.AtomicNum.bias f4 [100]
00000000: 8cda 09be 65ea a93d 8cdd 68be fd29 f63d
00000010: fa4f 053d 56a3 4ebe cadc c33d 2034 1ebe
00000020: 5492 ad3e 7ad5 a2be 93e5 6abe 8290 b43e
00000030: 3898 b0be fa8f 873d 31c6 74be 3b51 71be
00000040: 6a0b 703c 63bb 863e 1f86 9a3d beed 0f3c
00000050: 22a9 333d d3d1 893e e6e1 793e cb1b 8b3e
00000060: 0d68 8c3e 3983 fc3d 7c47 bfbd e8c0 18be
00000070: 5377 263e 7078 a3bd 565e 7d3e 0d55 1f3e
00000080: 628a 27be 1921 28be 04a7 89be 8f83 c53e
00000090: 6b85 1e3e 78da 603d 6a3c 5d3c 236d a53e
000000a0: 2091 493e 18e6 073e 4b13 043e fac1 83bc
000000b0: b251 f83d 5ed5 fb3d d44d 64be e12b 2d3e
000000c0: 7345 7b3e f959 9cbe 0861 87be 13ca 803e
000000d0: 4b7f 8e3d 52e0 bfbe bb00 bf3e 7a4a fe3d
000000e0: 5d55 babe 1db7 a23d c8a4 bebe a188 823e
000000f0: 4478 cd3d 1668 5abe 52b9 88be 3384 ebbc
00000100: 1aaa e53d 81a7 49be fc56 893a 2859 9a3b
00000110: dcfd 143e cff5 b93d eabe 85be f4f6 1abe
00000120: e12a 0b3e 4e06 8cbd 72ef b6bd 0f6f 953d
00000130: 3e8b 613e 3e99 813d d6e0 043d b91e f2bd
00000140: bae9 173e 4add b1bd 6695 ad3e 1cd4 8cbd
00000150: d322 c7bd a0e0 13be 84e3 973d f05c cabc
00000160: 86fb 663e 16d7 3fbe 863a cfbd 90c7 e2bd
00000170: d53a a6be 12dd ee3c cdaa 87bc bfed babc
00000180: 23c7 47bd 45cc 8abe 756b 7cbe 6ff8 9d3e
-0.13462275 0.0829666 -0.22740763 0.120197274 0.032546975 -0.20179495 0.095635965 -0.15449572
0.33900702 -0.31803495 -0.22939138 0.352665 -0.34491134 0.06619258 -0.23903729 -0.23566143
0.014651159 0.2631484 0.07545113 0.0087847095 0.04386247 0.26917896 0.2440258 0.27169642
0.27423134 0.12329716 -0.093398064 -0.14917338 0.16256456 -0.07981956 0.24743018 0.15559788
-0.16361383 -0.16418876 -0.26885235 0.38576934 0.15480582 0.054895848 0.013503173 0.32309827
0.19684267 0.13271368 0.12897985 -0.016083706 0.12124957 0.12296556 -0.22295314 0.1691127
0.24538212 -0.30537394 -0.26441216 0.2515417 0.06957873 -0.3747583 0.37305245 0.12416549
-0.36393252 0.07945082 -0.37235093 0.25494865 0.100327045 -0.21328768 -0.26703888 -0.028749561
0.11214085 -0.19692804 0.0010478194 0.0047103353 0.14549965 0.090800874 -0.26122218 -0.15133268
0.13590576 -0.0683714 -0.08932389 0.07296573 0.22025773 0.06328057 0.032440983 -0.11822266
0.14835253 -0.08684786 0.33903044 -0.06876394 -0.09723439 -0.14441156 0.07416442 -0.02470252
0.22556886 -0.18734393 -0.10118584 -0.1107322 -0.3246676 0.029158149 -0.016560936 -0.022818444
-0.048773896 -0.2710897 -0.24650367 0.30853602

feats.Degree.weight f4 [100, 6]
00000000: 565e 72bf d369 733e 032c e73e 735e 9d3d
00000010: 7180 1dbf 208c f03d d3f9 53bf bea2 adbe
00000020: 347c a53d 30ca d83d 4e5b 8abc c0a4 f4bc
00000030: 9109 6fbd 57e2 f33e 8af4 863e 49be 123e
00000040: a2f9 92be f0a9 4f3e c530 093f ec89 9ebe
00000050: fcc8 8dbe 4907 b4be defd 853d 34e3 84be
00000060: c7aa 583f 07b4 1f3e 4d2f edbc a43c ffbe
00000070: 096d 8bbd 4410 573e 13f0 17bf df50 9cbd
00000080: 4885 a13d e793 513e 9925 4dbe 9626 79be
00000090: fd39 1cbf 47f5 96be 060d 8f3e a23c ecbd
000000a0: 3fa0 64bf 0040 5ab9 0861 d33f 693e 493e
000000b0: f6f4 12bf ce74 05bf bd9e 19bf 1419 263e
000000c0: 884d 41bf 468f 013f 4f6a e63e 8e67 8bbe
000000d0: bcf2 86bd 04ed eebd fc27 a0bf ca34 703e
000000e0: da26 363e d930 96be bf90 e43e f476 0dbe
000000f0: 76e3 873f 0a17 5d3e 15d0 ad3e fefe 86be
00000100: 519f 0bbf 08dc 403d aeae acbf e725 05be
00000110: 0c10 cf3c 8ad3 9f3e 8988 0e3f 2020 083e
00000120: 03ec 563f c49a 9abd c3a8 8a3e eee9 24bf
00000130: d484 92be 4496 523e fe17 8bbf 6fa4 babd
00000140: e7bc c1bd 2fdb a13e 33da d73e 2cd3 79be
00000150: 97ae 843f 4efc c5be 980b 15bd ed64 dbbc
00000160: 6895 f3bd ea2d 8ebe aac2 e13f e0bb 8cbe
00000170: 0968 5cbd 2752 143e 3bf1 6e3e cc7b 1e3e
00000180: 5d6a 913f 6ff5 4fbe 50ef 84be 30d3 a1be
00000190: b96b 893e 1495 6e3e 9c8b 4bbf 82a7 d2be
000001a0: 9738 b6be 029f 63bd 5f11 ed3d a0ab 713d
000001b0: 3164 ab3f fe12 a83e 1b82 cb3d ee6d 05be
000001c0: 74e8 d2be 00c6 05be b1ee dbbf 6b0c cabe
000001d0: 7843 84be 6988 a43e bffa 973f 1d3f b9be
000001e0: 21a4 8e3f 6e9b 0cbe 338e 3d3e 93ab acbe
000001f0: f08a 92bd 2813 fd3d 5c67 a0bf 7b8e 003f
00000200: 1ede 82bc adc2 e53e 5565 27be 30e0 263e
00000210: 53ab 97bf b759 123c fda7 b63e 4fc5 553e
00000220: 7a04 c23e 2801 5e3e b81b 1cbf ce3e 253f
00000230: 8539 d1bd d1e1 c7be b705 03bf ae29 a33e
00000240: a859 95bf af7b d83e 42a6 d93e 14be 163c
00000250: fe9b e23e 445b 7b3e 1ccd 13be bdd8 53be
00000260: 49b8 c0be 60cf 8f3e 26d9 5c3e 6415 053e
00000270: 8c02 90be 4bd1 35be c8ef 88be 5b04 c83e
00000280: baac 14bd 318d 63be 2d73 9cbf 28d4 01be
00000290: 00d6 373e 56d6 e2bd 447c f43e a0f1 77bd
000002a0: cc09 c9bf ec09 8f3e 58d6 3ebe 1080 a93e
000002b0: ea2f cc3e 687c 4e3d 669b 44bf 7a4a 523b
000002c0: f465 323d c890 803e 6856 f8be 6a30 8f3e
000002d0: d24d 493e 7cab ca3d efa0 12be f419 e8be
000002e0: f5d2 533e 35f2 bfbe 6b41 38bc 1727 6a3c
000002f0: 4fb7 dbbe 689c 653e 1151 963e a4a0 bfbe
00000300: 4190 9b3e 800f 1138 5f73 1ebd 25ad ca3b
00000310: d943 40bf 55db c4be c5f1 863f db8e 823e
00000320: 53f5 943e 3865 b7be 93f4 b3be 74d1 bcbe
00000330: 7cb4 c3bf 1c63 58bc 055f c1be 9705 893e
00000340: baf3 fe3e 7c90 bb3d 9d41 153f 1763 cf3e
00000350: 194c 843d 8741 85be cce6 1f3e 18b5 99bd
00000360: 297d 39be 85fb 073d 56d7 d1bd 839e 43bf
00000370: 9b8c 02bf 817e 93be 1633 953f 1387 be3b
00000380: b0e8 2dbe 7ba1 ab3e 2e5b 573e 5045 73bd
00000390: bbc2 57bf d142 95be 1805 9cbe 9617 4dbe
000003a0: 2986 6fbe 5023 893c 9c47 8d3e 3aa0 303e
000003b0: 649b 3a3e 2282 323e 51f6 0ebf 490a bcbe
000003c0: 55bd 513f cf51 6c3e 4e32 2bbf d771 0b3e
000003d0: 8a2b 0d3f 3066 20be d745 183f a4f6 bfbe
000003e0: a00d 27be ffec e8be dc11 76be 785d 10be
000003f0: fd4c 30bf 39b1 2b3e b26e d6be 8106 e03e
-0.94675195 0.23770837 0.45150766 0.076840304 -0.6152411 0.11745477 -0.82803077 -0.33913225
0.080803305 0.10585439 -0.01688924 -0.029863715 -0.058358733 0.4763362 0.26358443 0.143304
-0.2870608 0.2027967 0.5359004 -0.309646 -0.276924 -0.35161808 0.06542562 -0.25954592
0.84635586 0.15596019 -0.028953219 -0.49850953 -0.06807906 0.21002299 -0.593507 -0.076326124
0.078867495 0.20466577 -0.20033874 -0.24331126 -0.61025983 -0.29484007 0.27939624 -0.11535002
-0.89307016 -0.00020813942 1.6513987 0.19652714 -0.5740503 -0.52131355 -0.6000784 0.16220504
-0.7550893 0.5060924 0.45002982 -0.27227443 -0.06589267 -0.11666301 -1.2512202 0.23457637
0.17788258 -0.29334143 0.44641683 -0.13814908 1.061629 0.2159082 0.33947816 -0.2636642
-0.5453997 0.04708484 -1.3490808 -0.1300274 0.025276206 0.3121608 0.55677086 0.13293505
0.83953875 -0.075490505 0.2708188 -0.6441945 -0.28616965 0.20565134 -1.0866697 -0.091133945
-0.094598584 0.31612536 0.4215866 -0.24396962 1.036578 -0.38669056 -0.03638801 -0.026781524
-0.11893731 -0.27769405 1.7637532 -0.27487087 -0.053810153 0.14484464 0.2333421 0.15476912
1.1360584 -0.20308469 -0.2596383 -0.31606436 0.26839998 0.23299056 -0.795099 -0.41143423
-0.3559005 -0.055571564 0.11575579 0.059001565 1.3389951 0.3282699 0.09936925 -0.13030216
-0.41192973 -0.13063812 -1.7182218 -0.394626 -0.25832725 0.32135323 1.1873397 -0.36180964
1.1143838 -0.13731167 0.18511276 -0.3372465 -0.071554065 0.123571694 -1.2531543 0.5021741
-0.015975054 0.44875088 -0.16347249 0.16296458 -1.1849159 0.0089325225 0.3567504 0.20876049
0.3789404 0.21680129 -0.60979795 0.6454896 -0.10216049 -0.39039472 -0.51180595 0.31867737
-1.1667986 0.42281863 0.42509657 0.009200592 0.44259638 0.24546534 -0.14433712 -0.20688148
-0.37640598 0.28087902 0.2156721 0.12996441 -0.28126943 -0.1775562 -0.2674544 0.39065823
-0.036297537 -0.22221829 -1.2222649 -0.12678587 0.17952728 -0.110760376 0.47751057 -0.060533166
-1.5706115 0.27937257 -0.18636453 0.33105516 0.39880306 0.05041161 -0.7679962 0.0032087849
0.04355426 0.2511046 -0.48503423 0.27966624 0.19658592 0.09895989 -0.14319204 -0.453323
0.20685942 -0.37489477 -0.011246066 0.014291546 -0.4291329 0.22422945 0.29358724 -0.37427247
0.30383494 3.458513e-05 -0.038684245 0.006185191 -0.7510353 -0.38448587 1.0542532 0.25499615
0.29093418 -0.3581941 -0.35147533 -0.3687855 -1.5289454 -0.013207223 -0.37767807 0.26762077
0.49795324 0.091584176 0.5830324 0.40505287 0.06459827 -0.26026556 0.15615386 -0.07505244
-0.18114151 0.033198852 -0.1024615 -0.76413745 -0.50995797 -0.28807452 1.1656215 0.005814442
-0.16983294 0.33521637 0.21030876 -0.059392273 -0.8428151 -0.2915254 -0.30472636 -0.20028529
-0.23391022 0.016740471 0.27593696 0.17248622 0.1822334 0.17432454 -0.558446 -0.36726597
0.8192952 0.23078083 -0.66873634 0.13617645 0.5514456 -0.15663981 0.5948157 -0.3749286
-0.16313791 -0.45493314 -0.2403025 -0.14098155 -0.68867475 0.16766824 -0.4188133 0.43754962

feats.Degree.bias f4 [100]
00000000: 4011 6cbc 1c83 473e c56c b23e ecdd 903e
00000010: e827 14bd 140f d23e 5634 803d 6c77 553e
00000020: cf4d 133e 25e5 983e 91c7 db3e a321 4bbe
00000030: dba3 043d d312 af3e af66 85be 8c8d b8ba
00000040: 815d 1b3e 0f83 28bc 223d 91be 924f a13c
00000050: 7204 8bbe 70e0 8a3c 31c2 25be d22a 623e
00000060: 3db7 8b3e efb2 223e 5f4b a53e 305f a43e
00000070: 423c f33c 9af7 53be b93d 19be 30da c23e
00000080: 9396 3e3e 685d 03bf 6636 593e 6d29 75be
00000090: 8bd4 993e 2e0a adbe 7651 883e b287 4abe
000000a0: 4125 a1be 51bc c03c 0dc5 94be b3b9 dbbe
000000b0: 4cd5 76be c2ee 5cbc a6f1 2a3e 350d f2be
000000c0: 37d0 ec3d 364c 273e 61c3 9bbe 206f 733d
000000d0: a5a8 40be 2cca e9be 1b4d 673e 948f 313d
000000e0: bb60 c3be afbc 0ebe ecb1 0a3e 201e a13e
000000f0: fb1e b3be aafd ab3e 9667 233e 4e9b 90be
00000100: f362 92be 5590 1fbe 4b02 bb3d 5ac2 243e
00000110: bba9 5f3e f564 d5bd fd01 51be 8119 763d
00000120: f9aa 993d 6cfb e23e 8d1f 933e 2dc8 f7be
00000130: 6a91 97be 5f3b c0be 566f ebbd fbc6 9b3e
00000140: 13d7 f83e 1852 ba3e f52e 7dbd 4961 123e
00000150: 5d61 c93d ea5e d03e ae80 943e 404e 23bd
00000160: 8278 c03a 7bfa 8cbe 8b12 4ebd 3c84 113e
00000170: dc2e 75be 51ad 05bb 3a0f a7be b850 74be
00000180: 30ce 973e 1daf efbe 4c3b 7e3e 0c4e 28bb
-0.01440841 0.19483608 0.3484861 0.28294313 -0.03617087 0.4102713 0.06259982 0.20846337
0.1438515 0.29862323 0.42925695 -0.1983705 0.032382827 0.3419405 -0.26054904 -0.001408027
0.15172388 -0.010285153 -0.28366953 0.019691262 -0.2715183 0.016952723 -0.1618736 0.22086647
0.27288237 0.1588857 0.32284066 0.32103872 0.02969182 -0.20699921 -0.14964952 0.3805709
0.18612127 -0.513144 0.21212158 -0.23941584 0.3004497 -0.3379683 0.2662465 -0.19778326
-0.31473735 0.023527296 -0.29056588 -0.42915115 -0.24104804 -0.013484659 0.16693744 -0.472757
0.11563151 0.16337666 -0.304225 0.05943215 -0.18814333 -0.45662057 0.22588007 0.043349817
-0.38159737 -0.13939165 0.13544434 0.31468296 -0.34984574 0.33591968 0.15957484 -0.28243488
-0.28591117 -0.15582402 0.09131297 0.16089764 0.21842091 -0.10419647 -0.20410915 0.060082916
0.075033136 0.44332445 0.2873501 -0.4839491 -0.2960313 -0.37545297 -0.11495845 0.30425248
0.4860159 0.36390758 -0.06181236 0.14294924 0.09833024 0.40697414 0.29004425 -0.039869547
0.0014684352 -0.2753485 -0.050310653 0.142106 -0.23943657 -0.0020397494 -0.32628804 -0.23858917
0.29649496 -0.46813288 0.24827307 -0.0025681285

feats.TotalNumHs.weight f4 [100, 5]
00000000: 7b9c 45be a997 11bd 77d8 8bbe c99b 563f
00000010: 5a03 af3e 1931 4c3e 913d 9ebe 017a 523e
00000020: 00d5 a4be bee5 ae3e 564d fbbc 1db8 1f3e
00000030: 046e d4bd 7d55 b6bd 087a 37be 64e4 68be
00000040: 2105 fbbe 3c52 a3bd d10f a53c 406a 6cbc
00000050: 8a5c a8bd 5e45 57bd 33ce 67be 6160 dcbd
00000060: 80c5 55be df50 c03e 905b 5c3e 5b68 593e
00000070: d49b 7e3e 5a6e 9dbe 2900 4b3e 447b 14bf
00000080: e3fe 08bf 0efa 8a3e 3c73 b1bd 5a40 01bd
00000090: 9d5f 0bbf 0769 023d 491d 3cbe fc8d 7d3e
000000a0: 68d7 5dba dc5b 3bbe de0a d13e 9153 cb3e
000000b0: c952 8abe ce2e 3ebe 6da6 5b3e 87cb 24bc
000000c0: dc02 9bbe 744a 203e 56f5 cabe 1113 fa3e
000000d0: be4f 78bd 2879 e43e 1849 2abe f337 c43e
000000e0: 1004 6dbe f235 bfbe db61 013f f2a6 b5be
000000f0: 4a85 bfbe 7969 edbe 4594 873e 6835 8dbe
00000100: 40d9 9e3d f892 86be 3c9f 83be 9c9f f0be
00000110: 748e 3ebf 0437 5b3e ea44 993e dbc1 75be
00000120: 1444 aa3e 61c0 d4be 8da2 b9be 6112 f13e
00000130: b47b fa3c c0bb d13c c48b 3cbe 7b2d 67be
00000140: 0221 9dbe a6b0 873d a43b bb3e 5e02 e33e
00000150: a73f c8be d7fd a13e de46 0b3f 2743 c73c
00000160: 0463 313e 0899 b33d 2d13 22be a8a0 dc3d
00000170: 7669 8a3e 8362 603e 14f5 6d3e 6cee 9d3e
00000180: 98a3 b93e 1645 3e3e ce3f 2c3d 5cc6 173e
00000190: 8d9d 81bd 6955 80bd 1261 c83e 6800 563e
000001a0: d607 d13e e090 493d 3fe2 a73c 9f12 563d
000001b0: 6983 e23e 30bc 7abd 76c3 c63e f17f 33be
000001c0: d92a b93e 34a3 113d fca6 a83e 0348 d1be
000001d0: a8ef 35be 7bb7 87be c0b1 3e3f cc11 4bbe
000001e0: a68b f53e 0131 8dbe fb59 e63e 7f20 a73e
000001f0: 2c89 2a3e 7767 1dbe b652 fe3d 68e6 00bf
00000200: a4e5 21bc 3a2c b33e 09ae a4bd 8698 25be
00000210: 8b36 d23b 51e4 df3e 0659 a93e fe3c b43e
00000220: 7366 efbc ebbb 83be 1528 a63e 4c34 ac3e
00000230: 81eb e1bd f3a1 95be 49ee b3be 80f9 2fbe
00000240: 7ae9 8d3e 1602 0dbf ac0a fabe e780 33be
00000250: ca4a 9d3e b041 8fbe cd66 19bf 52b0 473e
00000260: c808 64be 612f 9f3e bb13 a6be 2102 f13e
00000270: 79e3 b1be 8cc6 b1bd 3872 0ebf e0e8 18bd
00000280: 6049 b63e 8bee 093e e257 d13d 2a0f 483f
00000290: 6c32 18be c3d9 9cbe 69e7 9bbc 5019 edbe
000002a0: cb6d 443b a8b0 8a3e 3323 e8bd 0e46 85bd
000002b0: 93a8 10bf 515f 9dbd 0e1a d23e 6d64 f7bc
000002c0: 26b6 863e 075a 07be 0661 033f 3fb5 b6be
000002d0: e245 4fbf 4549 b93e 89f9 9a3e 77f8 7d3f
000002e0: 28cc 69bd 4adf d7be e586 b6be 678d 37be
000002f0: 3624 fabc a0f4 ad3d 1c50 1dbf 3c2c 1dbe
00000300: 1941 c23a a109 113f 5015 a03c 886e 6ebe
00000310: e7d2 583e 5638 d13c 9d55 89bc d669 a03e
00000320: dcb8 fa3e 6d76 35be 63ac c73e 8fcc 84bf
00000330: 78a4 553e ffcf 003f 6ee3 babd 766a f53d
00000340: 1b20 28bf 88a6 0d3d 6e55 943e 38e7 9dbe
00000350: 8bad 15bf dfc0 5a3e b0ba ddbc 8e14 debe
00000360: f121 e9be fcc6 6b3e 23e2 c1be 507a b7bd
00000370: 00a5 d33e ddf8 a3be a3ae 4f3e d4d4 33bd
00000380: 600e 4dbd 38bf 27bf 148f ac3e 01f6 1c3d
00000390: 77a8 003e 10b2 bf3d d4c5 8d3e 2bdf 83bd
000003a0: ee19 933e e54a 3f3e 6031 103e 9454 cabe
000003b0: f1d1 233e b32c 193e cb3b 6b3d ac3b c63e
000003c0: 01b2 60be 0be4 993d 6ace 1ebd 965c f6be
000003d0: c8b0 20bd 8c77 463f 62e9 bfbe 904d c63d
000003e0: a309 a7bf 5a5c d23e 128b 143d de7c febe
000003f0: 6294 bbbe b763 b23e 701f e73d 8423 023f
-0.19297974 -0.035545025 -0.27313587 0.8383146 0.34182245 0.19940604 -0.30906346 0.20554353
-0.32193756 0.34159654 -0.030676525 0.15597577 -0.10372546 -0.08903024 -0.17917645 -0.22743374
-0.4902735 -0.07974669 0.020149143 -0.014429629 -0.082207754 -0.052556388 -0.22637253 -0.1076057
-0.20876122 0.375617 0.21519303 0.21231215 0.24864131 -0.30748254 0.1982428 -0.5800059
-0.53513926 0.27143902 -0.08664557 -0.03155551 -0.5444277 0.031838443 -0.18370546 0.24761194
-0.0008462579 -0.1829676 0.40828604 0.39712194 -0.27016285 -0.18572542 0.21450205 -0.01005829
-0.3027562 0.15653402 -0.396403 0.48842672 -0.060622923 0.44623685 -0.16629446 0.38323936
-0.23146081 -0.37345845 0.5053994 -0.35478932 -0.3740638 -0.46369532 0.26480308 -0.27579808
0.07756281 -0.26284003 -0.25707424 -0.46996772 -0.74436116 0.21407706 0.2993539 -0.23999731
0.33255064 -0.41553023 -0.3625683 0.47084334 0.030576564 0.025602221 -0.18412691 -0.22575943
-0.30689245 0.0662549 0.3656894 0.44337744 -0.39111063 0.31638977 0.5440501 0.024324013
0.17322928 0.08769423 -0.15827627 0.1077283 0.27033585 0.21912579 0.23238021 0.30845964
0.36257625 0.18581042 0.042053036 0.14821762 -0.063288786 -0.06266291 0.3913656 0.20898592
0.4082629 0.04921043 0.020493625 0.052263852 0.44240883 -0.061214626 0.38821 -0.17529275
0.36165503 0.035556033 0.329399 -0.40875253 -0.17767203 -0.26507172 0.74489975 -0.19831008
0.47958106 -0.2757645 0.44990525 0.3264198 0.1665389 -0.153715 0.124181196 -0.5035157
-0.009881411 0.3499468 -0.08041007 -0.16171464 0.0064151934 0.4372888 0.33075732 0.35202783
-0.029223656 -0.25729308 0.32452455 0.3363365 -0.11031247 -0.2922512 -0.35142735 -0.1718502
0.2771719 -0.5508131 -0.48836267 -0.17529641 0.30721122 -0.27979803 -0.59922487 0.19500855
-0.22268975 0.31090835 -0.32436928 0.47071937 -0.3474386 -0.08680448 -0.55643034 -0.037331462
0.35602856 0.13469903 0.102218404 0.7814814 -0.14862984 -0.3063489 -0.019031243 -0.46308374
0.0029972668 0.27087903 -0.11334839 -0.065075025 -0.56507224 -0.07684196 0.41035503 -0.030199254
0.26310843 -0.13217936 0.5131992 -0.35685155 -0.8096601 0.36188713 0.30268505 0.9920725
-0.057079464 -0.42162544 -0.3564979 -0.17925034 -0.030534845 0.08493924 -0.6145036 -0.15348905
0.0014820426 0.5665532 0.019541413 -0.23284352 0.21174203 0.025539558 -0.016764456 0.31330746
0.48969162 -0.17720957 0.38998708 -1.0374926 0.20863521 0.50317377 -0.0912541 0.119831964
-0.6567399 0.034582645 0.28971428 -0.30840468 -0.5846793 0.21362637 -0.027066559 -0.43375057
-0.45533708 0.23025125 -0.3786784 -0.08958876 0.41336823 -0.32025805 0.20281462 -0.04390414
-0.050062537 -0.6552615 0.3370291 0.038320545 0.12564264 0.093601346 0.27689993 -0.0643905
0.2873072 0.18680914 0.14081335 -0.39517653 0.15998055 0.14958458 0.05743007 0.387174
-0.21942903 0.07514199 -0.03877107 -0.48117512 -0.03923109 0.77526164 -0.37482744 0.096827626
-1.3049816 0.41086084 0.03626544 -0.4970464 -0.36636645 0.348417 0.11285293 0.5083544

feats.TotalNumHs.bias f4 [100]
00000000: 84f8 08be 791f 68be 3bd5 db3e c52c 8dbe
00000010: 0a9a 4cbe 881d e63d 21ef 82be e834 8bbe
00000020: 87b4 f2bc b4f6 b6be 839e bcbe ee5a 483d
00000030: e34d 843e 5fff 1d3d 57ae 60be 329e 89be
00000040: 37d9 133e c49c e03d 07fb 3f3d 6817 123e
00000050: 1e16 573e 0ddb 193e bef4 b43e 9b51 d5bd
00000060: ab64 87be aefd 8e3d 37a6 613e ffca ec3e
00000070: 4b2f 5cbe 9b79 533e ab12 4bbe 8c76 a13d
00000080: abf9 f53e 550a 3b3e 3bb2 c73d 708b 78be
00000090: 3a21 643d 4752 773e eac7 5b3e 870a e23e
000000a0: 7352 ac3e 3901 133e ed14 9cbe 0ab7 fbbd
000000b0: 3738 bbbd b4c1 083e 6fa2 e2be 41b9 6cbe
000000c0: 1f34 933e 4397 a5bd ecdf ba3e 614e 6f3e
000000d0: 65cb d43e 31c4 dbbd 3b61 89be 0feb 45be
000000e0: 1bd5 4bbe 5b73 0f3e 1dd0 06bf 6cac ad3e
000000f0: 945b e7bd 39df ed3e 46c7 7e3d ec64 bcbe
00000100: 480b f7be ed0e 853e b036 48be cabe 6bbe
00000110: 5216 bcbb 2a84 ac3e 74a6 f8be 7630 77be
00000120: 36e0 a1be c138 92bd 6e16 593e 78a1 313e
00000130: d088 2a3e 5460 94bc 5051 63be e14a abbd
00000140: e952 563d caf1 5cbe f3f9 073f 8ed0 e73d
00000150: 999e 27bd a372 05be 4c9b c5bd 9cca 04bd
00000160: 0071 4f3e 6d91 463d c62b 5a3e 4348 8ebe
00000170: 384c 8a3d d2d3 a43e 2b87 9d3d 876e ae3c
00000180: abeb f33d ebea a3bd 752c bfbd 2079 a2be
-0.13376051 -0.22668256 0.4293612 -0.2757322 -0.19980636 0.112361014 -0.25573066 -0.27188802
-0.029627098 -0.35735095 -0.36839685 0.048914842 0.25840673 0.03857362 -0.21941505 -0.26878506
0.1443833 0.10967401 0.046870258 0.14266741 0.21004531 0.15024967 0.35342973 -0.10415956
-0.2644399 0.06981979 0.22036062 0.46248624 -0.21502416 0.20651858 -0.1983134 0.07883939
0.48042044 0.1826566 0.09750792 -0.24271941 0.05569575 0.2415248 0.2146298 0.44148657
0.33656654 0.14355935 -0.30484715 -0.12290771 -0.091415815 0.13355142 -0.44264552 -0.23117544
0.28750703 -0.080854915 0.36498964 0.23369743 0.41561428 -0.1073078 -0.26831993 -0.19327949
-0.19905512 0.14008848 -0.52661306 0.3392061 -0.11296764 0.46459368 0.06220176 -0.36795747
-0.48250794 0.2598795 -0.19552112 -0.23021999 -0.0057399655 0.33694583 -0.48564494 -0.2413958
-0.31616372 -0.07139731 0.21199962 0.17346752 0.16653752 -0.01811234 -0.22198987 -0.083638914
0.052325163 -0.2157661 0.5311577 0.113190755 -0.040922735 -0.13032012 -0.09648761 -0.032419786
0.2025795 0.048478533 0.2130576 -0.27789506 0.06752819 0.32192856 0.07691797 0.021292938
0.119101845 -0.080037914 -0.093346514 -0.31733036

feats.ImplicitValence.weight f4 [100, 6]
00000000: 168d 6bbe 8c23 12bd 4e25 b13e f6ca d43c
00000010: 4078 473c 4d88 83be 08f8 a43e 3ff3 e33d
00000020: 0ee3 a5bd 7afc 3d3e 5469 673e dc47 e8bd
00000030: 444a 2cbe 52e5 b6be 7484 ed3e bf24 ac3d
00000040: 9099 ce3d e8e7 cc3d d0bf 853e 5e37 d3be
00000050: 6deb 82bc 58e8 8cbd 1492 90be 96fc afbe
00000060: be54 da3d ba13 1e3e cc17 493c f616 13bf
00000070: 7f4d 89be 62ab 853e 4b57 b33e 1a32 553d
00000080: 484d 6f3d b3d2 8f3d 8c92 81be b0e4 4d3e
00000090: af09 afbc 5304 703d 06c6 b33d 1d85 97bd
000000a0: 92ad 853e 5840 813e a3f6 983e 97b5 dfbe
000000b0: c82e e5bd c7e1 483e 78b1 c93d 58cf 273d
000000c0: 7c60 82be 92e5 203e 46a8 9cbe 01c0 363e
000000d0: 6c48 f4bd 46dc be3e ea87 6bbc 5ce6 d6be
000000e0: 5bdb 4d3d ce2b 9cbe c7ce c6be a04b 06bc
000000f0: f9f4 a6be 095e a23e 025c 543e 0738 8aba
00000100: 87d2 9bbe 6f7c b1be 95c8 cb3e 0998 b43d
00000110: db34 82be 3b75 ea3e 500e b0bd 4843 82bd
00000120: 6d15 e0be 4a4b c4be ce55 0bbe bf5c d2be
00000130: 9276 abbe e88d 9fbe 389a 633e 6cab 403d
00000140: d950 27bf 314a 10bf dac9 9f3e 7cc4 a4be
00000150: a489 a93e 0ffe 97be baef 7e3e 2aa4 24bf
00000160: 10b0 a5be e022 e83c cd5c 713e 1c2d 3fbd
00000170: 2dcd 9cbe f8d8 44be 5e12 cb3e b752 2bbe
00000180: 55a9 64be 1a50 dd3d ec5e 623e e891 92be
00000190: 10c4 703e 0c98 8bbd 6c76 9d3e 0f3b 183f
000001a0: cf6a edbd 320a 123e 0cbc 473e 727d c33e
000001b0: 192b 143e 038e 7a3d 98eb 39bd 8446 8ebe
000001c0: b916 adbe a808 d0bd fa3f 2dbd 43a2 cd3e
000001d0: b34d 46be ea7a 0cbf bc7f 14be bf0a ccbe
000001e0: 50b4 8cbd e787 a6be b948 51be 2ef4 2cbe
000001f0: f488 793e e0b6 123e 1b78 243d c145 903d
00000200: ef3d ab3b ee82 0d3f 9f6e 64be f0b8 29be
00000210: e6d9 70bd ff24 093f c08c 55be 33a2 923e
00000220: 805f 42bc a4bb b93d 0cdc cdbe 5c09 2bbe
00000230: 6a8d 0e3d e202 db3e b886 adbe 383f a63e
00000240: 6a0f 243e 61e0 e93e 1e68 71bd 216f 30be
00000250: ce20 aa3e 1cea e9bd f616 4abd f61c ecbe
00000260: 1a1f d5be 99ad f33d 98ee 0fbe 646b 33be
00000270: 3edd 23bc f9ae 8a3e 570e 293e 4193 123f
00000280: 0832 30bd 2091 83bd ede3 d2be bad6 c53e
00000290: 17e7 1bbe 915f 92bd dfdc 6ebe 3bba 2bbe
000002a0: b6a0 e83e f54e a1bd 76fa 3fbe 2243 5c3d
000002b0: 28b5 edbd c8f3 413e 32c3 3f3e 9e11 653e
000002c0: c188 89bd a873 91bd f22f 7abe 7cb8 86be
000002d0: 9ccd 97be 4ede 1c3e 850f 273f e1f4 2b3e
000002e0: d86a 273e 504f 33be 532f fc3e 45cb c63d
000002f0: 1a3f 363d 64a7 09bf 848c c0bd 7061 c8bc
00000300: d6c6 053f 75a7 1b3e c97a 58bd 9764 393f
00000310: 6055 203d 3035 033e 617d fbbe 5fa9 99be
00000320: 8bbf 733e 21ce 97be 08ef 723e 09b6 39be
00000330: 3af7 bdbe 143b c2be d109 d23c 4b53 e7be
00000340: b011 5c3e 70e3 a93e 7e58 8fbe 0e03 7fbd
00000350: 2dea 7d3d 6b9f de3e 5c3c aebe c404 973e
00000360: d18d 27bf dcb1 853d 9bd7 3a3f efb7 873f
00000370: 1293 863e b03e 7f3e c10d 06be af8f c93e
00000380: 7c26 b53e af35 8c3e 72c1 69be 500a c03e
00000390: 7af5 88be 0db8 0dbf ae84 7a3d 849c 183f
000003a0: 3ba5 74be fa11 ae3e 63a4 ebbe 8e67 763d
000003b0: f7c2 4a3d d5a8 083f 9efe a53e 00ed 88bb
000003c0: 2fa4 573e 2c00 3fbd 548c 3bbe 6b7a efbe
000003d0: e1a6 46be f89f ee3d 1c87 a3bd cbdd 26bd
000003e0: a35a 0cbf 202b 9bbe 1a9f 87be 3ed9 9f3e
000003f0: 8f54 913e 6f55 f4be c384 403e 7fd6 333d
-0.23003039 -0.03567843 0.34598774 0.025975686 0.012174666 -0.25689927 0.32220483 0.1113038
-0.08099948 0.18553343 0.22598773 -0.11341831 -0.16825205 -0.35721833 0.46390116 0.08405446
0.100878835 0.1000517 0.26122904 -0.4125318 -0.0159814 -0.068802536 -0.2823645 -0.34372395
0.106606945 0.15437213 0.01227374 -0.5745691 -0.26816937 0.26107317 0.35027537 0.052049734
0.05842331 0.070226096 -0.2530712 0.20106769 -0.021366922 0.058597874 0.08778004 -0.07398436
0.26108986 0.25244403 0.2987567 -0.4369323 -0.111905634 0.19617377 0.098483026 0.040969223
-0.25464237 0.15712574 -0.30597132 0.17846681 -0.11927876 0.3727743 -0.014375666 -0.41972625
0.05025802 -0.3050217 -0.38829634 -0.008196741 -0.32608774 0.31712368 0.20738223 -0.0010545262
-0.30434057 -0.34665248 0.3980147 0.08818061 -0.2543095 0.45792565 -0.0859648 -0.06360489
-0.43766347 -0.3833869 -0.1360695 -0.41086385 -0.334889 -0.31162953 0.22226799 0.04703848
-0.6535774 -0.5636321 0.31208688 -0.32181156 0.33112824 -0.2968602 0.24896136 -0.64312994
-0.32360888 0.028336942 0.23570557 -0.04667388 -0.30625287 -0.19223392 0.3966245 -0.16730772
-0.2233022 0.10806294 0.22106522 -0.28626943 0.23512292 -0.0681611 0.3075441 0.59465116
-0.11592638 0.14261702 0.19505328 0.38181645 0.14469565 0.06117059 -0.045390695 -0.27788174
-0.338064 -0.10157901 -0.04229734 0.40162858 -0.19365577 -0.5487505 -0.14501852 -0.3985195
-0.068703294 -0.3252556 -0.20437898 -0.16890022 0.2436865 0.14327574 0.040153604 0.070445545
0.005225889 0.5527791 -0.22307824 -0.16574454 -0.058801554 0.53572077 -0.20854473 0.28639373
-0.011863589 0.09068993 -0.40206945 -0.16702789 0.03480283 0.42775637 -0.33891845 0.32470107
0.16021505 0.45679 -0.058937185 -0.17229892 0.33228153 -0.11421606 -0.049338304 -0.46115845
-0.4162529 0.118983455 -0.1405586 -0.17521435 -0.010001479 0.2708662 0.16509376 0.5725594
-0.043016464 -0.06424165 -0.4118952 0.38640386 -0.15224873 -0.07147134 -0.23326443 -0.1677026
0.45435113 -0.07876388 -0.18747887 0.05377496 -0.116068184 0.18940651 0.18726805 0.22370002
-0.06715537 -0.07102138 -0.24432352 -0.26312625 -0.29649055 0.15319178 0.65258056 0.16792633
0.16349351 -0.17510724 0.49254856 0.09706739 0.044493772 -0.5377104 -0.09401801 -0.024460524
0.52256525 0.15200599 -0.052851472 0.7241911 0.03914392 0.12813258 -0.49119094 -0.30012032
0.23803537 -0.2964945 0.23723996 -0.18135847 -0.3710268 -0.37935698 0.025639446 -0.45180735
0.21491122 0.33181334 -0.27997202 -0.062258773 0.061990906 0.43481 -0.34030426 0.29495823
-0.6545077 0.065280646 0.7298524 1.0603007 0.2628408 0.24926257 -0.13091184 0.39367434
0.35380924 0.27384707 -0.228277 0.37507868 -0.26749784 -0.55358964 0.06116169 0.59613824
-0.23891155 0.3399809 -0.46023855 0.06015735 0.04950234 0.5338262 0.3242082 -0.004178643
0.21058725 -0.046631023 -0.1831525 -0.46773085 -0.19399597 0.11651605 -0.079847544 -0.040738862
-0.548258 -0.3030634 -0.26488572 0.3122043 0.28384826 -0.4772143 0.18800645 0.04390573

feats.ImplicitValence.bias f4 [100]
00000000: b6e4 9f3e 4f04 d8bd f171 273e 8bb0 af3b
00000010: 28db 31bd fcc6 b33e 8398 173d 3243 ccbe
00000020: e2ca 32be 9e71 8ebe a1e8 20bc 184d a33b
00000030: 8e8b ccbe 9d67 bfbd b8ea 39bc 94d5 083e
00000040: 1432 d93e 2c4a 95be 7478 56be 3cd0 9bbe
00000050: 08de 12be 1330 46be eeb7 b4bd 8bcd d3bd
00000060: c037 733d 137d 5e3e 9c7c a1be c3a4 39be
00000070: c2db 2abe 3243 eebd 6aed 14be 2500 1fbe
00000080: 95b4 a73e 8603 04bf 4f33 dbbe 7658 3d3e
00000090: 5265 a33e d14a ee3e 1e70 8f3e 224f 87be
000000a0: 90ed b03e 0881 afbd 0923 b9bc 2c14 3fbc
000000b0: 2bb5 cfbd 9324 ab3e bbda 2bbe 4066 ecbe
000000c0: a99b 6e3e 7e73 1dbb 7321 1fbe 6607 583e
000000d0: f14b 89be bf22 d8be c4ab fcbd 1b7d 8c3e
000000e0: ae81 8d3e aec3 d1be 68fa 0f3e 0b50 c33e
000000f0: a77b a2bd 82e0 a9be 6eeb a23e 433d babd
00000100: af67 89bb 1223 e4be 48d1 71bd 82cc 683e
00000110: fcc0 88be 5c51 f83c a769 e0bd ca0a 61be
00000120: eeca b939 fcd2 a8bd 430b 333e e45e 8d3e
00000130: d116 0b3e 558c 70bd 2a48 323e b2f8 99be
00000140: 1ba5 8cbe 640c a0be ad44 563e 638b 93be
00000150: 32ef 90be 8431 07bd ec98 a8be 4510 40be
00000160: 135f c5bb 1d27 d83d be12 0f3e 480e 753e
00000170: 2414 84bb b725 aa3e b3b0 e3bc 175a 393e
00000180: 2593 62bd 3d7a 5ebe f7be 163e a843 9fbe
0.3122918 -0.10547697 0.16352059 0.0053616217 -0.043421894 0.3511275 0.03701068 -0.39895016
-0.17460206 -0.27821058 -0.009821088 0.0049835555 -0.39950222 -0.093459345 -0.011347465 0.13362724
0.4242102 -0.2915815 -0.20944387 -0.30432308 -0.1434251 -0.19354276 -0.08824144 -0.103419386
0.05937934 0.217274 -0.31540382 -0.18129258 -0.16685393 -0.1163391 -0.14543691 -0.15527399
0.3275496 -0.51567876 -0.42812583 0.18490776 0.3191324 0.46541455 0.28015226 -0.2642756
0.34556246 -0.08569533 -0.022599714 -0.011662524 -0.10141977 0.3342634 -0.16782658 -0.4617176
0.23301567 -0.0024025138 -0.15540104 0.21096572 -0.2681575 -0.4221401 -0.12337449 0.27439198
0.27638 -0.40969604 0.14060366 0.38147005 -0.07933741 -0.33179098 0.31820244 -0.09093716
-0.0041932683 -0.44558007 -0.059037477 0.22734264 -0.26709735 0.030312233 -0.109576516 -0.21976772
0.00035437144 -0.08243367 0.17484765 0.27611458 0.13582923 -0.05872758 0.17410341 -0.30072552
-0.27469715 -0.31259453 0.20924635 -0.2881728 -0.28307492 -0.033006206 -0.3292917 -0.18756206
-0.0060232966 0.10554335 0.13971993 0.23931229 -0.0040307213 0.332319 -0.027794218 0.18100773
-0.05531611 -0.21726318 0.14721285 -0.31106305

feats.Hybridization.weight f4 [100, 5]
00000000: 9a7b 743f b50b 273f 67f8 9b3e 06d9 28be
00000010: 9f5f ccbe 31db 483c d588 c43e 8ff4 773e
00000020: 742e 7cbe a481 aebe 2360 033f 2002 90bd
00000030: 5d61 95be 7a71 20be bcf5 85be e40f b2be
00000040: 14e5 d5be f11a a0be 18bb 273e 20cd e33e
00000050: 51f8 bebd 6864 28bd 3741 543e 6446 b0bd
00000060: 4a48 bb3e 8975 dbbe 11b9 1a3e ebe5 243c
00000070: 7074 1d3d 6c9b 4b3e 6932 f4be 56ed b03e
00000080: 2cf1 a03e e8c7 3c3d 3146 d6be 3073 1e3e
00000090: d265 88be d605 6a3e 786d bb3d 143c 193e
000000a0: 51a8 afbc 72c1 ca3d e56f 8f3e 187f d23d
000000b0: 229c 8e3e a3e3 d5bd 37d8 5f3e 4571 8e3e
000000c0: f36a 4bbe 10d7 b4be 5934 393f d40c 103f
000000d0: f25e 883d bacc df3e c039 5abc 3f8d b63d
000000e0: 3690 ba3e c8af e13b d337 a8be 1068 623e
000000f0: 8f71 963e 7215 88be d556 8e3e 43df e4be
00000100: a845 24be 476c 2fbf 76c1 a43e bab5 a63d
00000110: 1142 e1be 70e0 fa3c ee8b 40bf 529e 87be
00000120: d1c3 ac3e fce7 d0bd 0c1d a63e 9397 533e
00000130: 0e78 64be b21b 863e d44b 98be 284b 2d3e
00000140: b6f1 403e 7084 35be b031 eebd 9d27 8dbe
00000150: 4fdf 96be 03ba a3be b622 e43e f58c 233e
00000160: c4a8 96bd 5ab7 cd3e de6f 633e 4836 b03c
00000170: e1e9 9cbe 0c88 253e decb bbbe c2ce 2bbf
00000180: b994 4c3e e187 b3bd afef c6be ef58 b0be
00000190: ad31 18bd 3a00 143e 4a4d e53e 16b0 d4be
000001a0: a4ee d3be fdd9 5abe df52 ac3e e7d8 64be
000001b0: 140e e13e 4aa1 2ebe 936c 993e 7df4 3e3e
000001c0: 7b97 093e 3e19 a6be ec8e 913e 1fdd 943f
000001d0: dbbe c63c 8998 653e 0660 9f3e 4e5f bd3e
000001e0: 78a0 323d e665 923e 69aa 153e 6c88 dfbd
000001f0: 8e82 8e3e 4fbc 523e 6c43 9fbe 5373 5cbe
00000200: 5c1c 41be 21d1 ddbe 3f7a 48be 5bbf 8abd
00000210: 31ef 693d c0d8 193e 26bd d23e aea2 523e
00000220: 2f72 0d3e 2aee ccbb 5c45 d93e f117 bcbe
00000230: de10 f7be 0f41 e1bd 7fcf a63e ecb7 8e3e
00000240: b85c cabd d3de fb3d 3a7e 563e 4ac3 a43e
00000250: bef3 2dbe 3064 c4bc f6a5 423f fe72 0fbe
00000260: 4ed2 ec3c c0d0 fd3d 703e 9abe dca7 47bf
00000270: bfd1 193e c7b8 063e 0ca2 83be b4f2 9b3e
00000280: 5153 a53e 5436 29be 4e64 bfbe 1e88 4dbe
00000290: 6104 babe e619 a53e e44d 903d 5b1b 973e
000002a0: 10d3 a43d a0ec 5abd 5dc2 813e 1a48 843e
000002b0: 07f9 45be 8c14 853e 02ae 87be 3b96 d5bc
000002c0: 4d98 063f 03e8 05be c884 ef3d 25d9 dbbe
000002d0: be4b 743f e0bc 40be ee78 74bc 9642 0ebe
000002e0: d858 60bd c7e3 c53e 231c a43e 4d2d 58be
000002f0: 10e4 d43d 16de c63e 205a e73e 643d 953e
00000300: e193 093d 60d7 1d3c 0479 82bd b3b1 f23e
00000310: d93e 9fbd a81b f43e 94ae c73e 3cf5 aa3e
00000320: b99b 62bf 39d4 7c3e 492e 663e 1847 0b3e
00000330: 487f 3c3e 20f9 f2be 6c3b 93be 2544 053e
00000340: 7804 d33d d49b a5bd f650 70be 7229 74be
00000350: 6a59 c73d 5c3a c73e e8ce b43d 34ec b6be
00000360: 717e 8a3e 3b29 50be c09f cbbd 9c56 803e
00000370: 43bd 52bc 34aa 2e3e 7e09 a33e 3eeb 33be
00000380: 7464 97be 7f95 e53e 3b52 fb3e c446 433e
00000390: 92e1 973e 8c00 2abe 8498 bebe 2240 8bbe
000003a0: b2ea 98bd 7c32 cdbd b877 1d3d ca37 b3be
000003b0: a89b 1a3d 35ff 973e 7094 d2bd 7c0a b73e
000003c0: e46f 41be 6be3 acbe 6d19 debe 8077 a0bd
000003d0: d483 aabe b7fa a2bf e6c1 173d ca2c c6bd
000003e0: 88aa 463e 4eaa 853e 13a9 2dbe 8264 babe
000003f0: 6bc9 723d 6860 a6be 7292 91be 6d4a f03c
0.955011 0.6525224 0.30462953 -0.16489038 -0.39916703 0.012259291 0.38385645 0.24214385
-0.24627095 -0.34083283 0.5131857 -0.07031655 -0.29175845 -0.15668288 -0.26164043 -0.3477775
-0.41776335 -0.31270555 0.16379964 0.44492435 -0.09324706 -0.04111138 0.20728002 -0.08607176
0.3657859 -0.4286311 0.1510966 0.010064582 0.03844112 0.19883507 -0.4769471 0.34556073
0.31434 0.046089083 -0.41850427 0.15473628 -0.26640183 0.22853789 0.09151739 0.14964324
-0.021442564 0.09900178 0.28015056 0.102781475 0.27853495 -0.10443809 0.21859823 0.27820793
-0.19865017 -0.3532033 0.723455 0.56269574 0.066587344 0.4371088 -0.013319433 0.08913659
0.3643815 0.00688741 -0.3285509 0.22110009 0.29383513 -0.2657886 0.27800623 -0.44701585
-0.16042197 -0.68524593 0.3217885 0.0814013 -0.43995717 0.030624598 -0.75213516 -0.26487976
0.33743146 -0.102004975 0.32444036 0.2066329 -0.22311422 0.26193005 -0.29745352 0.16923201
0.18842205 -0.17726302 -0.11630571 -0.27569285 -0.29467246 -0.31977853 0.44557732 0.1597174
-0.07356408 0.4017895 0.22210643 0.021510258 -0.30647185 0.16165179 -0.36678976 -0.6711236
0.19978608 -0.08766151 -0.3885474 -0.3444285 -0.03715675 0.14453211 0.4478553 -0.41540593
-0.41393006 -0.21372218 0.33656976 -0.22348367 0.43956053 -0.17053714 0.29965648 0.18647952
0.13436691 -0.32441133 0.28429353 1.1629981 0.024260929 0.22421469 0.31127948 0.36986774
0.043610066 0.28593367 0.14615788 -0.10914692 0.2783398 0.20579647 -0.31106126 -0.21528368
-0.18858474 -0.43323615 -0.19577883 -0.067747794 0.057112876 0.1502409 0.41159934 0.2056987
0.13813089 -0.0062539773 0.4243573 -0.36737016 -0.48255056 -0.10998737 0.32580182 0.27874696
-0.09880966 0.1229836 0.20946589 0.32180244 -0.16987512 -0.023973554 0.76034486 -0.1400871
0.028908875 0.123933315 -0.3012576 -0.7799051 0.15021418 0.13156424 -0.2570957 0.30458605
0.32290128 -0.16524631 -0.37381214 -0.20071456 -0.36331466 0.3224632 0.070461065 0.29513058
0.080480695 -0.05344832 0.253436 0.2583626 -0.19333278 0.2599224 -0.26499945 -0.026072612
0.5257614 -0.13076787 0.11695248 -0.42939106 0.95428073 -0.1882205 -0.01492141 -0.13892588
-0.054772228 0.38650343 0.32052717 -0.21111031 0.10395062 0.38841313 0.45185947 0.291484
0.033588294 0.009633869 -0.06370738 0.474012 -0.07775659 0.4767735 0.3900038 0.33390224
-0.88518864 0.24690332 0.22478594 0.13601339 0.18407929 -0.47455692 -0.28756273 0.13014276
0.10303587 -0.080863625 -0.23468384 -0.23843935 0.09733851 0.38911712 0.08828527 -0.35727084
0.27049592 -0.20328228 -0.09942579 0.25066078 -0.012862506 0.17057115 0.3184318 -0.17570207
-0.29568827 0.4484062 0.49086174 0.19069964 0.29664284 -0.16601771 -0.37225735 -0.27197367
-0.074666396 -0.10019395 0.03844425 -0.350035 0.0377461 0.29686895 -0.102822185 0.35750186
-0.18890339 -0.33767256 -0.43378773 -0.07835293 -0.33303702 -1.2732762 0.03705015 -0.096765116
0.1940099 0.26106495 -0.16959028 -0.36404806 0.05927412 -0.32495427 -0.2843204 0.029332364

feats.Hybridization.bias f4 [100]
00000000: f6c9 833e 5a68 833d 6f72 193e cedd 02bf
00000010: f2b0 4fbd 8817 eb3e 93ba a7bd f144 d5be
00000020: 1f66 d23e 1d59 a83e 9b18 92be b67b 89be
00000030: 650e d3bd c18a f2bd dc08 02bf 6555 fabe
00000040: 1e0d adbe 9a9d 5b3c d59e 13be 9d23 863e
00000050: 6580 43be acc3 ab3e b029 83bd de68 ea3e
00000060: 34b6 d6bd 2b8f 003d 9bff 953e d22c 2a3e
00000070: 34ed 6d3e 0de8 b1be 0d1c 2a3e 2b57 86be
00000080: 6180 e2be 81be f93d 5bf9 c13d f8b2 b03b
00000090: f8dc 093e f4d7 a9be c5ed 9abe 4bde 783e
000000a0: 5b8c 7d3e 636f eebe 3528 44be aaff 6c3d
000000b0: fd94 853e 451f ba3e 3726 d83d 6fdb b03d
000000c0: e64b 0bbe 23fc c6be 1efb 8a3e fa22 09bf
000000d0: 295a 91be 03e8 72be 3e7d 4dbd 3909 1cbe
000000e0: 7fa0 b83e dc2d 133e babf 3fbe b7cb 63be
000000f0: baa3 eb3e cc6f 783e d5f8 903e 6292 7c3e
00000100: 5b15 253e 6f6e dc3d 3f3d ab3e 5d7c a53e
00000110: 2cad 873e 1db9 8f3e 9e40 b1bd f3c0 8b3e
00000120: b78e a7be 066f 2dbe ad21 393e 4ff4 c83d
00000130: 98a6 e93e 04d7 c1be 415d 3f3e 24be d73e
00000140: f728 0abd 905f 6c3e 36bf aabe 7ecc 83bc
00000150: 9777 e23e 61af b73e 3e8b 303e 4b06 3abe
00000160: 4afb 3d3e 59d3 053f 8711 cebd 17dd ba3e
00000170: 2cdf 2c3e a628 7f3e ec98 bfbe f954 233e
00000180: f58a f6bd a6fd 883e ae8a 073f c6bd 293e
0.2574002 0.06416388 0.14985059 -0.511197 -0.050705858 0.4591639 -0.08189883 -0.4165416
0.41093537 0.32880488 -0.28534397 -0.26852196 -0.1030548 -0.118428715 -0.5079477 -0.48893276
-0.3379907 0.013404274 -0.14416058 0.26199046 -0.19091947 0.33547723 -0.06404436 0.45783132
-0.10483971 0.031386536 0.29296574 0.1661866 0.23235017 -0.34747353 0.16612263 -0.2623838
-0.4423857 0.12194539 0.09471389 0.0053924285 0.13463199 -0.33172572 -0.3025953 0.24303548
0.24760573 -0.46569356 -0.19155963 0.057861008 0.26090232 0.36351982 0.10554164 0.08635604
-0.13603172 -0.3886424 0.27144712 -0.53568995 -0.283891 -0.23721318 -0.05016827 -0.15237893
0.3605995 0.14372963 -0.18725482 -0.2224568 0.4602335 0.24261397 0.28314844 0.24665216
0.16121428 0.10763251 0.33445165 0.32321444 0.26499307 0.28070918 -0.08654903 0.27295646
-0.3272607 -0.16936883 0.18079253 0.09812223 0.45634913 -0.37859356 0.18687917 0.42137253
-0.033730473 0.23083329 -0.33349007 -0.01608872 0.44231865 0.3587599 0.17240617 -0.18166463
0.1855289 0.52275616 -0.10061937 0.36496803 0.16882008 0.2491785 -0.37421358 0.15950383
-0.12038223 0.26756018 0.52945983 0.16576299

feats.FormalCharge.weight f4 [100, 1]
00000000: a098 debe c2f6 3440 6d0f 55bf 4a10 0dbf
00000010: d18e 3fbf 43cd 323f 475e a7bf dcdf 43bd
00000020: 554b 31bf a85e 263f 4d52 5d3e 6e1d 95be
00000030: 9605 4d3f d1c8 403f c7ec 833f e33b 85bf
00000040: 9f58 03be 5ba3 dc3f aa4e dc3e 9a32 92be
00000050: fd9b 57be e43e 903e c4ec c33f 1632 3fbf
00000060: df61 92bd 25a7 bcbe 3c22 df3e 4291 093f
00000070: c58e 093f caf2 56bf 4656 f6bf d748 3f40
00000080: e203 af3f 5c25 4abe 071b 5dbf aaef dc3e
00000090: c16d 9ebf 27de 1bbf 45d3 e1bf 198a 24bf
000000a0: 2ee4 0140 9f97 ba3f 0746 72be 3c64 943e
000000b0: cea1 26bf 5e56 1bbf 72fc 593e a541 243f
000000c0: c64c dc3c 2aa2 2740 865f 08bf 7dfc 5b3f
000000d0: 9006 413f 5d60 ba3f e994 2b3f 9b4c 833f
000000e0: db06 79bf 2d0a 183f 0c80 8bbe cae4 20bf
000000f0: fa7d 1dbf 6fd9 44bf b072 6e3f 25bb 05c0
00000100: a0cc 56bf cf5f 13bf 063c 553f f3b4 f33f
00000110: 2bea 93bc f69a 34be 8266 fdbe 8ef6 83bf
00000120: ecd1 6fbf 0e83 98bf 3fbe 55bf 0ab2 273f
00000130: 8e62 193d 6f0a 9fbe fe60 d33f 0085 ceb8
00000140: d0ce ccbe eb46 3340 38dc f3bd 5430 3bbf
00000150: 3d10 f53e 2767 da3f 9027 febe 45ac d53f
00000160: e45e c23f 3509 1bbf 8618 c0bf 3828 603f
00000170: 81ee a53e ecb0 0f3f a29f 3ec0 c996 61bd
00000180: d3cc b53e bd99 d2be 5dca 01bf 0182 523f
-0.4347582 2.827561 -0.8322666 -0.5510298 -0.74827296 0.69844455 -1.3075646 -0.04782091
-0.6925557 0.64988184 0.21613427 -0.29124016 0.8008665 0.7530642 1.0306634 -1.0408901
-0.12826775 1.7237352 0.43028766 -0.2855423 -0.21055599 0.28172982 1.530663 -0.746858
-0.07147574 -0.3684627 0.43580806 0.5373727 0.53733474 -0.83964217 -1.9245079 2.9888208
1.367306 -0.19740814 -0.86369365 0.431516 -1.2377244 -0.6088585 -1.7642599 -0.6427322
2.029552 1.4577521 -0.23659526 0.28982723 -0.65090644 -0.6067866 0.21287706 0.64162666
0.026892077 2.6192727 -0.5327076 0.8593214 0.7540064 1.4560658 0.67024094 1.0257753
-0.97276086 0.59390527 -0.2724613 -0.62849104 -0.6152035 -0.7689428 0.9314375 -2.0895474
-0.8390598 -0.5756807 0.83294713 1.9039596 -0.018055996 -0.17637238 -0.4949227 -1.0309618
-0.9367969 -1.1914995 -0.8349342 0.6550604 0.037447505 -0.31062648 1.6513975 -9.847619e-05
-0.40001535 2.8012035 -0.11907238 -0.7312062 0.4786395 1.706273 -0.4963956 1.6693197
1.5185208 -0.60560924 -1.5007484 0.8756137 0.32408527 0.56129336 -2.9784932 -0.05507544
0.3550783 -0.41132918 -0.50699407 0.8222962

feats.FormalCharge.bias f4 [100]
00000000: 722c 873e 0def 633d 419b f1bd e960 193f
00000010: 25a4 51bf bb5a 39bf 2d6b 81bf 0c9b b0be
00000020: a265 b8bd 6c5d f43e d896 ad3e 8993 c23d
00000030: f96e 3f3f 771b b73e 47a6 ccbe 582d 1b3f
00000040: 69b2 793f 2d2c 10bf 8e11 d73d 28fb 5d3f
00000050: 24ea 2fbf 4b09 27bf 68bd 453e 879f 56be
00000060: f456 6abf 7ea8 dd3e 4d81 3cbf 9761 40be
00000070: 37ce 963e b930 36bf a104 24bf 3c68 55bf
00000080: 1394 613c 99f9 67bf a1d0 df3e a4c2 3ebf
00000090: c523 b83e 2ed9 0ebf 7d74 403f fff2 69bf
000000a0: 9f83 553f 336e 39bf 97c3 b43e b3e6 aabd
000000b0: 7c0d 82bf cca2 24bf a040 2e3f 005d fb3e
000000c0: cb82 c93e 5d39 5b3f 0308 953e 7039 1c3f
000000d0: 3a14 3b3d 5c76 4c3f 8788 c43d 7d1d 483c
000000e0: ea12 93be d2e2 c13e b8ec ee3e 89a8 013f
000000f0: a0d2 cc3b 5b4d fc3e b634 08bd 47d7 40bf
00000100: 6784 8fbe fac1 cdbd 96c4 183e eeba 383e
00000110: 7c66 fb3e b751 7b3f 8b4e 253f e1b0 a93e
00000120: e637 a83e 9684 45be 5853 8b3e eb9d 10bf
00000130: 3abc 38bf 2db1 da3e 291f 26bf d60f 60bf
00000140: 0a87 17bf 77e0 393f 853c 7abc 2492 063f
00000150: 176b 053c e7a9 b1be aaeb 10bf 8b99 713f
00000160: 0892 9fbe 1462 1f3f 740b 4dbf d229 2ebf
00000170: c39c 2c3f 83af bd3e 58a3 aa3e 3209 18bf
00000180: 571b 4ebf 95d8 b63e db94 383f 8094 cd3e
0.26401097 0.0556479 -0.117971905 0.599135 -0.8189109 -0.7240407 -1.0110832 -0.3449329
-0.0900376 0.47727525 0.33904147 0.09500796 0.74778706 0.35763142 -0.3997061 0.60616064
0.9753786 -0.56317407 0.10501395 0.8671136 -0.68716645 -0.65248555 0.19310534 -0.20959292
-0.9153893 0.43292612 -0.736348 -0.18787228 0.29454204 -0.71168095 -0.64069563 -0.83362174
0.013768214 -0.9061523 0.4371386 -0.7451575 0.3596479 -0.5580014 0.75177747 -0.9138641
0.8340396 -0.72433776 0.35305473 -0.08344784 -1.0160365 -0.6431091 0.6806736 0.4909439
0.393576 0.85634404 0.29107675 0.6102514 0.045673586 0.798681 0.09596353 0.012214062
-0.28725368 0.37868363 0.46664977 0.5064779 0.0062506944 0.49277768 -0.033253394 -0.7532849
-0.28030702 -0.10046764 0.14918742 0.18040058 0.49101627 0.9817156 0.6457297 0.3314276
0.32855147 -0.19288859 0.27212024 -0.56490964 -0.7216221 0.427133 -0.64891297 -0.87524164
-0.5919043 0.7260813 -0.015273218 0.5256674 0.008143208 -0.34699938 -0.56609595 0.9437491
-0.311661 0.6225903 -0.800956 -0.6803256 0.674267 0.37047967 0.33327746 -0.5938903
-0.8051047 0.35712114 0.72102135 0.4015236
