attention_pooling100_human.pth (torch, 55913 bytes, 23 tensors)

gates.AtomicNum.nn.0.weight f4 [1, 12]
00000000: e6c1 93bd 65df 55bf 858f 75be d20c abbd
00000010: 1020 75bd a087 d83e 9354 5b3e 9d60 42be
00000020: 126e a9bf 8ca4 7fbe 2fbc 37be 7b0f b03f
-0.072147176 -0.83544 -0.2398053 -0.08352055 -0.05984503 0.42290974 0.21418981 -0.18982168
-1.3236716 -0.24965113 -0.1794288 1.3754724

gates.Degree.nn.0.weight f4 [1, 6]
00000000: b372 04bf d16a ed3d eef1 7f3e 167a c4bf
00000010: c87e 8d3e 9008 9c3c
-0.5173752 0.11592639 0.24994633 -1.5349758 0.2763579 0.019047052

gates.TotalNumHs.nn.0.weight f4 [1, 5]
00000000: c595 d33e 5964 803e e4f9 953f 8f10 dfbe
00000010: 4f99 a7be
0.41325203 0.2507656 1.1716886 -0.4356732 -0.32734153

gates.ImplicitValence.nn.0.weight f4 [1, 6]
00000000: 53ac a0be 6466 983e eb74 893c ff31 8e3f
00000010: 404e 39bc 1075 c03e
-0.31381473 0.29765618 0.016779384 1.1109008 -0.01131016 0.37589312

gates.Hybridization.nn.0.weight f4 [1, 5]
00000000: 5784 c93f c304 2c3f bd72 09bc 7047 96bc
00000010: 430d 123f
1.5743512 0.67194766 -0.008389172 -0.01834461 0.57051486

feats.AtomicNum.weight f4 [100, 12]
00000000: 2086 6a3d 5561 4c3e 809a d0bb 987d 0b3d
00000010: f8ba 8e3d 636d 63bf 0832 a0bd a346 103e
00000020: 73ca 733f 55e2 62c0 e805 29bd f190 d73f
00000030: 1122 0dbe f97e 7abf 6408 42be 8e44 04be
00000040: 70bb 3a3e 0474 0c3e e6f7 9ebe 524d e23e
00000050: 2088 a13f afa6 a1bf 6026 4b3e 8f3f aa3d
00000060: 5a58 4a3e 094d dbbe 30e4 4f3d 6cfd 9ebd
00000070: 36a6 073e 365b 0a3d 565f f73c 73c7 0b3f
00000080: 1e5d acbe 7151 dd3e f054 8cbd 8284 ddbf
00000090: f0b9 4cbd 03e2 553f f82f 373e c678 3e3e
000000a0: a11f 72be 436b 523f b780 0dbe 394d 9d3e
000000b0: caf8 133f e24c ba3d fcc7 5ebe fb7e 8e3f
000000c0: 0662 883e d540 7bbf c0be 703e 6ce9 913e
000000d0: 2a7d 283e fac3 68bf ab0e babb c38c ab3f
000000e0: 0fa1 1fbf 191c 533f e03e a03c 2a38 0ebf
000000f0: b009 b13c 07ac 553f b41e 37be bc40 643e
00000100: cc24 64be 18a1 f83e 2e8d 43be 4490 a2bf
00000110: 1584 d33f 241e fa3d acc2 573e ff0d e43e
00000120: 6ed1 f5bd 678d 693e e8dd 583e a053 493c
00000130: d69c 253e dfdd 58bf 3d0a af3e c49b d2bf
00000140: 0243 b9be 24e6 ffbe f01e 593d 61ca a93f
00000150: 14d7 7bbd 8ca0 843f a431 853e 0a52 84be
00000160: 1888 c23d a835 f0bd e3a2 593e bed4 8e3f
00000170: 61b2 8b3e 7098 52c0 58f9 08bd 306d 8c3f
00000180: e893 1b3d 6fe4 4dbf a266 083e cc9b 863e
00000190: 084f de3d beae aebf bfcc 4a3f b67d e83d
000001a0: 41b5 c2bf 5d38 be3f 0673 5bbe 9ec7 0bc0
000001b0: ae5a 933e 0665 2c3d 4081 21bd ca67 4d3e
000001c0: 9032 383e bc82 99bf 2638 a23e cc55 9bbe
000001d0: e709 c6bf d3db dc3f 7824 743e c545 bd3e
000001e0: c6a9 403e 44b6 823f 4569 8ebe faa1 f8bd
000001f0: 004f a23a 03e3 03bf dbbf 1b3e c4e0 103e
00000200: a1b5 8bbf 430a b4bf 6cb1 85be 13af b43e
00000210: 304e 983d 9451 a7bd 0eb0 fdbd 3ec0 343e
00000220: 74db 1fbe 608e a73e e0f3 9f3e fadd 643f
00000230: 49e9 eabf b6b9 dabe 8cd5 ec3d 3642 5f3f
00000240: 3ae9 8dbd 0cb2 4b3e 5c0e 63be 4874 8e3d
00000250: 23f9 0dbe 7bf9 373e 653d 46bd be52 9fbf
00000260: 6ca2 cd3e dcb9 fd3f 4804 ea3d 28ad 3c3e
00000270: 7c67 c53d c49d 92bf f099 c83d 2e3c 90be
00000280: e4a0 603e 1805 79bf 51a8 4c3e 35d2 abbe
00000290: e698 b73e 0ea5 d63e c623 5bbe 6d6a a4bf
000002a0: c037 313c a7f9 9b3d 1089 f43d c0b4 eb3c
000002b0: 1404 1d3e deb1 253f dad0 b33d ffc0 44bf
000002c0: f0ae 44bf dd1f 2c3e e654 173e 8f56 f53d
000002d0: 1a57 43be a16c f7be bcec 413e 132f 28be
000002e0: a24a 3dbe fa87 00bf efba cf3d f2d1 d13c
000002f0: 7ea3 5b3f 025b fdbe 52e0 b8bd ac3f 81bf
00000300: 5854 453d 066f 7cbf 4866 65be 3da1 2bbe
00000310: a6fa 0a3e 6ec2 31bd 68c6 793d 0934 313f
00000320: 5bbb 0abe 17bc 8dbf 80bb 023d 7e21 1cbf
00000330: 069b 513e 9903 32be 70d5 823d 88dc 903d
00000340: 4a30 23be ce22 a9bf 87de 623e 60c1 0dbf
00000350: 299d 88bf 7fb3 b33f 52f9 103e 9038 cabe
00000360: 50d4 483e bc29 68bf e826 a6bd 465c 91be
00000370: 9cf8 a83d 34f9 f5be 1d7e 9bbd 2ea8 8a3f
00000380: 78a9 bd3e 0ea9 ee3f 6ad5 053e b514 a7be
00000390: 9add a1bd 03e6 01bf 9014 aabc 5451 4e3e
000003a0: eaec 913e e043 123f dc3b c4bd 97ae f33f
000003b0: 48fe ac3e da3a 9f3e 3ef8 e4bd 5a5d 9bbf
000003c0: ca8f 853e 618e 333f 9460 c63d 8e90 833e
000003d0: 6862 3bbd 006f fd3e 741f 993d a59b 94bf
000003e0: 53a8 33bf a340 54bd 7cba 37bd 65bf d1bd
000003f0: 5cb3 3fbe 4e00 22bd 70b4 38bd 0e47 66be
0.057256818 0.19959004 -0.006366074 0.034055322 0.06969255 -0.88838786 -0.07822043 0.14089446
0.9523079 -3.5450642 -0.0412654 1.6841108 -0.13782527 -0.97849995 -0.18948513 -0.12916777
0.18235564 0.13716131 -0.31048506 0.44199616 1.2619667 -1.2628993 0.19838858 0.08312904
0.19760266 -0.4283221 0.050754726 -0.0776318 0.13246998 0.03377839 0.030196827 0.5460121
-0.33664793 0.43226197 -0.06852138 -1.7306063 -0.04998201 0.8354799 0.17889392 0.18600759
-0.23644878 0.8219492 -0.13818632 0.3072298 0.57801497 0.090966955 -0.21755975 1.1132501
0.26637286 -0.981458 0.23510265 0.284984 0.16453996 -0.90924037 -0.005678018 1.3402332
-0.6235513 0.8246475 0.019561231 -0.5555445 0.021611065 0.8346562 -0.17882806 0.22290319
-0.22279662 0.48560405 -0.19096825 -1.2700276 1.6524683 0.1221278 0.21070355 0.44541928
-0.12002836 0.22807847 0.211784 0.012288004 0.1617311 -0.8471355 0.341875 -1.6453786
-0.36183935 -0.4998027 0.05300802 1.3264886 -0.06148441 1.0361495 0.26014435 -0.2584384
0.09498614 -0.11728984 0.21253543 1.1158674 0.2728453 -3.290554 -0.033440918 1.0970821
0.03798285 -0.80426687 0.13320401 0.2629074 0.10854918 -1.3647077 0.7921867 0.113521025
-1.5211564 1.4860951 -0.21430597 -2.1840587 0.2878012 0.04208853 -0.039429903 0.20059124
0.17988038 -1.1993022 0.31683463 -0.30338895 -1.5471772 1.7254585 0.23842037 0.36967292
0.18814763 1.0211873 -0.2781469 -0.121402696 0.0012383163 -0.5151827 0.15209906 0.14148241
-1.0914804 -1.4065632 -0.26111925 0.3528982 0.07436788 -0.08169857 -0.123870954 0.1765146
-0.15611058 0.3272581 0.3124075 0.8940121 -1.8352443 -0.4271981 0.11564168 0.87210405
-0.0692925 0.19892138 -0.22173446 0.06955773 -0.1386457 0.17966263 -0.048398394 -1.2447126
0.4016298 1.9822345 0.11426598 0.18425429 0.09638879 -1.1454396 0.09794986 -0.28170913
0.21936375 -0.972734 0.19986083 -0.33558813 0.3585884 0.41922802 -0.21400365 -1.2844979
0.0108165145 0.07615977 0.11940205 0.028772712 0.15333587 0.6472453 0.0878007 -0.7685699
-0.76829433 0.1680903 0.1477848 0.119794 -0.19076195 -0.48325065 0.18937963 -0.16424207
-0.18485501 -0.50207484 0.10143077 0.025612805 0.85796344 -0.49483496 -0.09027161 -1.0097556
0.04817614 -0.9860691 -0.22402298 -0.16760726 0.13572177 -0.043398313 0.06098023 0.69220024
-0.13548033 -1.1073025 0.031917095 -0.60988605 0.20469293 -0.17384185 0.06388366 0.07073313
-0.1593639 -1.3213747 0.221552 -0.5537319 -1.0672961 1.4039153 0.14157608 -0.3949628
0.19612241 -0.9068868 -0.081128895 -0.28390712 0.082505435 -0.4804169 -0.075924136 1.0832574
0.37043357 1.8645341 0.13069692 -0.32632986 -0.07903595 -0.50741595 -0.020761758 0.20148212
0.28501064 0.5713482 -0.0958173 1.9037656 0.3378775 0.31099588 -0.11180161 -1.2137864
0.26086265 0.7013913 0.096863896 0.25696224 -0.045748144 0.4949875 0.07476702 -1.1609999
-0.7017872 -0.051819455 -0.04485558 -0.10241584 -0.18720764 -0.03955107 -0.045093954 -0.22488043

feats.AtomicNum.bias f4 [100]
00000000: fa01 8dbe 35af d9bd 0bbc a73e a658 a5bd
00000010: 697d 8dbe 5646 8b3d 9e86 9fbd bb69 c53e
00000020: 64ce b13e e67d 4b3e 9821 6abd 8d28 983e
00000030: f7e5 30bd b4c0 99bc 184a 61be 1668 43bd
00000040: 7f89 463e 264c 51be 565f a23d ce79 5d3e
00000050: 14e5 bdbb 04e5 a13e 9153 ec3d a9fe ba3e
00000060: 25e6 1cbe fae1 a23e bf94 0bbe d82f 0a3e
00000070: 7f0d a23e dde7 033d 8a74 59be 9bbf 893e
00000080: 16b5 893e 3dba 65be 2fc5 bb3e 939c 3b3e
00000090: 2f80 b03e 30f0 9f3e 97f0 c2bd 26aa 8d3e
000000a0: e128 f73d cdda 783c a5d6 9b3e 1c8c 503e
000000b0: 0cbe d93d f5ab b9be ba58 d1bc d152 5f3e
000000c0: 70da 1ebe bf83 633e 8eb4 0e3e f47f 1b3e
000000d0: 06b3 953e 4443 5f3d f9a7 783d 42ae 81bd
000000e0: 99e6 84be 907d ce3e 12b2 43bc cdd5 eebe
000000f0: e36b 8abd de89 a2be 956a aabe e07d 01bd
00000100: 77ea 3c3e 7608 eb3d 85e1 08be 63de 94be
00000110: d6ea 00be e354 3a3e 5620 98be d5c0 093f
00000120: 800b 3cbd a6c0 b13e fbe9 6a3e 8858 aa3e
00000130: 2f8e bd3e 59bb b33e 98c5 19be 52e5 26bf
00000140: ba3a 8ebe 5928 0ebf f963 58be 312e 723e
00000150: b32a 3d3e 1aa1 743e 9e84 8abe 963b 983e
00000160: d9f3 0abd c2ba 34be fae1 44bd ee83 783e
00000170: f8b1 a9be 758a 18bd 4745 503e 3e5f ba3e
00000180: 1a5f 00be e3d1 013f 3881 a1bc 95f5 ae3e
-0.2754057 -0.10629121 0.32760653 -0.08073549 -0.27634743 0.06800525 -0.07789348 0.38557228
0.34727776 0.19872245 -0.057160944 0.29718438 -0.04318806 -0.018768646 -0.22000921 -0.047706686
0.19388388 -0.20439205 0.0792834 0.21628496 -0.0057951305 0.31620038 0.115393765 0.36522415
-0.15322168 0.3181303 -0.13630961 0.13494813 0.31650922 0.032203544 -0.21235862 0.26903996
0.2689597 -0.22434326 0.36673877 0.18321447 0.34472796 0.31237936 -0.09518545 0.27668875
0.12068344 0.015188885 0.30437198 0.20365947 0.10631952 -0.36264005 -0.025555003 0.21808936
-0.15513015 0.22218226 0.13936064 0.15185529 0.29238147 0.05450751 0.060707066 -0.06332065
-0.25957182 0.40330172 -0.011944311 -0.46647492 -0.06758859 -0.3174581 -0.3328444 -0.031614184
0.18448816 0.11476223 -0.13367279 -0.29075918 -0.12589583 0.18196444 -0.2971217 0.53809863
-0.045909405 0.34717292 0.22940819 0.3327067 0.3702254 0.35103872 -0.15016782 -0.65193665
-0.2777918 -0.55530316 -0.21131887 0.23650433 0.1847332 0.2388958 -0.27054304 0.2973296
-0.033923957 -0.17649367 -0.04806707 0.24269077 -0.33143592 -0.037241418 0.20338927 0.3640079
-0.12536278 0.50710887 -0.019714937 0.3417174

feats.Degree.weight f4 [100, 6]
00000000: 02be f23e 386c 26c0 ce6e 443f 955e f5bd
00000010: 297a b73f 8a25 ae3e 77cf 12bf 0848 dcbf
00000020: d250 173f 8620 b9be c8da 983f 8047 d43d
00000030: 40dd 8d3f 471a b33f 3b0c 81bf dfbc 9f3f
00000040: 7995 20c0 40e2 c63e 8f28 743d 220d 9fbf
00000050: ca52 203e 5018 873e 8bdb d3be f86b adbe
00000060: e692 90bf 4ce0 32bf 6762 afbe bf8d 133f
00000070: 3107 383d 00ed a23d d120 843f 2034 0bbf
00000080: 7e29 2c3f 6ea8 73bf 4076 3740 6062 ce3c
00000090: b0da dbbe 9d9e 15bf 403f d83e 49ce 8abf
000000a0: d23c 1a3f 80fb e83b f3a7 21bf ce21 0ec0
000000b0: 6ff3 e6bd a44d d33e 0521 883d 81b3 8fbe
000000c0: b70d a9bf 7e6b c43f 3ba1 88be a131 f53e
000000d0: f9e9 44bf 80e6 50bc 0f10 66bf 3b7c d73e
000000e0: b341 13bf 2dab 3c3e 7c7f b8bf 9286 3abe
000000f0: 8025 e7be 1b04 12be da62 d23e b447 8dbb
00000100: e644 1a3f 0023 28bc b451 1bbf d681 013f
00000110: 7047 fdbe 04f4 c7bd 39b4 45be 1815 663e
00000120: ddf9 623f 9c13 9cbe 76f5 463e 97b7 bebe
00000130: 94c9 ca3d d03f 943e 7e43 d5bf 4482 c4bc
00000140: 108f 923e 07d8 cd3e 0ba3 adbe ec77 11be
00000150: 5532 bf3f 5352 353f 5c6c 48bf 72b3 9f3e
00000160: 31e1 5cbf 28f9 b1bd 1fcd abbf e6fb 5bbf
00000170: fed7 613f f941 36bf 206e 5d3f 6058 36bc
00000180: d5d4 b0bf 5eae f0be 829b 823e 97d0 c43e
00000190: 551e 013f 30e6 f23d 10f9 083f 3a07 a73f
000001a0: 2877 5abf 6896 393f f525 35bf b835 7d3d
000001b0: d245 80bf c731 013f a813 0d3f 1a1c ccbe
000001c0: fd13 16bf c24d 923e 8360 98bf 14e5 023f
000001d0: 5351 92bf 6cfe 5e3f aefd 0cc0 021d 90be
000001e0: 6190 703f ed35 733f 9fb5 86bf dd14 f93d
000001f0: 6ed9 f73d e72c 7cbe 86e2 8dbe 2c2b b33d
00000200: 4797 633e 371b 4abe e213 a8bf 6eee a8be
00000210: 70bd 173f 3d86 923a 377c 143e b0c5 7bbe
00000220: da44 ca3f 981c 1c3e 5c93 58bf 0653 de3e
00000230: c278 2abf f52f 2d3f 70e0 cebf f5b5 aebe
00000240: 3504 853f 01c4 d03f 94b3 3ebc 3a27 5cbd
00000250: e308 dbbf 948c 9ebe 1da7 cd3b 1add 21bf
00000260: 9c6b 0d3f 5ee5 bdba 0881 973f 9c0b edbd
00000270: 1367 8f3f ee6e d0be 659d ff3e 6974 ecbe
00000280: d90f 823f 18a2 eebd f10d 933f 6370 ad3f
00000290: b09f 50bf aa96 093f 8c84 bebf 70c1 cebe
000002a0: a09c ddbf 8b8d 9c3f 311f eb3d d82f 853d
000002b0: 6630 d0be f93c 23be 689b 863c 3b2e 123f
000002c0: c2ae 97be c2c6 24be 0c2a fdbf 5c6b 5ebe
000002d0: a121 82bf 36d9 f7bf e1ce 623f e405 f0be
000002e0: 6005 de3f 6c2e 783e e55e a6bf 7a8c 19bf
000002f0: bcde 753f 6687 693d c5eb 3f3f 68c6 b03d
00000300: 7710 4ebf 0376 0e3e 87c4 9f3e 651d 22be
00000310: 6fdf f03e 3a22 b1be 8fb0 863f 0608 d4bf
00000320: 6acd 27bf fc8c 59be bbe1 613f d141 4ebe
00000330: 23f9 5e3e 06af 9abe 4548 d53e dfc0 ffbc
00000340: f8d8 eebf c421 c6be a3b0 3e3f 533c 1cbf
00000350: 9436 8abd 6dcc e9bd 2504 f23f 003c 9a3a
00000360: 7393 68be e322 c13f 850c ddbe fffd 6e3f
00000370: ca83 c9bf 664f bdbe 0c23 ef3c f83b 9b3f
00000380: c15c ccbf 2ae5 e03e f7b6 90bf c8c7 4f3e
00000390: 782d b93f 0aa0 67bf ad47 a33e b2c4 b03e
000003a0: 37bf 5a3b 4063 673d f30b abbf 46e1 173f
000003b0: 031b 59be 9d12 1e3f db9a 37bf f4aa cb3e
000003c0: e923 49bc b6f0 18bf 3c5e 4abe 7ebd 423f
000003d0: eab0 efbf a8b4 c9bd 549e 883f 8839 c03f
000003e0: b27f 9c3e bd08 c8bc 6a9b dabf ecce 593e
000003f0: 27c9 973f 491a 0a40 34a7 65bf 5e9b c03d
0.4741059 -2.6003551 0.76731575 -0.11980931 1.4334155 0.34013015 -0.57347816 -1.7209482
0.59107697 -0.36157626 1.1941767 0.103652 1.1083145 1.3992394 -1.0081857 1.2479514
-2.509123 0.3884449 0.059608992 -1.2425883 0.15656582 0.26385736 -0.41378435 -0.33871436
-1.129483 -0.698735 -0.34254763 0.5763816 0.044928733 0.079553604 1.0322515 -0.5437641
0.6725081 -0.9517888 2.8665924 0.025193393 -0.42940283 -0.5844515 0.42235756 -1.0844203
0.60249054 0.0071100593 -0.63146895 -2.2208133 -0.112769 0.41270173 0.06646923 -0.28066638
-1.320731 1.5345304 -0.2668551 0.47889426 -0.76919514 -0.012750268 -0.89868253 0.42086968
-0.57522124 0.18424673 -1.4413905 -0.18215397 -0.45145798 -0.14259379 0.41091043 -0.004311526
0.6026138 -0.010262251 -0.60671544 0.5058874 -0.49468565 -0.09763339 -0.1930703 0.22468984
0.8866251 -0.3048371 0.19429573 -0.37249443 0.09901729 0.28954935 -1.6661222 -0.023987897
0.28624773 0.40203878 -0.33913454 -0.14205903 1.4937235 0.7082874 -0.78290343 0.31191593
-0.86281115 -0.08690101 -1.3421973 -0.8593124 0.882202 -0.71194416 0.8649616 -0.011129469
-1.3814951 -0.47008032 0.25509268 0.3844039 0.5043691 0.11860311 0.5350504 1.304908
-0.8533807 0.72495127 -0.7076104 0.06181881 -1.0021307 0.5046658 0.5510812 -0.3986519
-0.5862425 0.2857495 -1.1904453 0.51130795 -1.1431068 0.87106967 -2.2029834 -0.2814713
0.93970305 0.9500416 -1.0524176 0.121621825 0.12102018 -0.24626504 -0.27711886 0.08748469
0.22225676 -0.19736944 -1.3131068 -0.32994407 0.59273434 0.0011178922 0.14500509 -0.2458713
1.5802262 0.15245283 -0.8459985 0.43422717 -0.6659051 0.676513 -1.6162243 -0.34123197
1.0391909 1.6309816 -0.011639494 -0.053748347 -1.7112087 -0.30966628 0.006276025 -0.63228
0.55242324 -0.0014487912 1.1836252 -0.1157448 1.1203331 -0.40709633 0.4992477 -0.46182564
1.0161086 -0.11652011 1.148863 1.3549923 -0.81493664 0.5374552 -1.48842 -0.40381956
-1.7313423 1.2230695 0.11480559 0.06503266 -0.40661925 -0.15941228 0.016431525 0.5710179
-0.29625517 -0.16091445 -1.9778457 -0.21720642 -1.0166513 -1.9363163 0.8859692 -0.46879494
1.734539 0.24236459 -1.299771 -0.59979975 0.9604299 0.05701389 0.7496913 0.08631593
-0.80493873 0.13912205 0.31204626 -0.15831526 0.47045466 -0.34596425 1.0522631 -1.6564949
-0.6554781 -0.21245188 0.8823506 -0.20142294 0.21774726 -0.30211657 0.416567 -0.031219898
-1.8659964 -0.38697636 0.74488276 -0.6102955 -0.06748691 -0.11415944 1.8907515 0.0011767149
-0.22712497 1.5088772 -0.43173614 0.9335632 -1.5743344 -0.3697464 0.029191516 1.2127676
-1.5965806 0.43924838 -1.1305836 0.20291054 1.4467001 -0.90478575 0.31890622 0.34525067
0.0033378133 0.056491137 -1.3363022 0.59328115 -0.2120171 0.6174715 -0.71720666 0.39778864
-0.012276628 -0.59742296 -0.1976251 0.7607039 -1.8725865 -0.098489106 1.0673318 1.5017557
0.30566174 -0.02441823 -1.7078679 0.2127034 1.1858262 2.1578543 -0.89708257 0.09404634

feats.Degree.bias f4 [100]
00000000: f86a f1be e0e5 83bd 0fe5 90bd e23a 1a3d
00000010: ef69 d6be 1b69 e03e a5c0 153e 2481 e4bd
00000020: 52a1 87be 376e ccbd 2b1f da3e ff1e bdbe
00000030: d778 b83e c765 56be 10ae 953d 6a18 7e3e
00000040: e59b 3b3e 9eee 103e d90d 87be e67e afbe
00000050: f1c1 f2bd 6e35 92be d8d3 753e 4279 8abe
00000060: 8c47 cf3d cd62 ae3e 1961 f63e 98d1 283e
00000070: 4691 d03d a9a5 a03d 4f25 a23e a8ab 85be
00000080: 097d 953e c222 9ebe 2390 983e c6ff aa3d
00000090: 14e6 4abe b24a 40bf 2d75 6b3e 8556 5f3c
000000a0: 0c86 a3be 40ac 30bd 9249 cbbd 47f4 6fbe
000000b0: 842c 7e3c ff82 a4be 62bc 953e fb26 d1be
000000c0: 3f89 4abd 4ac8 8dbe 155c 193f fb9c 1fbe
000000d0: e98d 763e 93e0 03be f553 a9be 2169 ccbe
000000e0: 139c 55bd bfdf f33d cc6a 923e e30e 1fbe
000000f0: 3eef b8be e5e9 a6be a94e a53d a612 3e3c
00000100: e428 51be c643 15bf bb11 793e 7999 82be
00000110: 8685 243e 1691 e3be 2074 043f fa7c a23e
00000120: 37d2 57bd c8a4 a9bc 99f9 cf3e 0138 7fbe
00000130: f747 803c 55c5 cf3e 4f49 aa3e 76dd 17be
00000140: b772 1ebd a588 dc3e 689c 4cbe 9c57 7ebd
00000150: aa89 a5bd 372c e2bd fd86 aebc 36d3 9fbd
00000160: fd07 423e 2f2e d33d 3bed 973e 56ae 3e3d
00000170: 32bd 0fbf fc6a 033e 22ba 3abf 7fd6 e6be
00000180: 7b99 463c 6649 23be c445 8a3e f65b 383e
-0.47151923 -0.064403296 -0.070749395 0.03765381 -0.41877696 0.4383019 0.1462427 -0.11157444
-0.26490265 -0.09981959 0.42601904 -0.3693771 0.36029693 -0.20937262 0.073085904 0.24814
0.18321188 0.14153525 -0.26377752 -0.34276503 -0.11853398 -0.2855639 0.24006593 -0.27045637
0.10121068 0.34059754 0.48120955 0.16486204 0.10183959 0.07844097 0.3166909 -0.26107526
0.29196957 -0.30885893 0.29797468 0.08349566 -0.1981433 -0.75113976 0.22993918 0.013631468
-0.31938207 -0.04313302 -0.09926142 -0.23433028 0.015513543 -0.32131192 0.29245287 -0.40850052
-0.049447294 -0.2769187 0.5990613 -0.15587227 0.24077572 -0.12878637 -0.33071867 -0.39923957
-0.052150797 0.119079106 0.28597105 -0.15533023 -0.36120027 -0.32600322 0.08071644 0.011601126
-0.20425755 -0.5830654 0.2432317 -0.25507715 0.1606656 -0.4444663 0.5173969 0.31735975
-0.05269071 -0.020708457 0.40620115 -0.24923708 0.015659316 0.4058024 0.33259055 -0.14830574
-0.03868362 0.43073002 -0.19981539 -0.06209527 -0.08082898 -0.110435896 -0.021304602 -0.07803957
0.1894836 0.10311543 0.2967318 0.04655298 -0.56148064 0.1283378 -0.72940266 -0.45085523
0.0121215535 -0.15945968 0.27006352 0.1800383

feats.TotalNumHs.weight f4 [100, 5]
00000000: 38d2 903f b0ae b6bf cb82 1b3f a733 3c3e
00000010: acc4 93be b53e 253f 46bf 54be 13b3 68bf
00000020: 1c99 d33e 6853 cbbe 53ab 69be ad68 4d3f
00000030: a152 8cbe 6a83 1f3e 9e8c 63be c9c1 0ebf
00000040: 4e73 6b3f bd58 6bbf f35a 013f 0931 6abe
00000050: 5121 333e 4a10 013e 1bab 233f 4eff c3be
00000060: 4cb7 063e 1a74 b6be bbe5 a33e 7fc8 87bf
00000070: 180d 85be 967b 1fbe 66e8 083f ac11 4abe
00000080: 6e72 f1be 7a89 32bd 4c3f ab3e 5e8a 6d3f
00000090: b642 b1bf 1144 373f a29b 183f 5ef7 a4be
000000a0: dd73 b13e 92f4 023f 8384 4fbe 8d7e 9b3c
000000b0: f822 873e 9aa5 873e 9c1f 033e 2875 063f
000000c0: d3ab 9fbe e2bc cc3e 5c55 b43d 584a 51bf
000000d0: 55e5 e23f cf91 373e a281 98be bdce 883e
000000e0: 7ba5 1fbf 6a6d 733f 5c1c b1be f879 bd3d
000000f0: bc24 febe b32e 873f eed8 63bf 2c77 293d
00000100: 4c61 b53e 0039 c63e 0584 a13e 0ebd 25bf
00000110: d46d c5be a431 c53e b924 fbbe 4114 9b3f
00000120: ce06 42bf f09c 533e c64c cbbe d397 473f
00000130: df8e 293e 8b0a 963d d051 9cbf 2cab 9f3e
00000140: bd3f d83e dee4 05bf 3bbd 143d 6707 103f
00000150: f2d3 c53e 0447 48bf c8fe 873e 0210 f33e
00000160: 559b 8bbe 8a61 ce3e 2676 d23e 35ff aa3e
00000170: 36d0 63bf efd4 57be 8202 1dbe 208d 83be
00000180: 6f4e f93e 74be e7be 7ad1 d4be f6b0 cf3e
00000190: 85fa 1cbf e4ae ea3e 9796 2fbf bac6 b13f
000001a0: 4801 1abd 290f 873e c0e0 483e d6e5 28be
000001b0: 3e32 8a3d d015 e0be f8ae 48be 602f 30bd
000001c0: 9c07 283e 81fb 55bf 8f33 bdbe 4144 0f3f
000001d0: f641 d33d 3638 ee3e d6c3 84bf 281a f33d
000001e0: 385d 1ebf cd1d 733f ef82 bfbe 3358 113f
000001f0: cc12 9c3e e41e ba3d 6693 34bf e180 723f
00000200: 695b 033e 6ac8 14be c4bb a3be d69f 3e3e
00000210: 3ec0 dfbe 97e7 153e 7a65 a43e bcca fdbe
00000220: 174d c4bc 3f92 363f 06be cd3e 8666 a93e
00000230: 2035 9cbe e220 b93e a984 c4be 9ffe 9cbe
00000240: 9240 94be 1bb6 5a3e 30d8 66be 5d80 44bd
00000250: 33a3 473f ea38 993e d52e 8f3f c55b c0be
00000260: 96b5 693f 5f0d 523f 8d9e 64be 8a4d 4f3f
00000270: 36e3 6dbf 8928 183f 6ee4 30bf 28ba 76bd
00000280: e34b adbe 7c58 c73e 17f4 8ebe 519c cc3e
00000290: 28bd 2d3e 6e0b c93e 42b0 b33e 2916 e1be
000002a0: bfac 8cbd e5c0 d5be 6897 993d 0390 2b3f
000002b0: 01d3 f7bb e336 5f3f c6ce e43e 0db5 c5be
000002c0: 3b64 bd3e eec2 10bf 751b bebe 8828 693e
000002d0: 2aaa 89bd 827f 943f d62c 8bbf abfe 033f
000002e0: ac91 533e a837 b8be b5e7 1e3f 4b1e fbbd
000002f0: 2338 103e 60b8 8bbc 69ee ca3c d342 cf3d
00000300: 0161 d1bd 5e2e 1b3f c4c8 433e 0843 e23e
00000310: c05b 6cbd 303c d4bd c0dd 183e 2083 f7bd
00000320: 9065 45bb ec34 54bc 5f13 31bf d1eb c43e
00000330: 9070 143d 36f4 05bf 384d 523f 0f94 7bbf
00000340: db4d 243e 98f1 c43d c1a7 85bf 082b 0040
00000350: e9a2 03bf 942f 11be a06d 4bbc a06d 163f
00000360: 05e1 9cbe ecca a83d 0987 df3e b484 82be
00000370: 9ef1 963e 5ed2 04bf e6f4 23bd 36c3 9c3e
00000380: 8ec2 39be cbec 7e3d ecea f53e abeb 09bf
00000390: 1404 a73e d268 60be e9a6 4fbe 57d2 b5be
000003a0: 99d6 9c3f 03a6 30be 8cbe 073e da0d 123f
000003b0: 70ca 04bf 808f fc3d 61db d8ba 00ea 123b
000003c0: 514d 30bf 14b2 213f 812f 7d3e 02e0 76be
000003d0: a24b 8fbe 75f3 16bf 8820 af3f 52a1 38be
000003e0: d7d7 adbc cc6e b4bd f353 85bf ce17 a7be
000003f0: c3d9 823f d630 9ebd 5830 c93e 4ebf ef3e
1.1314154 -1.427206 0.6074645 0.18379079 -0.28860986 0.6454881 -0.2077609 -0.90898246
0.4132775 -0.3971207 -0.22819261 0.8023785 -0.2740679 0.15577474 -0.2222161 -0.5576444
0.91972816 -0.9193228 0.505294 -0.22870268 0.17493178 0.1260387 0.6393296 -0.3828072
0.1315586 -0.35635453 0.32011208 -1.0608062 -0.25986552 -0.15574488 0.5347961 -0.19733304
-0.47157615 -0.04358814 0.3344673 0.92789257 -1.3848484 0.71588236 0.59612477 -0.32219976
0.3465871 0.51154435 -0.20265393 0.018981243 0.26393867 0.2649353 0.12805027 0.52522516
-0.3118578 0.39987856 0.088053435 -0.81754065 1.7726237 0.17926715 -0.29786402 0.2672023
-0.6236188 0.9508883 -0.3459195 0.09251779 -0.496374 1.0561126 -0.89002883 0.041373417
0.35425794 0.38715363 0.31546035 -0.647416 -0.38560355 0.38514435 -0.49051455 1.2115556
-0.75791633 0.20665336 -0.3970701 0.7796604 0.16558407 0.0732623 -1.2212467 0.3118528
0.42236128 -0.5230235 0.036313277 0.56261295 0.38638264 -0.7823336 0.2656157 0.4747315
-0.27266946 0.4030879 0.41105765 0.33397833 -0.8898958 -0.21077321 -0.15332988 -0.25693607
0.48692653 -0.45262492 -0.41566068 0.40564698 -0.6131976 0.45836556 -0.68589157 1.3888772
-0.03759888 0.26378754 0.19616985 -0.16493925 0.06747864 -0.43766642 -0.19597995 -0.04301393
0.16409153 -0.8358689 -0.369534 0.5596352 0.103153154 0.4652726 -1.0372264 0.11870223
-0.6186099 0.9496735 -0.37404582 0.56775206 0.3048309 0.09087923 -0.7053741 0.94727904
0.12827839 -0.14529577 -0.3197919 0.1861566 -0.43701357 0.14639126 0.3210867 -0.49568737
-0.02396254 0.71316904 0.4018404 0.33086032 -0.3050928 0.361579 -0.38382462 -0.3066301
-0.28955513 0.2135853 -0.22543406 -0.04797398 0.779834 0.29926234 1.1186167 -0.37570015
0.91292703 0.8205165 -0.22326107 0.8097769 -0.9292482 0.5943685 -0.69098556 -0.060236126
-0.3384696 0.38934696 -0.279206 0.3996301 0.16966689 0.39266533 0.35095412 -0.4396222
-0.06868886 -0.4174873 0.074995816 0.6701662 -0.0075629954 0.87193125 0.44689006 -0.38614693
0.36990532 -0.5654744 -0.37130323 0.22769368 -0.06721909 1.1601412 -1.0873058 0.5156047
0.20661038 -0.35979962 0.62072307 -0.12261637 0.14083914 -0.01705569 0.024771886 0.101201676
-0.1022358 0.60617626 0.19119555 0.44191766 -0.057704687 -0.10363042 0.14928341 -0.12085557
-0.003012035 -0.012952071 -0.6917018 0.38461164 0.03624016 -0.5232576 0.82149076 -0.98272794
0.16045325 0.09616393 -1.044182 2.0026264 -0.51420456 -0.14178306 -0.012416273 0.58761024
-0.30640426 0.08241829 0.4365771 -0.2549187 0.29481214 -0.51883495 -0.040028475 0.30617684
-0.18140623 0.062237542 0.48030794 -0.53875226 0.326203 -0.21914986 -0.20278515 -0.3551204
1.225299 -0.17250828 0.13256282 0.57052386 -0.51871395 0.12332058 -0.0016544872 0.0022417307
-0.68867975 0.6316235 0.24725153 -0.2410889 -0.2798739 -0.58965236 1.3681803 -0.18030289
-0.021221085 -0.08810195 -1.0416244 -0.3263535 1.0222706 -0.077241585 0.39294696 0.4682564

feats.TotalNumHs.bias f4 [100]
00000000: 0765 073d 1a43 fa3e f43e 14bf adfa b2be
00000010: 3037 41be 8faa 9bbe 1ee5 b63e ef69 543f
00000020: 4c55 463c 2a32 86be b037 2fbe 782b 813e
00000030: f7f3 853e 6eb3 cb3e bc9a 0f3e 322b 0b3f
00000040: 6ad9 3a3e ceba 2bbf f3c0 713a 7ef7 c43e
00000050: 77ee e4be fd68 833e a742 e5be 2f96 e53e
00000060: 3aae a83e df12 7dbe 776e 10be ff9d d4be
00000070: 7625 9f3e fd8b f23e 90b9 593e caf2 8e3e
00000080: 8843 95be e00a 663e 74b7 8a3e 4c71 f5bd
00000090: 2d0c 26be c7ae f9bd a3dc d8be dfbf 1f3e
000000a0: cff2 5a3e a4dd 2cbe 980f cc3d 4ea2 a93e
000000b0: d87f 693e 1d52 a93e e5f3 86bd d065 343e
000000c0: b564 56be 70fb cbbc b415 fdbe eebd 01bf
000000d0: f81a 5a3e ce23 eb3d d86b 61bd e222 823d
000000e0: b33f dd3e 0915 353f f365 073e f26e bfbe
000000f0: 6f69 dbbd 3b3e 0f3f 768e 7cbe cfa8 bdbe
00000100: 25ff a7be bd36 203f 54f3 a63e 1209 f2be
00000110: 87b5 89be ac66 20be a0fa 04be 9cf3 393e
00000120: 2904 c1be f799 f1bd 46aa febe fc15 76be
00000130: 7dc3 9fbe 103a 163f 15c5 423e 2c93 6cbe
00000140: 76f0 bfbe d3c9 15be 7c06 d93e be8f 6bbd
00000150: 67d1 febe cf9b d3be 1805 e3be 31ea 383e
00000160: ea19 b0bc 5ef7 c8be 7db8 bf3e a003 d83e
00000170: db73 2b3e 176f a0bd 5d72 a13e 301c 9d3e
00000180: 7856 8cbe 79e8 14be d6a9 7abe 0bc8 113e
0.03305533 0.4887932 -0.5790856 -0.34956875 -0.18868709 -0.30403563 0.35721678 0.8297414
0.012105297 -0.26210147 -0.17111087 0.25228477 0.26162693 0.3978533 0.1402387 0.54362786
0.18247 -0.67081916 0.0009222172 0.38470072 -0.44713184 0.25666037 -0.44777414 0.44841143
0.32945424 -0.2471423 -0.14104639 -0.4152679 0.31083268 0.47372428 0.21262193 0.27919608
-0.29153085 0.22465086 0.2709309 -0.119845 -0.16215582 -0.12191539 -0.42355832 0.15600537
0.21381687 -0.16881424 0.09963912 0.3313164 0.22802675 0.3307046 -0.06589488 0.17616963
-0.20936854 -0.024900168 -0.4943062 -0.50680435 0.2129935 0.114814386 -0.05503449 0.063543096
0.4321266 0.7073522 0.13222484 -0.37389332 -0.10713469 0.5595433 -0.2466372 -0.37042853
-0.32811847 0.62583524 0.3260752 -0.47272545 -0.26896307 -0.15664166 -0.12986231 0.18159336
-0.37698486 -0.117969446 -0.49739283 -0.24031824 -0.31203833 0.58682346 0.19020493 -0.23103017
-0.37488145 -0.14627771 0.4238776 -0.05751013 -0.49769136 -0.4132981 -0.44339824 0.18058087
-0.021496732 -0.39251226 0.3744544 0.42190266 0.16743414 -0.07833689 0.31532565 0.30685568
-0.2740972 -0.14541806 -0.2447885 0.14236467

feats.ImplicitValence.weight f4 [100, 6]
00000000: 79c2 e73e c018 a7be 33f4 d33e 40d2 2bbf
00000010: f8a6 b0bd 14fd 503e 934f 053f 5827 47be
00000020: 4cde c8be f4c1 7cbe 54f5 dabd 5c2f 013e
00000030: f051 b2bd 3f09 0b3f 11c6 23bf a9c2 a1bc
00000040: 5871 10bd 130c c5be 1f63 783e 6e2e 963e
00000050: a0e1 89be b486 d83e 00b9 67bb 58d1 ae3e
00000060: 664e 3c3e 943b 083e 3aa3 c83e d4f2 d63e
00000070: bc34 573e b624 893e d67d 10be d8e6 63bf
00000080: c0a0 463e b0c8 bcbe 60df 75bd 10c7 443e
00000090: 41b4 edbd c5ab 4ebe 5f8a 8c3e 3d00 f83e
000000a0: 48b9 393e fc95 e0bd 7346 dc3e 0082 8fbf
000000b0: a33c fc3e 41c2 7fbe 2829 033d 709d 5dbd
000000c0: d7bd 993e 5064 e5be 94f5 683d c09d acbe
000000d0: ec66 efbd 7f1e 55be 9ef5 59bd 3187 37be
000000e0: 5a74 733e 2097 273d bc02 173e 4ddc 3bbe
000000f0: 666b f3be f68a e53c 9674 303f bc5d adbc
00000100: fc6f b1be 6c78 b3bd 0102 993e c7e8 0abf
00000110: 42cc ca3e 1181 edbd 2099 413d 7e10 c93e
00000120: d13c d9bd 552d 9fbe f3c2 a3be b327 c23e
00000130: a033 703d 1047 ad3e 5f07 c0be 5a3a 333e
00000140: 9763 7abe e658 fdbc f271 08be 9a1e cc3e
00000150: 79a3 763f 7b0a d2be e47e 8ebe 6a2b ecbe
00000160: 98c9 adbd f847 ac3e 58ba 65bd f95d b7bc
00000170: 1561 133d f144 cb3e be4b cd3e 60bd acbd
00000180: 6ac3 c73e e1e1 3a3e b862 743e 7944 07be
00000190: 3249 63be 5a74 1abe a32c 23be 2578 5a3e
000001a0: 35af d3be 883f 0cbe 00d0 2abd aabe 77be
000001b0: d7d7 3bbf 1d8f 3d3f e931 4e3d 0676 1b3f
000001c0: a0c8 443c 0803 34be 480d 4a3f e14c 043f
000001d0: 9096 65bf be65 3c3d c292 b33e a4cd 99be
000001e0: 20d2 8d3f 970e a9bf ac53 9b3e 507c 93bf
000001f0: e88e cc3e 589c 973e a4d7 113f 2fb5 413e
00000200: 558b 563e 060b 8a3e 84c1 b13e da7e b6be
00000210: 0fa5 52bf b305 1dbe 9c9c ce3e 5c64 673e
00000220: a195 8bbe 0015 13bd 58a9 1fbc 666b 103f
00000230: 60ee 05bf e1fc e23e 2cb4 a4be f069 c0bd
00000240: 3b9c f63e dc36 153c 886d bbbe 5ad5 50be
00000250: 4229 c0be 40b0 723c 95ea 81bf 1313 563e
00000260: f959 463f 70e8 01be 0af2 0ebe 1680 a33e
00000270: bf3b d4bd 8c54 e7bb 7c66 c53e 2ddd ce3e
00000280: 3cb3 3b3e d44d 883e c762 493f a207 86be
00000290: 1b1f 8e3e 6db8 27bf 86d1 9b3e e0fa f03d
000002a0: e2e7 8ebe d554 c23e a9da 8ebe 25f3 1b3f
000002b0: b84c d23d dc46 a4bd 24aa c13d 2948 4a3a
000002c0: c837 95be ac98 07be bcde 423e f4c3 cc3e
000002d0: 98b8 9dbe 7969 223d 5290 cf3e 0d4c 2a3f
000002e0: c4e8 143e 80e3 d0bd 4c8a 3dbf 8cae 4ebf
000002f0: 324e 803d 5ac4 60be 802b 10be 706d 443d
00000300: 4e77 e93e e00a 133e 330b 233f d7ab 923d
00000310: c864 9d3e 30f3 ab3e eb6b 443f 90c5 afbf
00000320: c77b c93d cc41 0dbf 20fd 393c 06dc b3be
00000330: 8554 353f a3d1 8dbd 56c8 c7be 6f4a 6d3e
00000340: 1cde c43e 502a 9f3d 26cb 2f3f 94ca 9e3d
00000350: f607 033f 5770 83be 6808 a5be c489 c93e
00000360: f09e d23e 2de2 233d 0aac 3abf 3f30 823e
00000370: 7877 a4be f8a0 4fbd 1e6f 993f 6e99 92be
00000380: e074 7cbf 3cc4 c33d dacc 32be 6cd6 a4be
00000390: d412 003f 9458 9dbf 58a8 3c3e 760c 8abe
000003a0: 803e 4dbb 8029 663b b91b e23e d91f d7be
000003b0: 75aa 783e f245 fdbd 882c 89bd 1f56 46be
000003c0: 32e5 d23e 61e7 a53e 6e42 83be 945d 68be
000003d0: 68d2 fc3d e8ac 1abd a33e 0c3f 9ed7 0c3e
000003e0: 0ac0 13bf 9ece 83be 4a44 c43e d225 84be
000003f0: b847 fc3e c20a eb3e b8b8 d6be 1776 333e
0.45265558 -0.3263607 0.41397247 -0.6711769 -0.08625597 0.20409042 0.52074546 -0.19448602
-0.392321 -0.24683362 -0.10691324 0.12615722 -0.087070346 0.54310983 -0.639741 -0.019746142
-0.035264343 -0.38485774 0.24256562 0.29332298 -0.2692995 0.4229027 -0.0035358071 0.34144092
0.18389282 0.13303977 0.39187032 0.41982138 0.2101621 0.2678582 -0.14110503 -0.89024115
0.19397259 -0.36871862 -0.06002748 0.19216561 -0.11606646 -0.20182712 0.2744932 0.48437682
0.18137085 -0.10966107 0.43022498 -1.1211548 0.49265012 -0.24976446 0.03202167 -0.054105222
0.3002765 -0.44803095 0.056874827 -0.33714104 -0.11689553 -0.20812415 -0.053212754 -0.17922665
0.23774853 0.04091561 0.14747137 -0.18345757 -0.47542876 0.028020363 0.68927896 -0.02116286
-0.3465575 -0.08763203 0.2988434 -0.5426144 0.3960896 -0.11596883 0.047265172 0.39270395
-0.10607303 -0.31089273 -0.31984672 0.37920913 0.058642983 0.3384328 -0.37505624 0.17502728
-0.24452053 -0.03092618 -0.13324717 0.39867097 0.9634319 -0.4102362 -0.27831185 -0.46126872
-0.084857166 0.33648658 -0.056085914 -0.022383677 0.035981257 0.39701036 0.4009685 -0.08434558
0.39016277 0.18250228 0.23865783 -0.13209714 -0.2219589 -0.15083447 -0.15934996 0.21334894
-0.4134461 -0.1369611 -0.04170227 -0.24193826 -0.7337622 0.740465 0.050340567 0.60726964
0.012010723 -0.17579281 0.78926516 0.5167981 -0.89682865 0.045995466 0.35072905 -0.30039704
1.107975 -1.3207577 0.30337274 -1.1522312 0.3995278 0.29611468 0.56969666 0.18916772
0.20951588 0.26961535 0.34717953 -0.35643655 -0.8228311 -0.15334205 0.40353858 0.22596878
-0.27262595 -0.0359087 -0.009744965 0.56413877 -0.52316856 0.44333556 -0.3216871 -0.09395206
0.4816607 0.009107318 -0.36607003 -0.20393887 -0.37531477 0.014812529 -1.0149714 0.20905714
0.7748104 -0.12686324 -0.13959518 0.3193366 -0.10362958 -0.0070596393 0.38554752 0.4040312
0.18330091 0.26621878 0.7866635 -0.26177698 0.27758107 -0.65515786 0.3043329 0.117666006
-0.27911288 0.37955347 -0.279012 0.60917884 0.10268539 -0.08021328 0.0945628 0.0007716441
-0.2914412 -0.13241833 0.19030279 0.3999325 -0.30804896 0.039651368 0.40539795 0.66522294
0.14541918 -0.10199642 -0.7403915 -0.8073509 0.062649146 -0.21949902 -0.14079094 0.04795593
0.45598835 0.14359617 0.63688964 0.07161682 0.30740952 0.33583975 0.7672717 -1.3732166
0.09838062 -0.55178523 0.011351854 -0.35128802 0.7083209 -0.06924751 -0.39020032 0.23172925
0.38450706 0.07771742 0.68669355 0.077534825 0.5118402 -0.25671646 -0.32232976 0.3936292
0.41136885 0.04001062 -0.7291876 0.25427434 -0.32122397 -0.05069062 1.1987035 -0.28632683
-0.9861584 0.09558913 -0.17460957 -0.3219484 0.5002873 -1.2292657 0.18423593 -0.26962632
-0.003131777 0.003511995 0.44161776 -0.42016485 0.24283774 -0.12366857 -0.06697947 -0.1936879
0.41190487 0.3240309 -0.2563662 -0.22691947 0.12344819 -0.037762552 0.54783076 0.13754126
-0.57714903 -0.25743574 0.3833335 -0.25810105 0.49273467 0.45906645 -0.41937804 0.17525516

feats.ImplicitValence.bias f4 [100]
00000000: f525 9cbd 9083 75bd 954b 05be 8b78 923e
00000010: 6e07 f7be f4b9 c8be 52e1 babe d52d 473e
00000020: 3d07 96be f7d2 a83e 4155 8ebd aa04 a03e
00000030: ec7a 783d e60d d5be 3b8f fd3e 52f1 30bf
00000040: 44fe 64be a006 5cbc 92f6 b43e f9d2 8cbd
00000050: 968c 7fbe b8d7 ac3e b2d9 ccbe ae9a 5abe
00000060: f9b3 c63e a6b5 aa3e 07fa 5ab8 d8cb d03d
00000070: 1e54 8e3d ab23 993e bb68 a6be f202 4bbe
00000080: 9605 0a3d 190b 3dbe 2ae6 1f3d 6118 09be
00000090: db86 3abe 8e2c 873c 6867 49bd d252 3bbc
000000a0: 53dc a93e b861 c83e f350 91be c263 8c3d
000000b0: ea2d 82be 2d5b d4be 28b2 533d 7473 0f3f
000000c0: 6208 ae3e 4749 453e f645 883e 2120 6ebc
000000d0: 289e 15be 21fb 87be 5417 92be a2ed 433d
000000e0: 0e27 8abe 31a4 023e 303b e5bd 513e cabd
000000f0: 0001 29bd ed98 82be 5623 f33c 7008 8dbe
00000100: f5cf dc3e d88c 4abd 8182 043e 394e b7be
00000110: 159b 8e3b a587 3f3e f5b3 9abe b9a7 e8be
00000120: 022f 49be 81ba 033e fdb7 32be 545d 9f3d
00000130: 79de 0d3e b922 5f3d 50a8 93be 1e60 44bd
00000140: 267c 973e 94cf 88be 4591 2e3d 2409 083f
00000150: acb7 e6be 4bd6 973e e5f0 9bbd f980 89bc
00000160: 9b46 6c3d be59 2abe ea94 01bf ce70 db3d
00000170: 140d 94be 6eb7 bfbe 128b ac3e 0bbb 6f3e
00000180: 5619 e3bd 1dfc 4a3e acfc 2cbe 27d4 a53e
-0.07624427 -0.05993992 -0.13017114 0.28607592 -0.48247856 -0.3920437 -0.3650003 0.19451077
-0.29302397 0.32973453 -0.06949855 0.31253558 0.060664102 -0.41612166 0.4952334 -0.69118226
-0.2236262 -0.013429314 0.35344368 -0.06876177 -0.24955973 0.3375833 -0.40009838 -0.21348068
0.38809183 0.33341712 -5.2208106e-05 0.1019513 0.06949638 0.29910025 -0.32501778 -0.19825342
0.033696733 -0.18461265 0.03903786 -0.13388206 -0.18215506 0.016500738 -0.04917088 -0.01143332
0.33175907 0.39137053 -0.28382072 0.06854965 -0.25425655 -0.41475812 0.051683575 0.5603554
0.3399077 0.19266234 0.26615876 -0.014534027 -0.14611113 -0.26558784 -0.28533423 0.047834046
-0.2698292 0.12757947 -0.1119293 -0.09875167 -0.04126072 -0.25507298 0.029679935 -0.275455
0.4312741 -0.049450725 0.12940408 -0.35801867 0.0043519833 0.18704088 -0.3021542 -0.45440462
-0.19646838 0.12864114 -0.17452998 0.07781473 0.13854398 0.054476473 -0.2883935 -0.047943227
0.29586905 -0.2672087 0.04261901 0.5313895 -0.45062006 0.2965568 -0.07614306 -0.016785132
0.057684522 -0.16635796 -0.5061785 0.10714875 -0.28916228 -0.37444633 0.33699852 0.23411195
-0.11088817 0.19822736 -0.16893262 0.32388422

feats.Hybridization.weight f4 [100, 5]
00000000: f247 9abf 7837 f3bd 0955 043f 580a d23d
00000010: 21b7 3e3e 3b1c c4bf 20c2 5c3e e420 003e
00000020: 10f9 98bc eb9f 96bf 867c 513f 13dd 62bd
00000030: 046b 7abe 007a c0bb 27ea e93e 56b4 6abe
00000040: 439e 29bf 87c1 843e b09a a73e 57ea 95bd
00000050: 782b aabf 81cb bdbe d35d 1d3d 751e c6be
00000060: ab49 a2bf 508d 2cbf 1dda 963e 30fd b7be
00000070: 14b5 683e 135f ad3e 6593 94bf 8905 0a3e
00000080: 3199 3bbf 28ac cfbe face b0be c42b cc3e
00000090: dd10 67be cf53 d13e 0ee1 c13e 5d4a 9c3f
000000a0: 7824 f5be 979a 733e 87aa f3be 8154 dabe
000000b0: ba93 4fbf 64a3 92bf 6320 44be db0e 7e3e
000000c0: 1619 b03e 108d c9be b914 833e b72b 563e
000000d0: fd29 25be 4e0c a0be 8390 ad3f 3d46 553e
000000e0: 5937 11bf d942 0f3f 314a 8fbe b1ab 9bbd
000000f0: 7309 3abf 8a1d b4be 909f 26be 7890 15bd
00000100: 00bd 933e d6f4 12bf 42ef d33e 9879 dbbd
00000110: 9093 263e 8784 5dbf 3ad8 383f 7529 97bf
00000120: 7b85 563f 00ff b6ba 09e9 cf3e 0899 e43e
00000130: 31fd b63f ca9b c3bf 080a 913e fd82 61bf
00000140: 9f7e 68bf dab1 ddbc 7fdd 26be be1e 8cbe
00000150: c6b7 3fbf 4884 cabe eb10 86bd 33b7 993a
00000160: 39b0 afbe d836 03bf e888 28bf d2b5 1a3f
00000170: 3541 4ebf 0e4a cdbe b446 acbf a9dd 863f
00000180: bad2 42bf 6433 dabe 6c22 e2be faf8 33bf
00000190: 558b 503f d091 b7bf 09c1 613f f41c 093e
000001a0: e3ae f03e 907e ed3e 6874 e6be 75b3 b03d
000001b0: 5ce3 cfbe 5312 2ebe 831e 55bf 7ad2 853f
000001c0: bbff a5be 0615 943e ca7e 963d 3107 de3e
000001d0: de76 303e b6a9 c6be 50ff 863d ed34 12bf
000001e0: 800f cb3f 82b6 c1be 0147 51bc ac01 a93e
000001f0: 330a 9d3f 8f9e 8cbf 4d43 3a3f 7824 0e3e
00000200: 60e6 d13e 468f 853f 55dd 58bf a88b 45bf
00000210: ef78 3c3f 1418 1e3e f279 323f 1730 2b3f
00000220: 9afa 80bf b3ff ad3e 0263 c13e 980d 903e
00000230: 5e65 52bd 0d49 0f3f 7c0d 3abf e8b4 e73d
00000240: 3326 adbe bba8 963f 450f 03bf fd51 5b3d
00000250: 0851 c33d 51ee 95bc 0112 783f f1ae 4e3f
00000260: 6f48 b9be 305f 37bd aad5 633e b0c5 85bc
00000270: da5c 793f b477 28bf 3c07 34be 5701 093f
00000280: 225f 41bf 9377 91be 28f4 273f e6bb a1be
00000290: 0f82 383f 7cd0 c4bd ec42 8bbf 1f87 e83e
000002a0: 1883 f23d b4b6 3fbe 3307 d93d 34b7 23bf
000002b0: bcdc 8ebe c05b ff3d fd01 3dbd 24d7 e9be
000002c0: 3204 21bf d1c3 903d 704b 293e f5f1 723e
000002d0: 73cf d73e 5c9b 03bf 9dc8 3ebe 0ab9 06be
000002e0: 8fff 88be 05d3 343f 6473 a9bf ba89 59bc
000002f0: a832 263e 5bf4 19bf dcca a2be 8243 a4bf
00000300: ad89 933f 489b aa3e 3cde 733f 287d 103e
00000310: 490e 96bd bcd1 0fbe 9c5f 313e c592 34bf
00000320: c378 1f3c cdf9 bbbd 49ed 493e 3cf3 0d3e
00000330: 359e 29be 27f0 683f 469b bbbd 1f9b 10be
00000340: ba23 78be d5af 723f 5e0b a43f 0565 18bf
00000350: 2ccf 53bf 8407 c2bd 600d 4e3e fdd2 fcbe
00000360: 5b81 78bd 65be 83bb 2841 4a3d 8c37 f13d
00000370: f7f9 9abf 27f7 1bbd ee01 6dbe 8a01 2fbe
00000380: c17f 9fbf 9d21 24bf fa3f 8ebd d48b f1be
00000390: 2401 26be 534e 873e c192 ce3f 8223 30bd
000003a0: 0ffa 233e c4d6 ba3e 8d35 0840 1921 8d3d
000003b0: a0db ec3e c3ca 31bf 530f 5abe b284 0dbf
000003c0: 7789 073f e4e0 b63e a5e3 263e 6050 23bd
000003d0: d7e7 953f 4daf 363f 20b8 bfbe 45c8 a33e
000003e0: d040 943d 6f8b b5be 3e66 a43f f8ab 50be
000003f0: d7a4 113f 4228 a53e 9744 c73e 7497 b6bf
-1.2053206 -0.11875814 0.51692253 0.10255879 0.18624546 -1.5321115 0.21558428 0.12512547
-0.01867345 -1.1767553 0.8183063 -0.055386614 -0.24454886 -0.0058739185 0.45686457 -0.22920355
-0.66257113 0.259289 0.32735205 -0.073200874 -1.3294516 -0.37069324 0.038419556 -0.38695112
-1.2678732 -0.67403126 0.29463282 -0.35935354 0.22725326 0.33861598 -1.1607481 0.13478674
-0.73280627 -0.40561032 -0.3453291 0.3987714 -0.22565027 0.40884253 0.37867016 1.2210194
-0.47879386 0.2378944 -0.4759104 -0.42642596 -0.8108479 -1.1456113 -0.1915298 0.24810354
0.3439414 -0.39365435 0.25601748 0.20915113 -0.16129299 -0.31259388 1.3559726 0.20827575
-0.5672508 0.55961376 -0.2798629 -0.07601107 -0.7267067 -0.35178787 -0.16271806 -0.03651473
0.28855133 -0.5740484 0.41393477 -0.107165515 0.16267228 -0.86530346 0.72204936 -1.1809527
0.83797425 -0.0013961494 0.4060748 0.44648004 1.4296018 -1.5281918 0.28327966 -0.880905
-0.9081821 -0.027062345 -0.16295432 -0.27367204 -0.7488979 -0.39554048 -0.065461956 0.0011727571
-0.34314135 -0.5125556 -0.658339 0.60433686 -0.8056825 -0.40095562 -1.3459077 1.0536395
-0.76102793 -0.42617333 -0.44166887 -0.70301783 0.81462604 -1.4341373 0.88185173 0.13389951
0.47008428 0.46385622 -0.45010686 0.08627979 -0.4060315 -0.16999178 -0.8324968 1.0454857
-0.3242167 0.2892229 0.07348402 0.43364862 0.17232844 -0.38801354 0.06591666 -0.5711201
1.5864105 -0.37834555 -0.012773276 0.33009088 1.2268738 -1.0985888 0.7275894 0.13881099
0.40996075 1.0434349 -0.84712726 -0.77166224 0.7362203 0.15438873 0.69717324 0.66870254
-1.0076478 0.33984146 0.3777085 0.2813537 -0.051366203 0.5597084 -0.72676826 0.11313802
-0.33818206 1.1770242 -0.51195174 0.053544987 0.0953694 -0.018302115 0.9690247 0.8073569
-0.36188075 -0.044768512 0.22249475 -0.016329616 0.97407305 -0.6580765 -0.17580885 0.5351767
-0.75535786 -0.2841154 0.6560693 -0.31588668 0.72073454 -0.09610078 -1.0879798 0.4541559
0.118414104 -0.1872204 0.10597076 -0.6395142 -0.27902782 0.12468672 -0.046144474 -0.45671952
-0.62897027 0.07068599 0.16532683 0.23725112 0.4215046 -0.51408935 -0.18631215 -0.13156524
-0.26757476 0.7063449 -1.323834 -0.0132774655 0.16230261 -0.6013848 -0.31795394 -1.2833102
1.152639 0.33321595 0.9526098 0.14110243 -0.073269434 -0.14044851 0.17321628 -0.7053645
0.009733382 -0.09178505 0.19719423 0.13862318 -0.16564257 0.90991443 -0.091604754 -0.14121674
-0.24232379 0.9479955 1.2815969 -0.59529144 -0.82737994 -0.0947409 0.2012229 -0.4937972
-0.060670238 -0.0040204995 0.049378544 0.11778173 -1.2107533 -0.0380775 -0.23145267 -0.17090431
-1.2460862 -0.6411379 -0.06945796 -0.47176993 -0.16211373 0.26426944 1.6138536 -0.043002613
0.16013359 0.36491978 2.1282685 0.068910785 0.4626131 -0.69450015 -0.21294908 -0.552806
0.5294413 0.35718453 0.16297777 -0.039871573 1.1711377 0.7136124 -0.37445164 0.3198873
0.072389245 -0.35457942 1.2843702 -0.20378101 0.5689215 0.32257277 0.38919517 -1.426497

feats.Hybridization.bias f4 [100]
00000000: fee4 d53e 462c 87be 0250 863d 226f 30be
00000010: a74b 693e d952 793d c3a1 c03e 3628 6a3e
00000020: 1bcd e03d beed 723e e6cd 163f 300d 6ebd
00000030: a8d9 3dbd 4a93 c6be 2cfc 2fbf 0fa9 eabe
00000040: 4c8d 8d3d a7dc 603e ac48 66be 41a7 f5be
00000050: df3c a83d 7970 74bd 865c 773d 354c abbe
00000060: 2d9c 8b3d 2b35 0d3f 4cf1 023e 3e83 493d
00000070: dcd6 9b3e 3182 4cbd 15e1 f93e ff4f f43e
00000080: c5b2 5abe 0b60 02bf 5506 503e 920a 50be
00000090: 7ded 07bf f77f e4be 4025 ae3e df12 99bd
000000a0: 94ce 423e 8bbb c7be fc57 90be 86ad 8d3e
000000b0: 7ecd 45be 6624 37be 4e8e fb3e e6a1 963c
000000c0: acd2 b5bd e285 e6be 0254 8d3e 3cb1 8cbe
000000d0: fb42 9c3d 11fe cc3c 2946 ff3b ca68 a2bb
000000e0: c379 69bd 0fe2 5fbd 43e2 f43e d15b 12bf
000000f0: 1e89 613e 9ce3 1cbe 2165 6e3e e760 31be
00000100: e18d b4bd fd64 9a3c c467 c23e c305 7b3e
00000110: 9eb5 7a3e d35d 2e3e c9d1 293f 4aab b83e
00000120: bd7e 35be 9b50 2fbe 7249 89be 3164 ff3e
00000130: 12ed 443e 18fe f23d 5ac5 8b3e c380 21bf
00000140: 27ab 183e bab3 06bf 7c93 5e3e 0685 66be
00000150: adf8 95bd 5718 52bf 9ab2 403e 3629 0c3d
00000160: e19b 1f3f 5709 8dbe edb4 11bf 45dd 093f
00000170: f4a1 193e 11bb 2c3f fc4a 0c3c c6ea 993d
00000180: a075 073f 3910 8c3d 1b43 0a3f 7cbe 1dbd
0.4177627 -0.26400965 0.06558229 -0.17229894 0.22782765 0.060870025 0.37623414 0.22866902
0.10976621 0.23723504 0.58907926 -0.058118045 -0.04635015 -0.38784248 -0.6874416 -0.45832106
0.06911716 0.21959172 -0.2248866 -0.47979167 0.08214735 -0.059677575 0.06039097 -0.3345658
0.068168975 0.5515925 0.1278736 0.049197428 0.30437362 -0.049928848 0.48804536 0.47717282
-0.21357258 -0.509278 0.20314915 -0.20316532 -0.53096753 -0.4462888 0.34012794 -0.074743025
0.19024116 -0.3901027 -0.28192127 0.2767145 -0.1931667 -0.17884979 0.49132007 0.018387746
-0.08878073 -0.4502402 0.27603155 -0.2747897 0.07629963 0.025023492 0.007790346 -0.0049563395
-0.057000887 -0.054658946 0.47828874 -0.5717135 0.22024962 -0.15321201 0.23280765 -0.17322122
-0.08816124 0.018846983 0.37969792 0.24513917 0.24483344 0.17027979 0.6633573 0.36068183
-0.17724128 -0.17120592 -0.26813847 0.49881127 0.1923106 0.11864871 0.27299005 -0.630871
0.1490904 -0.5261799 0.21735948 -0.22511682 -0.07322822 -0.8206839 0.18818131 0.03421899
0.6234723 -0.27546188 -0.56916696 0.53853256 0.15003186 0.6747294 0.0085628 0.075154826
0.52913857 0.06839032 0.54008645 -0.03851174

feats.FormalCharge.weight f4 [100, 1]
00000000: 397a 3f40 e7ca 78be 4984 92bf 119c 49bf
00000010: 7031 39bf 0486 0340 51f5 1540 b9f7 3340
00000020: b57b 21c0 5314 b4bf 7a20 01bf 9bab 7e3f
00000030: 9e9a 573f 83b5 30bf e073 a53f 754d 32be
00000040: 9118 9c3d 8d47 12bf f393 9ebf d8a8 c3bf
00000050: 4013 a43f 9014 19c0 243e 0bbf 7775 18c0
00000060: 98a2 20bf 7070 453f 8ac1 0040 6bc0 46bb
00000070: 604f 2cc0 0856 0f3e 49f9 2b40 07b1 71bf
00000080: 2bfd edbf f996 3840 e07a ebbe 977a e23f
00000090: 2d75 59c0 b1f5 23bf 804e 973f 4708 79bf
000000a0: 0d1e dbbf fab4 0ac0 5c1d 16c0 fee6 883f
000000b0: 368a b13d 75f1 f13f 1c42 bd3f 7e8a b8bf
000000c0: 275d 8dbf e274 10c0 e1e6 93be 88b1 a3bf
000000d0: ac36 0fbf 04c0 2dbe 6baa 98bf 4d31 df3e
000000e0: 09cc bd3f dd11 3cbe 55d4 53bf 57ec 0c40
000000f0: 900f 8cbf 9813 0440 4dd6 e53f c6cf 1a40
00000100: be3d 15bf 5cb4 aa3f 90ed 93bf 1c2a c03f
00000110: 28ca 3bbf 0b1e 31bf 9527 1740 010d 08c0
00000120: 0ba9 ca3f 6e94 6ebf f9bf 19c0 29ba e6bf
00000130: 1220 e4bf 096a 28bf 29be 363f 4f50 f83e
00000140: 916c 133f d3fa 2f40 7a5f 8c3f b899 58c0
00000150: 40ca 8c3c 4987 18c0 303b 9e3f aebf 5cbd
00000160: 021c 4c40 d85c e1be c161 813f 6c69 a73f
00000170: 2d5d da3f a5bf 0f40 a280 b13f e89f ecbf
00000180: fafa 3140 e1b9 17c0 c7e5 2240 4f47 f5be
2.9918349 -0.24296151 -1.144662 -0.78753763 -0.7234106 2.0550547 2.343098 2.8119948
-2.5231755 -1.4068702 -0.5044018 0.994806 0.842203 -0.69026965 1.2925987 -0.1741236
0.07621873 -0.5714043 -1.23889 -1.5285902 1.2818375 -2.39188 -0.54391694 -2.3821695
-0.627481 0.7712469 2.0118127 -0.0030327092 -2.6923447 0.13997662 2.6870902 -0.9441075
-1.8592886 2.8842146 -0.45992184 1.7693661 -3.3977768 -0.6404677 1.1820831 -0.97278255
-1.7118546 -2.167296 -2.345542 1.0695493 0.0866894 1.8901812 1.47858 -1.4417264
-1.1044053 -2.257134 -0.28887084 -1.2788553 -0.559428 -0.1696778 -1.1927007 0.435923
1.4827892 -0.1836619 -0.8274587 2.201925 -1.0942249 2.063696 1.7956024 2.4189315
-0.58297336 1.3336291 -1.1556873 1.5012851 -0.7335534 -0.69186467 2.361791 -2.1257937
1.5832838 -0.93195236 -2.402342 -1.8025562 -1.7822287 -0.65786797 0.7138391 0.4849877
0.57587534 2.749684 1.0966637 -3.3843822 0.017186284 -2.3832572 1.2361813 -0.053893737
3.1892095 -0.44016147 1.0107957 1.3079047 1.7059685 2.246072 1.3867381 -1.84863
2.7809434 -2.3707201 2.5452745 -0.47905967

feats.FormalCharge.bias f4 [100]
00000000: bcc1 ec3d 06d6 28be 64b5 4d3f 24fb d4be
00000010: 158f 1a3f e3d2 ddbe edd9 13bf 63ef 77bf
00000020: e68b 08be 7fe9 033f 0f35 26bd 707c ea3d
00000030: 5002 f7bd 43a9 9f3e dccb 79bf 9d94 20bf
00000040: 37a5 6dbf f5e7 12be 6e0c 4bbf 6958 41bf
00000050: f3f2 a1be da45 0dbf 8d29 02be 5523 0fbf
00000060: cf76 dd3d 28fa 56bf 860f 04bf 26f5 d73e
00000070: 1f9c 453e 4db4 4bbf ef2c 8dbf 2ed5 703e
00000080: 3707 5f3f ff1d 4c3f f6ec 79bf d7e1 60bf
00000090: 78e5 57be 06bc 0abf f866 48bf a821 70be
000000a0: f539 70be da73 e1be a400 fc3e 5360 0bbf
000000b0: 9b0c 34be 935b 6fbe 01e7 1b3d f312 293f
000000c0: a3ed 79be 1c46 dfbd df94 533f c5bd 79bf
000000d0: 1461 78bf 362b ae3e bd9b 53be 5700 1d3f
000000e0: 6019 e8bd 83dc 28bf 225d b7bc 6eca bd3e
000000f0: 3ce6 b1be 6c8d ae3e d1f8 50bf c65b d13e
00000100: 735f 9abe f487 0dbf 53e4 6d3f a110 253f
00000110: d855 88bf 7c71 63bf 7c22 003f b504 de3d
00000120: 64d7 413f 9830 963e ae16 683f 9f54 89bf
00000130: 8a70 1fbf 547c eebe 058c 07be 68b2 ecbe
00000140: b364 64bf 2a26 03bf 578d 9a3e 4dbd 1c3d
00000150: 09e2 23bf 22bc 2abe bf85 543e ae12 66bf
00000160: e9bc f23d ea0d 6e3f 87ff f2be f7ee 2bbf
00000170: 1bea 1f3f 16e4 803f 4f4b d33e 9ea2 ff3e
00000180: 14ca 863d fbef 343f 421d 25bf 7c27 65bf
0.115603894 -0.16487893 0.80354905 -0.41597855 0.60374576 -0.43324956 -0.57754403 -0.9684965
-0.13334617 0.5152816 -0.040577944 0.11449516 -0.12060988 0.31183824 -0.9757669 -0.62726766
-0.9283022 -0.14346297 -0.7931584 -0.7552553 -0.31630668 -0.5518471 -0.12711163 -0.5591329
0.108136766 -0.8397546 -0.51586187 0.4217922 0.19297837 -0.7957199 -1.1029338 0.23518822
0.87120384 0.7973327 -0.976272 -0.87844604 -0.21083629 -0.5419315 -0.7828212 -0.23450339
-0.23459609 -0.440337 0.4921924 -0.54443854 -0.17582934 -0.23374777 0.0380621 0.6604454
-0.24407057 -0.10902044 0.82649034 -0.9755519 -0.9702313 0.34017342 -0.20664878 0.61328644
-0.11332965 -0.65961474 -0.022383276 0.37068504 -0.34745967 0.3409227 -0.81629664 0.4089033
-0.30150947 -0.55285573 0.9292652 0.644785 -1.0651197 -0.8884504 0.5005262 0.108407415
0.75719285 0.2933395 0.90659606 -1.0728949 -0.62281096 -0.4657923 -0.13237007 -0.46229863
-0.89216155 -0.5123011 0.3018596 0.03826647 -0.6401678 -0.1667333 0.20754145 -0.8987225
0.11852438 0.9298998 -0.47460577 -0.67161506 0.6246659 1.0069606 0.41268393 0.49928755
0.06581512 0.7067868 -0.6449777 -0.89513373
