attention_pooling3_rat.pth (torch, 37673 bytes, 23 tensors)

gates.AtomicNum.nn.0.weight f4 [1, 12]
0	0xbe7e29b7	-0.248206
1	0xbd5fe460	-0.054661155
2	0x3e23bb90	0.15989518
3	0xbe59c11e	-0.21265075
4	0xbe813c65	-0.2524139
5	0xbc80bc70	-0.015714854
6	0xbdba2fd6	-0.09091155
7	0xbe8c261a	-0.2737282
8	0xbe7b9a8e	-0.24570677
9	0x3e24f202	0.16107944
10	0xbde46a20	-0.11153054
11	0xbd828612	-0.06373228

gates.Degree.nn.0.weight f4 [1, 6]
0	0xbe4441ab	-0.19165675
1	0xbec723d8	-0.38894534
2	0x3ea4960a	0.3214572
3	0xbc46f9f8	-0.012144558
4	0x3d1eeb36	0.038798533
5	0x3e41cecd	0.18926544

gates.TotalNumHs.nn.0.weight f4 [1, 5]
0	0xbe13e7b5	-0.14443858
1	0xbe087254	-0.13324863
2	0x3bbafac2	0.005706162
3	0xbec7d16c	-0.39026964
4	0xbeb08de4	-0.34483254

gates.ImplicitValence.nn.0.weight f4 [1, 6]
0	0xbd617f58	-0.055053085
1	0x3dc57d76	0.096430704
2	0x3e85ca62	0.26130968
3	0x3e9a9120	0.30188847
4	0xbe97a9ff	-0.29621884
5	0xbdff13e8	-0.12454969

gates.Hybridization.nn.0.weight f4 [1, 5]
0	0x3ed5e2b8	0.41774535
1	0xbe921bc7	-0.28536817
2	0xbe917777	-0.28411457
3	0xbe01b99c	-0.1266846
4	0xbd205e4a	-0.03915242

feats.AtomicNum.weight f4 [3, 12]
0	0x3e5d5208	0.21613324
1	0x3e718e6c	0.23589486
2	0x3e45d428	0.19319212
3	0xbe05520b	-0.13019578
4	0x3caef030	0.021354765
5	0xbdf11480	-0.11771488
6	0xbd3c7359	-0.04600844
7	0x3cf500b7	0.029907567
8	0xbe4281f4	-0.18994886
9	0x3e3f71c0	0.18695736
10	0x3da5aafc	0.08089253
11	0x3d24e32f	0.04025572
12	0xbda4d5f0	-0.08048618
13	0x3df3b76f	0.119002216
14	0x3e516806	0.20449838
15	0xbe057e3a	-0.13036433
16	0xbb3b5000	-0.002858162
17	0x3e856300	0.26052094
18	0x3e08f93b	0.13376324
19	0x3e2f29f5	0.17105849
20	0x3ec8abda	0.39193612
21	0x3e3dc7a1	0.18533184
22	0x3cf57480	0.029962778
23	0x3e939671	0.28825715
24	0x3e2ab954	0.1667226
25	0x3e0f4ef1	0.13994958
26	0x3df3e2bc	0.119084805
27	0x3c93fcf0	0.018064946
28	0x3e896fb8	0.26843047
29	0xbe1b63d8	-0.15174806
30	0xbe781a32	-0.24228743
31	0xbe2385a6	-0.15968952
32	0x3df315e6	0.11869411
33	0x3cdd13c6	0.026986968
34	0xbc45ed80	-0.01208055
35	0xbe21a403	-0.15785222

feats.AtomicNum.bias f4 [3]
0	0x3e1db226	0.1539999
1	0xbe72767d	-0.23678012
2	0xbdb72431	-0.0894245

feats.Degree.weight f4 [3, 6]
0	0x3e992b52	0.29915863
1	0xbe3d6f63	-0.18499522
2	0x3e260915	0.16214402
3	0xbdf68a9b	-0.12038156
4	0xbe2b66bf	-0.16738413
5	0xbda87a4f	-0.082264535
6	0xbe049aa6	-0.12949619
7	0xbe495c13	-0.1966403
8	0x3ea664a8	0.3249867
9	0xbdf586df	-0.11988615
10	0x3e3660a6	0.17810306
11	0xbe0759e3	-0.13217883
12	0xbebb5ab5	-0.3659264
13	0x3d0450f5	0.03230377
14	0x3df460ff	0.11932563
15	0xbea5ecef	-0.32407328
16	0xbe9abe41	-0.30223277
17	0xbe4d5f34	-0.20055848

feats.Degree.bias f4 [3]
0	0xbe3138ef	-0.17306875
1	0xbe291382	-0.16511348
2	0x3e065ef1	0.13122155

feats.TotalNumHs.weight f4 [3, 5]
0	0x3ec46943	0.38361558
1	0x3e438e81	0.1909733
2	0xbdfd09c4	-0.12355378
3	0xbe7c9d28	-0.24669325
4	0xbeb48b98	-0.35262752
5	0xbe223290	-0.158396
6	0xbeacf8b7	-0.33783504
7	0xbe2c233c	-0.16810316
8	0x3e8ef24d	0.27919236
9	0xbe62856e	-0.22121212
10	0xbe97c183	-0.29639825
11	0x3d3df1fb	0.04637335
12	0x3cf43719	0.029811429
13	0x3d996280	0.074894905
14	0x3ececbf4	0.4038998

feats.TotalNumHs.bias f4 [3]
0	0xbe9ca9ff	-0.30598447
1	0xbe5e69bd	-0.21720023
2	0xbdcb5640	-0.0992856

feats.ImplicitValence.weight f4 [3, 6]
0	0x3e00d749	0.12582125
1	0x3e40beb8	0.18822753
2	0xbccc47f1	-0.024936648
3	0x3e3ccef8	0.18438327
4	0xbd87ee8c	-0.06637296
5	0xbe151b2a	-0.14561144
6	0xbe4ea9aa	-0.20181909
7	0x3e405858	0.187837
8	0x3b930e4d	0.004487789
9	0x3eb54158	0.35401416
10	0xbd7088a8	-0.058724076
11	0x3dc28368	0.0949772
12	0xbeb73a63	-0.35786733
13	0xbc6fc50d	-0.014634383
14	0xbe33887d	-0.17532535
15	0x3e63c6f2	0.2224386
16	0x3e5c7eec	0.21532792
17	0x3e14a86c	0.14517373

feats.ImplicitValence.bias f4 [3]
0	0x3e915416	0.28384465
1	0x3c866f26	0.016410422
2	0x3e448230	0.19190288

feats.Hybridization.weight f4 [3, 5]
0	0xbe0fe0ff	-0.14050673
1	0x3ebfdf32	0.37474972
2	0x3e872dd9	0.26402166
3	0xbe985442	-0.29751784
4	0xbd537aae	-0.05163067
5	0x3e73f0ba	0.23822299
6	0xbd1914cb	-0.037373345
7	0xbe38a1bb	-0.18030445
8	0x3c4ba940	0.012430489
9	0x3e9feb5f	0.3123426
10	0xbdcba7ae	-0.09944092
11	0xbec02086	-0.37524813
12	0xbe8f9c94	-0.28049147
13	0xbdaccbc4	-0.08437303
14	0xbee1d0d6	-0.44104642

feats.Hybridization.bias f4 [3]
0	0x3ebfb81d	0.37445155
1	0xbeb802a6	-0.3593952
2	0xbd394fa5	-0.04524197

feats.FormalCharge.weight f4 [3, 1]
0	0xbef18da8	-0.47178388
1	0xbee70b6a	-0.45125896
2	0x3ddec8d5	0.108781494

feats.FormalCharge.bias f4 [3]
0	0x3ec020d9	0.3752506
1	0x3efedbbc	0.4977702
2	0xbf597d2e	-0.84956634

feats.IsInRing.weight f4 [3, 1]
0	0xbf5b3198	-0.8562255
1	0x3dc16534	0.09443131
2	0xbf0f5217	-0.55984634

feats.IsInRing.bias f4 [3]
0	0xbf2cab7e	-0.67449176
1	0xbe57cc91	-0.2107413
2	0x3f150429	0.5820947

feats.IsAromatic.weight f4 [3, 1]
0	0xbed61f7e	-0.41820902
1	0x3ec912a3	0.3927203
2	0xbeef5bec	-0.46749818

feats.IsAromatic.bias f4 [3]
0	0xbf5c370a	-0.8602148
1	0x3f7af1e2	0.98025334
2	0x3f284d10	0.6574259

feats.NumRadicalElectrons.weight f4 [3, 1]
0	0x3f7f9fa0	0.99852943
1	0x3f370884	0.7149737
2	0x3f24dd1c	0.64399886

feats.NumRadicalElectrons.bias f4 [3]
0	0x3ee90115	0.45508638
1	0xbd3ce03b	-0.04611228
2	0x3f68edf0	0.90988064
