attention_pooling100_rat.pth (torch, 55913 bytes, 23 tensors)

gates.AtomicNum.nn.0.weight f4 [1, 12]
0	0x3e1f38b4	0.15548974
1	0x3e7f0bec	0.24906892
2	0xbcf704c0	-0.030153632
3	0xbdb1985a	-0.08671637
4	0xbdbde6ca	-0.09272535
5	0xbdaca2b4	-0.08429471
6	0x3e2fffbc	0.17187399
7	0x3cefd540	0.02927649
8	0x3da89760	0.082319975
9	0xbe3a8c3b	-0.18217556
10	0x3e366fb4	0.17816049
11	0x3e3384e6	0.17531165

gates.Degree.nn.0.weight f4 [1, 6]
0	0xbf81da74	-1.0144792
1	0xbf7bb942	-0.98329556
2	0xbea230f9	-0.31677988
3	0xbff8ff53	-1.9452919
4	0xbfd545f5	-1.6661974
5	0xbfeb155c	-1.8365893

gates.TotalNumHs.nn.0.weight f4 [1, 5]
0	0xbf1dc540	-0.61629105
1	0x400483b9	2.0705397
2	0xbea204e1	-0.31644347
3	0x3ef27721	0.47356513
4	0xbe0325aa	-0.12807336

gates.ImplicitValence.nn.0.weight f4 [1, 6]
0	0xbfcc1ea3	-1.594685
1	0xbb698817	-0.0035634094
2	0x3fb083d3	1.379023
3	0xbf46a787	-0.77599376
4	0xbeacfe60	-0.33787823
5	0xbdef31fc	-0.11679456

gates.Hybridization.nn.0.weight f4 [1, 5]
0	0x3efca7cc	0.4934677
1	0x3ebfbdc8	0.3744948
2	0xbeec2662	-0.46123034
3	0x3ea9bb56	0.33150738
4	0x3e682c14	0.22673064

feats.AtomicNum.weight f4 [100, 12]
0	0x3d432ee0	0.047652125
1	0xbf445fd7	-0.7670874
2	0x3d9a3898	0.07530326
3	0xc01bc6f3	-2.434018
4	0x3df10624	0.11768749
5	0x402243db	2.5353916
6	0x3f316b3d	0.6930426
7	0xbf6e14ce	-0.93000495
8	0xc041be8a	-3.0272546
9	0x3d207a40	0.039179087
10	0xbe225f71	-0.1585672
11	0x3fa3461b	1.275577
12	0x3e72af78	0.23699749
13	0x4026ce16	2.6063285
14	0x3db9ad64	0.09066275
15	0x4079f051	3.9052927
16	0x3e0009be	0.12503716
17	0x3eec7c8e	0.46188778
18	0xbed123ac	-0.40847528
19	0x401ae554	2.420247
20	0x3fa89ce7	1.3172883
21	0x402b7f2f	2.6796377
22	0x3e839190	0.25696993
23	0xc051635c	-3.2716894
24	0xbdc6d284	-0.097081214
25	0xbfc5d5cd	-1.5455872
26	0x3e70ca14	0.23514587
27	0x402a8d70	2.6648827
28	0x3deb430c	0.114873976
29	0x3fa16f82	1.2612154
30	0xbf482fb7	-0.7819781
31	0x402d0816	2.7036185
32	0xbfa61d90	-1.2977772
33	0xc013ef7d	-2.3114922
34	0xbe4cbf06	-0.19994745
35	0xbf315d02	-0.69282544
36	0x3e85fe50	0.26170588
37	0xbfddbace	-1.7322633
38	0x3cb5e900	0.02220583
39	0x401b8b54	2.430379
40	0x3d380880	0.04492998
41	0xc00697e5	-2.103021
42	0xbf80eacf	-1.0071658
43	0x40480f9a	3.1259522
44	0x3f7582d4	0.9590275
45	0xbfc7c1fe	-1.5606077
46	0xbdbcd2c2	-0.09219886
47	0xc004d06a	-2.0752206
48	0xbe310dc2	-0.17290404
49	0xbf84b195	-1.0366694
50	0x3e17def0	0.14831138
51	0x40a6a81e	5.208022
52	0x3e898158	0.26856494
53	0x3f33de12	0.7026073
54	0xbf97aee5	-1.1850249
55	0x40549309	3.3214743
56	0x3fd88639	1.6915962
57	0xbfd352b0	-1.6509609
58	0xbe73ac45	-0.23796184
59	0xbfc30848	-1.5236902
60	0x3e4a13e4	0.1973415
61	0x3f5336de	0.82505596
62	0x3e15d72a	0.1463286
63	0x406b47b6	3.676252
64	0x3e0185dc	0.1264872
65	0xc01418d8	-2.3140163
66	0x3bf1011d	0.007354869
67	0xc04b7dd8	-3.179556
68	0x4045c095	3.0898793
69	0x3fa2c884	1.2717443
70	0xbd0fbb70	-0.035090864
71	0xc04b0446	-3.1721358
72	0x3e4f1a6e	0.20224926
73	0x3fff9832	1.9968321
74	0xbe8b66ba	-0.27226812
75	0x402c11cd	2.6885865
76	0xbe19ad3c	-0.1500749
77	0x3f01813a	0.5058781
78	0x3cc4f782	0.024043802
79	0x3e9c51e0	0.30531216
80	0x3f26bfb0	0.6513624
81	0xbd0c2cd7	-0.03422245
82	0x3e8258dc	0.2545842
83	0xc005a928	-2.0884495
84	0x3e4fe112	0.20300701
85	0xbf8d7cd0	-1.1053715
86	0xbe61df04	-0.2205773
87	0x40b7de3c	5.745878
88	0x3e0c321a	0.13690987
89	0x3e0da48c	0.13832301
90	0xbf3d2b95	-0.73894626
91	0x409db1d3	4.927957
92	0xbfe4190d	-1.7820145
93	0xc010411a	-2.2539735
94	0xbe8b2373	-0.27175483
95	0x403552ba	2.8331742
96	0x3e1ac864	0.15115505
97	0xbf9d9592	-1.231127
98	0xbcfb64d0	-0.03068772
99	0xc019d419	-2.4035704
100	0x3dbe782c	0.09300265
101	0xbe273f88	-0.16332829
102	0x3f3b875a	0.73253405
103	0xc072e69c	-3.7953253
104	0x3f809eb3	1.0048431
105	0xbdd94787	-0.10609346
106	0xbe42a3c1	-0.1900778
107	0xbe4f237d	-0.20228381
108	0x3d94a3f8	0.07257837
109	0x3eb8ec0b	0.36117586
110	0x3ca1d160	0.019753158
111	0xc0ace099	-5.4024167
112	0x3e18a1de	0.14905497
113	0x3fa0ca99	1.2561828
114	0x3eb743cf	0.3579392
115	0xbf5a6156	-0.8530477
116	0xbf8e5c99	-1.1122009
117	0x3fd70e92	1.6801322
118	0xbc5a0c20	-0.013308555
119	0x3f96f07e	1.1792142
120	0x3e6d9158	0.23199975
121	0x3d9e95c4	0.07743409
122	0xbe27789d	-0.16354604
123	0xc08e91c5	-4.455294
124	0xbcc82d50	-0.02443567
125	0x3f9efd5a	1.2421067
126	0x3f02d817	0.51110977
127	0xc040a15e	-3.009849
128	0xbe73ec48	-0.23820603
129	0x3f2ebb29	0.68254334
130	0x3e5ec5e0	0.21755171
131	0xbf980df8	-1.1879263
132	0x3e90d904	0.2829057
133	0xbfb14f70	-1.3852367
134	0x3b2ce900	0.0026383996
135	0x3e15dc11	0.1463473
136	0xbe0f1fe9	-0.13977017
137	0xbf4b8479	-0.7949901
138	0x3c045c95	0.008078714
139	0x400d13f7	2.2043436
140	0xbfc46039	-1.5341865
141	0xbfec896a	-1.8479435
142	0xbce7e700	-0.028308392
143	0x406e5a85	3.7242749
144	0x3e7d7ad4	0.24753886
145	0xbf85df62	-1.0458796
146	0xbd800f6e	-0.06252943
147	0xbff2a04a	-1.8955166
148	0xbe66fbd1	-0.22556998
149	0x3f8ff3c4	1.1246266
150	0xbda45741	-0.08024455
151	0x3f8f5f39	1.1200935
152	0xc053c6e2	-3.3090138
153	0xbf8cb490	-1.0992603
154	0x3e385f80	0.1800518
155	0x400bd8f4	2.1851168
156	0x3e73d284	0.23810774
157	0x3f6916e4	0.91050553
158	0x3df53ebc	0.11974856
159	0xc0288997	-2.6333978
160	0x3d9cc27c	0.076542825
161	0xbeea6fbf	-0.4578838
162	0x3f6e14e8	0.9300065
163	0xc0880e30	-4.251732
164	0x3f698a10	0.9122629
165	0x3fd0a21c	1.6299472
166	0xbe541fc8	-0.20715249
167	0xc033d91b	-2.810126
168	0x3e46c7a0	0.19412088
169	0xbf2aaa5c	-0.666662
170	0x3e14a6a0	0.14516687
171	0x4012957e	2.2903743
172	0x3e91a3dc	0.28445327
173	0x3f58fcf8	0.84761
174	0x3d2dc254	0.042421654
175	0x3d41aed9	0.04728589
176	0xc010ed3a	-2.2644792
177	0xbfce605d	-1.6123158
178	0xbd5897d0	-0.052879155
179	0x401b864f	2.4300725
180	0xbbd34500	-0.0064474344
181	0xbfb9cef4	-1.4516282
182	0xbe7a52fc	-0.24445719
183	0x4006d8bd	2.1069787
184	0xbdac39f2	-0.0840949
185	0xbf7a6273	-0.9780647
186	0xbe080f90	-0.13287187
187	0xc04ff073	-3.2490509
188	0x4033e0c1	2.810593
189	0xc02c9d9f	-2.6971204
190	0xbe0a9473	-0.13533191
191	0x3edd8c0f	0.4327092
192	0xbe30c0b3	-0.17261009
193	0x3e287b14	0.164532
194	0xbe0e7cf9	-0.13914861
195	0xbe63a9b6	-0.22232708
196	0xbe1b7caf	-0.15184282
197	0x3f14074d	0.5782364
198	0x3e2d768f	0.16939758
199	0x40213489	2.5188315
200	0xc04c5531	-3.1926997
201	0x3ed7822e	0.42091507
202	0x3e8cdfba	0.2751444
203	0x401ff53c	2.499343
204	0xbd8617b2	-0.06547488
205	0x3f95115b	1.1645921
206	0xbe59f171	-0.21283509
207	0xbf663dd1	-0.89938074
208	0x3e3ad3a4	0.18244797
209	0xc0008e6d	-2.008693
210	0xbea182ba	-0.3154505
211	0x3f3c3301	0.73515326
212	0x3fc1fc70	1.5155163
213	0x40398d8f	2.899265
214	0xbe01a9a5	-0.1266237
215	0xc0098328	-2.1486301
216	0xbe738c64	-0.23784024
217	0x3fdd7544	1.7301412
218	0x3d58a490	0.052891314
219	0xbe9a14c8	-0.3009398
220	0xbe4cb84e	-0.19992182
221	0xbfc516d2	-1.5397589
222	0xbf8488e0	-1.0354271
223	0x4016ae1d	2.354377
224	0x3fb35957	1.4011639
225	0x404e01aa	3.2188516
226	0x3d98fd78	0.0747022
227	0xc00636d6	-2.097097
228	0xbcf324e0	-0.02968067
229	0xbf23b447	-0.63946956
230	0xbd8365c8	-0.064158976
231	0xc072806b	-3.789088
232	0x3bbdb340	0.0057891905
233	0x401ede71	2.4823267
234	0x3e8ba20d	0.27272072
235	0x3ff87177	1.9409627
236	0xc064525e	-3.5675273
237	0x3fe19b08	1.7625437
238	0x3e476918	0.19473684
239	0xbec65ba2	-0.38741785
240	0xbe897633	-0.2684799
241	0xbe86183a	-0.26190358
242	0x3e13c3ea	0.14430204
243	0x401f34fe	2.4876094
244	0xbcd6ceb0	-0.026221603
245	0xbf506d68	-0.8141694
246	0xbd1ebde3	-0.03875531
247	0xbe932e43	-0.28746232
248	0xbf75742f	-0.9588041
249	0xbf82ef91	-1.022936
250	0xbe63e304	-0.22254568
251	0x3fa67e93	1.3007377
252	0xbe863bb0	-0.26217413
253	0x400a5968	2.161707
254	0xbdc40e72	-0.09573068
255	0xbff2c41f	-1.8966101

feats.AtomicNum.bias f4 [100]
0	0x3e3a88e1	0.18216278
1	0xbdd2ca0e	-0.10292445
2	0xbdca73ec	-0.098853916
3	0xbddeb65d	-0.10874627
4	0xbea22bff	-0.3167419
5	0x3baf3e10	0.0053479746
6	0xbe51f798	-0.20504606
7	0xbdc12b3f	-0.09432077
8	0xbdf96b16	-0.12178628
9	0x3e129aec	0.1431691
10	0x3edb63f2	0.4284969
11	0xbe8f37f6	-0.27972382
12	0xbe6fcd12	-0.23418072
13	0xbd84200b	-0.06451424
14	0xbd4c3627	-0.04985633
15	0xbf02201b	-0.5083024
16	0xbe0cb004	-0.1373902
17	0x3e1c240c	0.15248126
18	0xbe811888	-0.25214028
19	0xbe092681	-0.13393594
20	0xbe317d26	-0.17332897
21	0xbb8fae36	-0.0043847812
22	0x3ea80f87	0.32824346
23	0xbe66c8bd	-0.22537513
24	0xbe9f854c	-0.31156385
25	0x3e8bbeaa	0.27293903
26	0xbe5292bf	-0.20563792
27	0x3cbfcb38	0.023412332
28	0xbdc8975a	-0.09794493
29	0xbd10bcc5	-0.035336275
30	0x3e370665	0.17873533
31	0xbee35aa2	-0.44405085
32	0x3e0adfc5	0.13561924
33	0x3dc4272c	0.09577784
34	0x3e63de81	0.22252847
35	0x3e8b4175	0.27198377
36	0xbeb5b02e	-0.35485977
37	0xbe80aca7	-0.25131723
38	0x3e754171	0.23950745
39	0xbe96f871	-0.2948642
40	0x3b126c75	0.0022342477
41	0x3e5c160a	0.21492782
42	0xbc87e044	-0.01658643
43	0x3e03cffc	0.12872308
44	0x3e5c1096	0.21490702
45	0xbd7584f6	-0.059941255
46	0x3ecd9529	0.40152863
47	0x3e5f90c3	0.21832566
48	0x3e1f83ad	0.15577574
49	0xbdb72129	-0.08941872
50	0x3e7084c8	0.23488152
51	0x3ed6d748	0.41961122
52	0x3d8eaa5c	0.06966087
53	0xbeb34e1a	-0.35020524
54	0x3b0bb1bc	0.0021315655
55	0x3c91ec36	0.01781283
56	0xbe5f0b6c	-0.21781701
57	0xbe8f11d9	-0.27943304
58	0xbe647d00	-0.22313309
59	0x3d895f65	0.06707648
60	0x3d1fea92	0.039042063
61	0x3f07882c	0.52942157
62	0xbca128a7	-0.019672705
63	0x3c187f4c	0.009307694
64	0xbedb53e7	-0.4283745
65	0x3bfa57f7	0.0076398808
66	0xbea035a8	-0.31290936
67	0xbdccbcbc	-0.09996936
68	0x3ec52798	0.3850677
69	0xbe9ba8c6	-0.304022
70	0xbe5586f0	-0.20852256
71	0x3e890671	0.26762727
72	0xbc022ffb	-0.00794601
73	0x3e9aba76	0.30220383
74	0x3e615cab	0.22008006
75	0xbdaa6282	-0.0831957
76	0xbd288a8f	-0.041147765
77	0x3e284585	0.1643277
78	0xbea1080b	-0.3145145
79	0x3ccfa1b8	0.025345668
80	0x3e9958bd	0.29950514
81	0x3eb0f1d8	0.34559512
82	0x3eccacd6	0.39975613
83	0x3ca346cf	0.019931225
84	0xbbc6f483	-0.0060716285
85	0xbeaa0f73	-0.33214912
86	0x3ed0994b	0.40741953
87	0xbe0a8720	-0.13528109
88	0x3efafad4	0.49019492
89	0x3da483c0	0.08032942
90	0x3ee79152	0.45228058
91	0xbe802517	-0.25028297
92	0xbdb75a90	-0.0895282
93	0xbe6a5348	-0.22883332
94	0x3e4dab57	0.20084892
95	0x3cfaab54	0.030599274
96	0x3d81f7a6	0.06346063
97	0x3ed8148b	0.42203173
98	0x3e1c84d8	0.15285051
99	0xbeaaf115	-0.33387056

feats.Degree.weight f4 [100, 6]
0	0xbefd40c7	-0.49463484
1	0x3fc455b7	1.5338658
2	0xbf5f4607	-0.8721623
3	0x3fbea299	1.4893371
4	0xbf405d1e	-0.75142086
5	0x40025e0e	2.0369906
6	0xbd43d85a	-0.04781375
7	0xbfa0ebb1	-1.2571927
8	0x3fb3e890	1.4055347
9	0xbfe3e0c1	-1.7802964
10	0x3f338501	0.7012482
11	0x40466dca	3.100451
12	0x3efc9a47	0.49336454
13	0x401057d5	2.2553608
14	0xbf4914f8	-0.7854762
15	0x3fa77b84	1.3084569
16	0xbf953f86	-1.1660011
17	0xc048abbd	-3.135482
18	0x3fac5dc5	1.3466116
19	0x3d6a0f15	0.05714329
20	0x3eb1f043	0.34753618
21	0xbeafbf5c	-0.34325683
22	0xc018106a	-2.3760018
23	0xbec37fe5	-0.38183513
24	0x3ee9b98f	0.45649382
25	0x3fd16f90	1.6362171
26	0xbddf8c90	-0.10915482
27	0x3f9d47c5	1.2287527
28	0xbf68e0df	-0.90968126
29	0xc0537045	-3.3037274
30	0x3f2b73af	0.66973394
31	0xbfa38701	-1.2775575
32	0x3f9a5c83	1.2059482
33	0xbff41657	-1.9069318
34	0xbe80983b	-0.25116143
35	0x4013f443	2.3117836
36	0xbea24617	-0.316941
37	0x3effcd44	0.49961293
38	0xbdb7f698	-0.08982581
39	0xbdb01385	-0.08597473
40	0xbfa804a4	-1.3126416
41	0xbf9bc631	-1.2169858
42	0x3e2951f0	0.16535163
43	0x3e98689a	0.29767305
44	0x3e7c3525	0.24629648
45	0x3f43122b	0.761996
46	0xbf4d0365	-0.80083305
47	0xbf369bd0	-0.713315
48	0xbe4b7823	-0.19870047
49	0x3f24f372	0.6443397
50	0xbe6f82c8	-0.23389733
51	0xbf11e170	-0.56984615
52	0xbf18f0b0	-0.5974226
53	0x3fc8e964	1.5696225
54	0xbf0280c2	-0.5097772
55	0xbf9ee351	-1.2413121
56	0xbe881036	-0.26574868
57	0x3ffb3354	1.9625039
58	0xbfe3d4ef	-1.7799357
59	0x402ef97d	2.7339776
60	0xbea5c886	-0.3237955
61	0x3feefd52	1.8671057
62	0xbf0333b7	-0.51250786
63	0x3fcd8257	1.6055402
64	0xbfece6fa	-1.8507988
65	0x4039035e	2.8908305
66	0x3d6c2b5e	0.057658546
67	0xbe3e7deb	-0.18602721
68	0x3deae954	0.11470285
69	0xbeb76d00	-0.35825348
70	0x3e4064d4	0.18788463
71	0xbf9ddc68	-1.2332888
72	0xbeb1cda8	-0.34727216
73	0x3f959436	1.1685855
74	0xbf08842a	-0.53326666
75	0x3fe3f629	1.7809497
76	0xbf8b8955	-1.0901285
77	0x3df20ce4	0.11818865
78	0xbe5b961e	-0.21443984
79	0x3e87df3a	0.26537496
80	0xbe5fc011	-0.21850611
81	0xbf3fb162	-0.7488004
82	0x3ecfc73a	0.40581685
83	0x3f5f24d7	0.8716559
84	0xbeb46268	-0.35231328
85	0x3fb05026	1.3774459
86	0xbea099c9	-0.3136733
87	0xbf8470b0	-1.034689
88	0x4084665d	4.1374955
89	0xbfecae91	-1.8490773
90	0x3f0e2543	0.55525607
91	0x3f087d6d	0.53316385
92	0x3c006d10	0.0078385025
93	0xbec8ce5c	-0.3921994
94	0xbed8d795	-0.42351976
95	0xc012c988	-2.2935505
96	0xbe8b5839	-0.27215746
97	0xbfb8e478	-1.4444723
98	0x3d566940	0.052346468
99	0x3f018541	0.50593954
100	0x3ec7d882	0.3903237
101	0x3fe42b17	1.782565
102	0x3f00508d	0.5012291
103	0xc02bb1bb	-2.6827228
104	0x3f752d69	0.95772415
105	0xbe79de98	-0.24401319
106	0xc04e4503	-3.2229621
107	0x405cbae6	3.4489074
108	0x3f6a57b3	0.9154007
109	0xbfc61d68	-1.5477724
110	0x3faa3c7f	1.3299712
111	0xbfa2111e	-1.2661474
112	0xc0b64156	-5.6954756
113	0x406239ac	3.53477
114	0xbf2fd03b	-0.6867711
115	0x3f0e5ada	0.5560738
116	0xbf419fe9	-0.7563463
117	0x402fff96	2.7499747
118	0xbf9d37dd	-1.2282673
119	0x4039fc4f	2.9060247
120	0x3f4a5b29	0.7904535
121	0x3fa62500	1.2980042
122	0x3dd10cb5	0.10207502
123	0xbf5ed66f	-0.8704595
124	0xbd942526	-0.07233648
125	0xbf78377c	-0.9695966
126	0x3f02dd1a	0.51118624
127	0xc02ecdc3	-2.7313087
128	0x3fb6a022	1.4267619
129	0xbf08d6bb	-0.5345265
130	0xc0581598	-3.376318
131	0x407fcbc8	3.9968128
132	0xbf813a09	-1.0095836
133	0xbed4523b	-0.41468987
134	0xbed63505	-0.41837326
135	0x3fc738d8	1.5564222
136	0x3f0ee54d	0.55818635
137	0x3f028b94	0.5099423
138	0xbecacc6b	-0.39609084
139	0x3f1305ca	0.5743071
140	0xbf0ea0ef	-0.55714315
141	0x40178400	2.3674316
142	0xbfbcd1a5	-1.4751478
143	0x4030bbf0	2.7614708
144	0x3e64ee79	0.22356595
145	0x3f95bf21	1.1698953
146	0xbee46008	-0.44604516
147	0x3fbc0fda	1.4692338
148	0xbf1c24c0	-0.60993576
149	0x3f7fb196	0.9988035
150	0xbb8b69de	-0.0042545637
151	0xc04c3949	-3.1909964
152	0x3ec8aad5	0.39192834
153	0x4000b690	2.0111427
154	0xbfd184a0	-1.6368599
155	0x404a9aea	3.1657052
156	0x3f851483	1.0396885
157	0x3fe98a22	1.824528
158	0xbc1d030d	-0.009583247
159	0x3fb8538f	1.44005
160	0xc036de6a	-2.857325
161	0xbfd877b6	-1.6911533
162	0x3ea13498	0.31485438
163	0x3fae4e59	1.361766
164	0x3d3d0d79	0.046155427
165	0xbf515d19	-0.8178268
166	0x3f37f07d	0.7185133
167	0xbfc86888	-1.56569
168	0xbf620d1f	-0.8830127
169	0xbe91e2d2	-0.28493363
170	0xbe905544	-0.28190053
171	0x3f9e72d3	1.2378792
172	0x3f176489	0.5913778
173	0x4011f1d7	2.2803857
174	0xbe20df45	-0.1571017
175	0x3fd64d1f	1.6742285
176	0xbf46df89	-0.7768484
177	0x3f85f16c	1.0464301
178	0xbf57f665	-0.84360343
179	0x3f1c1a02	0.60977185
180	0x3eed024f	0.46290824
181	0xbfcb70dd	-1.5893818
182	0x3f4d2dd7	0.8014807
183	0xbffe8efa	-1.9887383
184	0xbf677c84	-0.9042437
185	0x402a18c5	2.6577618
186	0x3f0aca8e	0.54215324
187	0xc0180acd	-2.3756592
188	0x3ea52b4b	0.32259592
189	0xbf4ec0d9	-0.8076301
190	0xbff251d7	-1.8931226
191	0x4031b7e1	2.776848
192	0xbe26b8fd	-0.16281505
193	0xbfc88ebd	-1.566856
194	0x3da83e39	0.08214993
195	0x3ecc5bbb	0.39913735
196	0x3ec35118	0.38147807
197	0x3ea0c07e	0.3139686
198	0x3fc0db49	1.506692
199	0x3f74bf24	0.9560416
200	0x3eefae7a	0.46812803
201	0x3e9151b1	0.28382638
202	0x3f535b74	0.8256142
203	0xc045140c	-3.0793486
204	0xbf18f4ca	-0.5974852
205	0xc0050403	-2.0783699
206	0x3be90a28	0.0071118064
207	0xbfae90a2	-1.3637888
208	0x4048f76a	3.140101
209	0xc040b58a	-3.0110803
210	0xbf7e2027	-0.9926781
211	0xbf708be3	-0.9396345
212	0xbefce69d	-0.49394694
213	0xbf7818de	-0.96912944
214	0x3f2f7f33	0.68553466
215	0x40733b8e	3.80051
216	0x3e385d80	0.18004417
217	0x3fe7676c	1.8078437
218	0xbf306cc1	-0.68915945
219	0x3fd9913d	1.6997448
220	0xbfe325ed	-1.7745949
221	0xc03091a3	-2.758889
222	0x3e84750b	0.25870547
223	0x3fea2f19	1.8295623
224	0xbda7278e	-0.08161841
225	0x3e06da4f	0.13169216
226	0x3da57d9f	0.08080601
227	0xc0522839	-3.283705
228	0xbd86cfe0	-0.06582618
229	0xc02939f4	-2.6441622
230	0x3eb574b9	0.35440615
231	0x3dfeb723	0.12437274
232	0x3f178234	0.5918305
233	0x3feea9d4	1.8645577
234	0x3edb3dea	0.42820674
235	0x3aa28ce3	0.0012401607
236	0x3e4a9114	0.19781905
237	0xbe8e012e	-0.27735275
238	0xbfe3ba3f	-1.7791213
239	0x40590da3	3.3914573
240	0x3f25b759	0.6473289
241	0x3f89c492	1.0763113
242	0x3dca8789	0.098891325
243	0x3f205392	0.6262752
244	0xc057eb67	-3.3737428
245	0x3f5aab08	0.8541722
246	0xbf934c76	-1.1507709
247	0x3e90a53e	0.2825107
248	0xbf0cb372	-0.5496131
249	0x3e668f75	0.22515662
250	0x3fa6a2b6	1.3018405
251	0x3e734564	0.23756939
252	0x3e3f17eb	0.18661468
253	0x3eee4732	0.46538693
254	0x3d3e59e0	0.04647243
255	0x3ed8eac3	0.4236661

feats.Degree.bias f4 [100]
0	0x3f047eec	0.5175617
1	0x3ee811cc	0.45326078
2	0x3e8efe5a	0.2792843
3	0x3e9c58e5	0.3053657
4	0x3d9d629a	0.076848224
5	0xbd2e3bc5	-0.04253747
6	0x3ccb65d0	0.024828821
7	0x3e13c89a	0.14431992
8	0x3e058b8f	0.13041519
9	0xbe8ce793	-0.27520427
10	0x3ecf84c5	0.40530983
11	0xbd13baa7	-0.036066677
12	0x3f01ed69	0.50752884
13	0xbf35502d	-0.70825464
14	0x3e3bcc63	0.18339686
15	0xbec8e7de	-0.392394
16	0xbe069603	-0.13143162
17	0x3eef1060	0.4669218
18	0x3f096cce	0.5368165
19	0x3f2d9f63	0.6782133
20	0xbe3c709e	-0.18402335
21	0x3e50077c	0.20315355
22	0x3eef75fa	0.46769696
23	0x3f10851b	0.564531
24	0x3f157778	0.5838542
25	0xbee2b889	-0.44281414
26	0x3eb186da	0.34673196
27	0xbcc180ae	-0.02362093
28	0x3f0e597f	0.5560531
29	0x3e5bc370	0.21461272
30	0x3e068ba4	0.13139206
31	0xbf2eb4d0	-0.6824465
32	0x3e2370bb	0.15960972
33	0x3f270d4f	0.6525468
34	0xbeeba7f8	-0.46026587
35	0xbd75066a	-0.05982057
36	0x3c95c3d5	0.018281857
37	0x3ea3b925	0.31977192
38	0x3e5177a1	0.20455791
39	0xbf1102b0	-0.56644726
40	0x3df04f60	0.117338896
41	0x3e7ba6ad	0.245753
42	0x3e9b50d0	0.30335093
43	0x3d7f9c3b	0.062404852
44	0xbd80d46b	-0.062905155
45	0xbf1539d5	-0.5829137
46	0x3da3ed0a	0.08004196
47	0xbe2d3fe9	-0.16918911
48	0x3f55e66d	0.83554727
49	0xbef8fd1c	-0.48630607
50	0xbf358633	-0.70907897
51	0x3d150d50	0.03638965
52	0x3c884472	0.0166342
53	0xbcdecaf8	-0.027196392
54	0x3e5b1ba6	0.21397266
55	0xbeb6040c	-0.35549963
56	0x3d6e5bef	0.058193143
57	0xbd8b3999	-0.06798095
58	0xbe8f89b5	-0.2803475
59	0x3f2bed84	0.67159295
60	0xbee169db	-0.44026074
61	0xbe4c2e8f	-0.19939636
62	0x3dd5351f	0.10410523
63	0x3e11f790	0.14254594
64	0x3dfafcf6	0.1225528
65	0xbcd81c8c	-0.0263808
66	0xbe59a840	-0.21255589
67	0x3eabdee1	0.3356848
68	0xbdd26651	-0.102734216
69	0xbc8b7895	-0.017025271
70	0xbd2b49df	-0.041818496
71	0xbe05b444	-0.13057047
72	0x3dced1d2	0.10098614
73	0xbda5fc10	-0.08104718
74	0x3b85a32d	0.00407829
75	0xbe6f079e	-0.2334275
76	0xbe0ce078	-0.13757503
77	0xbcf3351f	-0.029688416
78	0x3f544f79	0.82933766
79	0xbdde4bc9	-0.108542986
80	0xbee1efc5	-0.44128242
81	0xbe84b895	-0.25922075
82	0xbe88e247	-0.26735136
83	0xbf069e6e	-0.52585495
84	0x3e8d974d	0.27654496
85	0x3e852885	0.26007476
86	0x3e21fb1d	0.15818448
87	0xbed963cd	-0.42458954
88	0xbdcf529e	-0.1012318
89	0x3e95c07b	0.29248413
90	0xbe8bc2a6	-0.27296942
91	0xbda73da1	-0.08166052
92	0x3ef167ee	0.47149605
93	0x3df2c953	0.11854806
94	0xbecaad73	-0.39585456
95	0xbe9ba979	-0.30402735
96	0x3ecec6fa	0.40386182
97	0xbebd32f9	-0.36952952
98	0xbeab976c	-0.33513963
99	0x3e465772	0.19369295

feats.TotalNumHs.weight f4 [100, 5]
0	0x3d87a9ef	0.06624209
1	0xbe073d6b	-0.13207023
2	0x3ee049a6	0.4380619
3	0xbf13705d	-0.5759333
4	0xbdd5ada8	-0.10433513
5	0x3f8a35a7	1.0797623
6	0xbd3d80d7	-0.04626545
7	0xbf2887e7	-0.6583237
8	0xbf9cf7c0	-1.2263107
9	0x3e51b1a8	0.20477927
10	0xbda7c203	-0.08191302
11	0xbeec4b22	-0.46151072
12	0x3e10ad24	0.14128548
13	0xbe116a77	-0.1420077
14	0x3e0f1cec	0.13975877
15	0xbf94c95f	-1.1623954
16	0x3eef9fc1	0.4680157
17	0x3f345d88	0.7045522
18	0x3e8936f0	0.26799726
19	0x3d4087e8	0.04700461
20	0xbdf65813	-0.120285176
21	0x3c9a026b	0.018799981
22	0x3ea1031f	0.31447694
23	0xbf4c66b2	-0.798442
24	0xbdb68e14	-0.08913818
25	0x3ea985b8	0.33109832
26	0x3ebf0b1c	0.37313163
27	0xbf23b05e	-0.6394099
28	0xbdcf9a47	-0.10136848
29	0xbdf64a3c	-0.12025878
30	0x3f424966	0.7589325
31	0xbe6f8615	-0.23390992
32	0xbf8a8524	-1.0821881
33	0x3effe0d3	0.49976215
34	0x3ea72d28	0.3265164
35	0x3f3e1986	0.74257696
36	0xbf47470c	-0.77842784
37	0x3f620bc4	0.882992
38	0x408dec41	4.4350896
39	0xbd5d6730	-0.054053485
40	0xbf6dc3a7	-0.92876667
41	0x3e71b7a2	0.23605207
42	0xbf79b33e	-0.97539127
43	0xbf431636	-0.76205766
44	0xbe3d17a8	-0.18466055
45	0x3f121a63	0.5707151
46	0x3dc495aa	0.09598859
47	0xbebc2da0	-0.3675356
48	0x3f933caa	1.1502888
49	0xbe0952ca	-0.13410488
50	0xbebd80ff	-0.3701248
51	0x3daefe2e	0.08544575
52	0x3f869544	1.0514302
53	0xbedfd8bc	-0.43720043
54	0xbe8fcd20	-0.28086185
55	0xbedb2742	-0.4280339
56	0x3edf3012	0.43591362
57	0x3f3ebc1e	0.74505794
58	0x401b754c	2.4290342
59	0xbccf1f20	-0.025283396
60	0xbe9875a4	-0.29777253
61	0x3e0f1af5	0.13975127
62	0x4004a0ba	2.07231
63	0x3fd1ba52	1.6384985
64	0x3eaaa6a0	0.3333025
65	0xbf2d408b	-0.6767661
66	0x3f858fff	1.0434569
67	0x3c198907	0.009371049
68	0xbfd4d67b	-1.6627954
69	0x3ed74b3e	0.42049593
70	0x3d938c54	0.072045
71	0xbe58180e	-0.21102926
72	0x3e4934ac	0.19648999
73	0x3e8340c8	0.25635362
74	0xbec7d5da	-0.39030343
75	0xbf154fe4	-0.5832503
76	0x3e9f00d0	0.31055307
77	0xbffe2b16	-1.9856899
78	0xbfcb7d91	-1.5897695
79	0x3e177550	0.14790845
80	0x3cdfa9d4	0.02730266
81	0xbeefb5c1	-0.46818355
82	0xbcb502c9	-0.022096055
83	0x3fd062cf	1.6280154
84	0xbe8d3289	-0.27577618
85	0xbe87d5e2	-0.26530367
86	0x3e8a64b2	0.2702995
87	0xbf01b5c2	-0.50667965
88	0xbf99fde9	-1.2030612
89	0xbeaa382f	-0.3324599
90	0xbf27d2bb	-0.65555924
91	0x3eb0ea5c	0.34553802
92	0x3efdfc62	0.49606615
93	0xbf89ef60	-1.0776176
94	0xbe4175b0	-0.1889255
95	0x3ddcdd70	0.10784423
96	0xbf127448	-0.5720868
97	0x3f41e4a5	0.7573951
98	0xbf80127d	-1.0005642
99	0x3e99f5c6	0.30070323
100	0x3e8538b4	0.26019824
101	0xbd5a29b2	-0.05326242
102	0x3f764f7f	0.9621505
103	0x400471d1	2.0694468
104	0xbdd00874	-0.10157862
105	0x3ebfaab2	0.37434918
106	0x3f06a2ff	0.5259246
107	0x3e3dab50	0.18522382
108	0x3dafb82b	0.08580049
109	0x3ec3d64a	0.38249427
110	0x3f46ac1e	0.7760638
111	0xbf41a17c	-0.7563703
112	0xbf675683	-0.9036638
113	0xbf92075b	-1.1408495
114	0x3dddbbf0	0.10826862
115	0x3e3847f5	0.179962
116	0xbe479af9	-0.19492711
117	0x3fa07cb0	1.2538052
118	0x400fdb61	2.2477648
119	0x3e010228	0.12598479
120	0x3f45096f	0.7696752
121	0xbea37ed8	-0.31932712
122	0x3eca82b3	0.3955284
123	0x3d3b020d	0.045656253
124	0xbe821760	-0.2540846
125	0x3fa370c8	1.2768793
126	0xbfcf6a36	-1.6204288
127	0xc01fd9e5	-2.4976742
128	0x3f6c7e41	0.9238015
129	0x3ed2a372	0.41140324
130	0x3fc20440	1.5157547
131	0xbc91310f	-0.017723588
132	0x3f21873c	0.63096976
133	0x3f9a210f	1.2041339
134	0xbe87985e	-0.26483434
135	0xbf2d6539	-0.6773258
136	0x3d90adf0	0.07064426
137	0x4009830f	2.1486242
138	0x3f375ff1	0.7163077
139	0x3da68980	0.08131695
140	0xbe285195	-0.16437371
141	0x3d6a21ba	0.05716107
142	0xbf6c6613	-0.9234325
143	0xbfaa5e86	-1.3310096
144	0xbe41ee1a	-0.18938485
145	0x3ec058df	0.37567803
146	0xbd457d38	-0.04821512
147	0xba15f18a	-0.0005719891
148	0xbf89fb75	-1.0779864
149	0xbe191fa8	-0.14953482
150	0x3ef3a23f	0.4758472
151	0x3e193fc1	0.14965726
152	0x3e62956f	0.22127317
153	0x3f40ae1f	0.7526569
154	0xbde0bd54	-0.109736115
155	0x3f1850fb	0.59498566
156	0x3e01fc60	0.1269393
157	0xbf0a516f	-0.5403051
158	0x3f7f74b3	0.99787444
159	0x3d13a428	0.036045223
160	0x3f0db281	0.553505
161	0xbed5c82c	-0.41754282
162	0xbf8fc2c1	-1.1231309
163	0x3d20cc04	0.039257064
164	0x3c4a4a00	0.012346745
165	0xbf37571d	-0.716173
166	0x3ce7643e	0.028246041
167	0xbdf3f778	-0.11912435
168	0xbf39c968	-0.72572947
169	0xbeb29344	-0.3487798
170	0xbeeedf0f	-0.46654555
171	0xbf0881d5	-0.5332311
172	0xbe66c965	-0.22537763
173	0x3f8c109d	1.094257
174	0x3df0a6c8	0.11750561
175	0xbf15ac94	-0.5846646
176	0x3ea6e6f2	0.32598072
177	0x3eabed63	0.3357955
178	0xbf7c06c3	-0.9844782
179	0xbe2457c2	-0.16049102
180	0xbe7c318b	-0.24628274
181	0xbd9c1994	-0.07622066
182	0x3f5001f8	0.81253004
183	0x3fa3cf64	1.2797666
184	0xbe6434cc	-0.22285765
185	0xbee16718	-0.44023967
186	0xbc96e6a5	-0.018420527
187	0x3fa5b4cf	1.2945803
188	0x3de0d9f0	0.10979068
189	0xbec791f0	-0.3897853
190	0x3ea2558a	0.31705886
191	0xbd8c4799	-0.06849594
192	0xbf9fff99	-1.2499877
193	0xbf7ba276	-0.9829477
194	0x3e0b1f54	0.1358617
195	0xbedb0d5e	-0.42783636
196	0x3ed7b1cb	0.42127833
197	0x3de9b216	0.1141092
198	0xbfde08a8	-1.7346392
199	0xbd2f83b8	-0.042850226
200	0x3df7d9f7	0.1210212
201	0x3d85fc02	0.06542207
202	0x3f6e26ce	0.9302796
203	0x404140ce	3.0195804
204	0xbe145b48	-0.14487946
205	0x3ecb28bc	0.39679515
206	0xbe20dcdd	-0.15709253
207	0x3ee51d71	0.44749025
208	0x3f8d0b47	1.1019067
209	0xbea8967e	-0.32927316
210	0xbec2b9d6	-0.38032407
211	0xbe115b25	-0.14194925
212	0x3f7d4236	0.98929155
213	0x3ef3252d	0.474893
214	0x3d8b1d60	0.06792712
215	0x3efddd95	0.49583116
216	0xbe3bb4cf	-0.18330692
217	0x3e89e3f3	0.26931724
218	0x4025bf4b	2.5898006
219	0xbe268478	-0.1626147
220	0x3f922cc9	1.1419917
221	0xbda98bfb	-0.08278652
222	0xbf96437e	-1.1739347
223	0xbeec3222	-0.46131998
224	0x3d886e08	0.06661612
225	0x3ee2298d	0.44172326
226	0xbd38d44d	-0.04512434
227	0xbf2c7b25	-0.67375404
228	0x3ea46b40	0.32113075
229	0x3e60aecc	0.2194168
230	0x3f9a79e3	1.2068447
231	0xbf2e34c4	-0.68049264
232	0xbe97fd41	-0.29685405
233	0x3fb09e89	1.3798381
234	0xbe160482	-0.14650157
235	0xbfbb7d2c	-1.4647574
236	0x3f6de16b	0.92922086
237	0x3f8d6f2a	1.104955
238	0xbf7571fb	-0.95877045
239	0xbe90a867	-0.2825348
240	0xbe7c83b9	-0.24659623
241	0x3eaf1dad	0.34202328
242	0x402060a3	2.5058982
243	0x3e9f0b6b	0.310634
244	0x3c8faa10	0.017537147
245	0x3f20c5f2	0.6280204
246	0xbdb700cb	-0.08935698
247	0xbf0af4ec	-0.5427997
248	0x3f976db6	1.1830356
249	0xbeba95eb	-0.36442503
250	0xbd173737	-0.03691789
251	0x3dad9d76	0.08477299
252	0xbf512a71	-0.81705385
253	0x3f2993a6	0.6624092
254	0x3ed26074	0.41089213
255	0x3f11510f	0.5676431

feats.TotalNumHs.bias f4 [100]
0	0xbe3c2a61	-0.18375541
1	0x3e98b9e0	0.2982931
2	0x3e21f6b0	0.1581676
3	0x3e3ddea6	0.18541965
4	0x3dfce027	0.12347441
5	0xbde07434	-0.10959664
6	0x3e2cbef7	0.16869722
7	0x3f001282	0.5002824
8	0xbe556d02	-0.20842364
9	0xbe727791	-0.23678423
10	0xbd6ecb6c	-0.058299467
11	0xbe4c09a8	-0.19925559
12	0x3dce4dc1	0.10073424
13	0x3e048649	0.1294185
14	0xbe7c79ab	-0.24655788
15	0xbf24eb19	-0.6442123
16	0x3e87f422	0.26553446
17	0x3ec1a0cd	0.37817994
18	0x3e9c079a	0.3047455
19	0x3d89b922	0.067247644
20	0x3f060ae8	0.5236039
21	0x3f01ca47	0.50699276
22	0xbf078ba1	-0.5294743
23	0x3ec32e06	0.3812105
24	0x3ece9734	0.40349734
25	0xbec18e0e	-0.37803692
26	0x3ee9a53a	0.4563387
27	0x3e0dd393	0.1385024
28	0xbf37bf09	-0.7177587
29	0xbea78142	-0.32715803
30	0x3d45a3de	0.04825198
31	0x3e5c5966	0.21518478
32	0x3ddd1398	0.10794753
33	0xbf2491a1	-0.6428471
34	0xbeb87f4d	-0.36034623
35	0x3e98fd61	0.29880813
36	0x3f299455	0.6624196
37	0x3e916b2d	0.2840208
38	0xbeafa905	-0.3430864
39	0x3e140ed0	0.14458776
40	0x3f3b1e79	0.7309337
41	0xbd478f62	-0.048720725
42	0x3e8cd217	0.27504036
43	0x3daafc5a	0.083489135
44	0x3d7292d5	0.05922206
45	0x3daed23e	0.08536194
46	0xbe2ea53f	-0.17055224
47	0xbf260e67	-0.64865726
48	0x3c110062	0.008850189
49	0x3e6cdddf	0.23131512
50	0xbd004295	-0.031313498
51	0xbebcd2ab	-0.36879477
52	0x3da26f16	0.07931344
53	0xbe74bc8a	-0.23900047
54	0xbf02d3ff	-0.5110473
55	0x3e926fd8	0.28600955
56	0x3edb538f	0.42837188
57	0xbe957c0b	-0.291962
58	0x3ea4b954	0.32172644
59	0xbe369ef6	-0.17834076
60	0x3f1f246e	0.6216496
61	0x3f790e66	0.97287595
62	0xbd91b4a1	-0.0711453
63	0x3f17cc87	0.5929646
64	0x3ef3de66	0.47630614
65	0xbef264c7	-0.47342512
66	0xbe875b1a	-0.26436692
67	0xbf546550	-0.8296709
68	0xbe43c381	-0.19117548
69	0xbd530314	-0.051516607
70	0xbed6f42c	-0.41983163
71	0xbd61ade4	-0.055097476
72	0x3e12b99c	0.14328617
73	0x3c8a1025	0.016853401
74	0x3e21b627	0.15792142
75	0xbeb4035d	-0.35158816
76	0x3f758abc	0.95914817
77	0xbdbe02df	-0.09277891
78	0xbea154f7	-0.31510136
79	0x3e07055e	0.13185641
80	0xbdb07a24	-0.086170465
81	0x3d6694d9	0.056294296
82	0xbebd16f4	-0.36931574
83	0xbdedf0a2	-0.11618163
84	0xbdae674f	-0.08515798
85	0x3fa1689a	1.2610047
86	0xbf1b09df	-0.6056194
87	0x3dcc60c7	0.09979396
88	0x3e320203	0.1738358
89	0xbe9fc9d1	-0.3120866
90	0xbd2681f0	-0.04065126
91	0x3ee85ad8	0.45381808
92	0x3f07ad19	0.529985
93	0xbe85a3e6	-0.26101607
94	0x3e91c083	0.28467187
95	0x3deabab1	0.1146139
96	0x3d4461db	0.047944885
97	0x3e8ce9e5	0.27522197
98	0xbf51cf54	-0.8195698
99	0xbb3d7455	-0.002890845

feats.ImplicitValence.weight f4 [100, 6]
0	0xbf69f7cc	-0.91393733
1	0x3f3ba531	0.7329894
2	0x3f85bb3e	1.0447767
3	0x3d130102	0.035889633
4	0xbe9cfa24	-0.30659592
5	0xbe322e97	-0.17400585
6	0xbf83b661	-1.0290033
7	0x3fa6e4b9	1.3038551
8	0xbef31b63	-0.47481832
9	0xbf4c1f4b	-0.7973525
10	0x3e574684	0.21022993
11	0x3e567a8c	0.20945185
12	0xbc0852dc	-0.008320536
13	0xbdb8ecd5	-0.09029547
14	0x3e7b6f24	0.24554116
15	0xbd69cd69	-0.05708066
16	0x3dbd5c68	0.09246141
17	0x3ec321b8	0.38111663
18	0x3fed8e8d	1.8559128
19	0xbefba5f1	-0.4915004
20	0xbf2e332e	-0.68046844
21	0x3e9a2297	0.30104515
22	0x3e95eebe	0.29283708
23	0xbe65e38b	-0.22450082
24	0xbbaadeb7	-0.005214538
25	0x3f3d3b28	0.7391839
26	0xbf096f9b	-0.5368592
27	0x3ead0579	0.33793238
28	0xbe173836	-0.14767537
29	0x3e667bf0	0.22508216
30	0x3ee3b0ba	0.4447077
31	0xbf1f3732	-0.62193596
32	0xbf0f6d6f	-0.5602636
33	0xbf03f337	-0.5154299
34	0xbe3a5ded	-0.18199892
35	0x3e3a0eec	0.18169755
36	0xbe35d5a8	-0.17757285
37	0x3cdd709b	0.027031234
38	0x3e47ef71	0.19524933
39	0x3ea9444d	0.33059922
40	0x3ea19a84	0.315632
41	0xbd8a4870	-0.067520976
42	0x3f15e5c7	0.5855374
43	0xbf3e981d	-0.74450856
44	0x3de06d71	0.10958374
45	0x401abf46	2.4179244
46	0xbea2a576	-0.31766862
47	0xbe4a2cb3	-0.19743614
48	0x3e8efb8c	0.2792629
49	0xbf0f0c8e	-0.5587853
50	0xbe75a338	-0.23988044
51	0xbf87b6a7	-1.0602616
52	0x3dcd3250	0.10019362
53	0x3c2633e0	0.010144204
54	0xbf6393f2	-0.8889762
55	0xbf10d628	-0.56576777
56	0x3f7318c5	0.9495967
57	0x3fd367be	1.6516035
58	0xbeba0fc7	-0.36340162
59	0x3ecc4182	0.39893728
60	0x3f164e0b	0.58712834
61	0xbf91a54f	-1.1378573
62	0x3f04b3b5	0.5183671
63	0x3ed77d03	0.42087564
64	0xbeaa46e6	-0.33257216
65	0xbe91e5ab	-0.28495535
66	0x3edf89e4	0.4365989
67	0xbe427a1d	-0.18991895
68	0xbe3ce924	-0.18448311
69	0x3fe96524	1.8233991
70	0x3ec7a704	0.3899461
71	0x3d2bc1b8	0.04193279
72	0x3e0fd46b	0.14045875
73	0xbedc737b	-0.43056855
74	0x3f29c97b	0.6632306
75	0x3f86bab3	1.0525726
76	0xbdc880dc	-0.09790203
77	0xbd362a00	-0.044473648
78	0x3dfce850	0.123489976
79	0xbe93adbb	-0.28843483
80	0xbe6b3f51	-0.22973372
81	0xbfbeb123	-1.4897808
82	0xbe9ffb0c	-0.3124622
83	0xbeae7876	-0.3407628
84	0xbd86bc67	-0.06578904
85	0x3f5f30f2	0.8718406
86	0x3f5f9431	0.873355
87	0xbef19efe	-0.47191614
88	0x3e86d574	0.26334727
89	0x3e5879c8	0.21140206
90	0x3e11d436	0.14241108
91	0xbcbbc99a	-0.02292328
92	0xbf00d0ad	-0.50318414
93	0xbfdd0b2e	-1.7269037
94	0x3d050e50	0.032484353
95	0x3e02c994	0.12772208
96	0xbe11db70	-0.14243865
97	0x3dd623d0	0.104560494
98	0xbced45d9	-0.02896397
99	0x3fbd0fa1	1.4770395
100	0x3ebca8d8	0.36847568
101	0x3e6d8528	0.23195326
102	0x3f5d2bb9	0.8639484
103	0xbc34e453	-0.011040765
104	0xc015d9cb	-2.341418
105	0xbeecf012	-0.4627691
106	0x3e925074	0.28577006
107	0xbead8967	-0.33893892
108	0x3f08dd9e	0.5346316
109	0xbd2ef0d9	-0.04271016
110	0xbff6be92	-1.9276907
111	0xbf40cbc8	-0.75310946
112	0x3e74a2c8	0.23890221
113	0x3d006fd8	0.031356663
114	0xbf4d4440	-0.80182266
115	0x3f85f706	1.046601
116	0x3e55b747	0.20870696
117	0xbe277218	-0.16352117
118	0xbe859112	-0.26087242
119	0x3e997bbc	0.29977214
120	0x3e041f78	0.1290263
121	0xbeb948d6	-0.36188382
122	0xbc91538f	-0.01774004
123	0x3f67c438	0.9053378
124	0xbe071b68	-0.13194048
125	0xbea207c8	-0.31646562
126	0x3dc3ee1c	0.095669
127	0xbea697dd	-0.32537737
128	0xbfca085a	-1.5783799
129	0x3eee459e	0.4653749
130	0x3ebe3c40	0.37155342
131	0x3dcf0160	0.10107684
132	0xbfb5d712	-1.4206259
133	0x3fa7c642	1.3107378
134	0x3e0f8753	0.14016466
135	0xbd867095	-0.06564442
136	0xbd7d6d98	-0.061872095
137	0x3eaf919c	0.3429078
138	0x3f29e63d	0.6636694
139	0xbf04ea47	-0.5191998
140	0xbd7fcbd3	-0.06245024
141	0x3f93f1e5	1.1558195
142	0x3eb7ba98	0.35884547
143	0x3eb26c34	0.34848177
144	0xbf97e69f	-1.1867255
145	0x3f1b9d1d	0.6078661
146	0x3f8003bf	1.0001143
147	0xbdacb195	-0.084323086
148	0xbda6d428	-0.08145934
149	0xbdd6e4a8	-0.104928315
150	0xbdd9efd1	-0.106414445
151	0xbf5a3824	-0.85241914
152	0xbdb3f490	-0.08786881
153	0x3e9fc42b	0.31204352
154	0xbea1d347	-0.31606504
155	0xbd87612c	-0.06610331
156	0xbdd31148	-0.103060305
157	0xbecb6b63	-0.39730367
158	0xbee5b835	-0.448671
159	0x3e9d3e4f	0.307116
160	0xbd23fbe8	-0.04003516
161	0xbe057ecc	-0.1303665
162	0x3ed8c23f	0.42335698
163	0xbd09a3d0	-0.03360349
164	0xbeaea2c3	-0.34108552
165	0x3ea4a0dd	0.3215398
166	0xbe427095	-0.18988259
167	0x3e293048	0.16522324
168	0xbf205a5a	-0.62637866
169	0x3f67e463	0.90582865
170	0xbdc6a58e	-0.09699546
171	0xbf638ef8	-0.8889003
172	0xbe88b339	-0.26699236
173	0x3bc8ac00	0.0061240196
174	0xbf03ef1d	-0.5153673
175	0xbe050a0d	-0.12992115
176	0x3f6b35b3	0.91878814
177	0xbf066597	-0.52498764
178	0x3e8b29f0	0.27180433
179	0xbeccb2b0	-0.39980078
180	0x3f4c3290	0.7976465
181	0xbf48c15c	-0.78420043
182	0xbf01ad4b	-0.5065505
183	0x3f358a50	0.70914173
184	0xbe6ca4a4	-0.2310968
185	0x3d9f23f0	0.077705264
186	0x3e682eba	0.22674075
187	0xbe45d0f7	-0.19317995
188	0xbebc0642	-0.36723524
189	0x3f93b89d	1.1540715
190	0xbeb91f33	-0.36156616
191	0xbe5dbb1d	-0.2165341
192	0x3e4f1c6e	0.20225689
193	0x3f33067e	0.6993178
194	0xbc80c0e2	-0.015716974
195	0x3f2cf029	0.67553955
196	0xbde108d0	-0.10988009
197	0xbe53369a	-0.20626298
198	0xbf1897ff	-0.5960693
199	0x3fd0b0fb	1.630401
200	0x3e2486d3	0.16067056
201	0xbe88e7e1	-0.2673941
202	0xbeb23afb	-0.34810624
203	0xbdc67f0c	-0.09692201
204	0xbe448e4e	-0.1919491
205	0x3e018c9e	0.12651297
206	0x3e94c97e	0.29059976
207	0xbea2e2f3	-0.31813774
208	0xbe00c31a	-0.12574425
209	0xbe81cd9d	-0.25352183
210	0xbe23f0b4	-0.1600979
211	0xbe5499ed	-0.20761843
212	0xbd96dc83	-0.07366278
213	0xbf575e2a	-0.8412806
214	0xbe6e9d7b	-0.23302262
215	0xbe992448	-0.29910493
216	0x3e8fec2b	0.2810987
217	0xbf4236b4	-0.7586472
218	0x3ccf4270	0.025300235
219	0x3f38a481	0.72126013
220	0x3c541b40	0.01294595
221	0x3ebadf10	0.36498308
222	0x3f40d782	0.7532884
223	0x3e06cd8f	0.13164352
224	0xbef40047	-0.47656462
225	0xbe04c541	-0.12965871
226	0xbe1722ee	-0.14759418
227	0x3e4a07c8	0.19729531
228	0xbfa2767c	-1.2692409
229	0x3f312b3b	0.6920659
230	0xbee6203c	-0.44946468
231	0xbf526a7d	-0.8219374
232	0xbeaffe80	-0.34373856
233	0xbe139ddc	-0.14415687
234	0x3f53ede0	0.82784843
235	0xbf26bba5	-0.6513007
236	0xbef77b94	-0.4833647
237	0xbf283fc0	-0.65722275
238	0x3cac4e20	0.021033347
239	0x3ddd2800	0.10798645
240	0x3f1cb44b	0.61212605
241	0xbfa10a91	-1.258135
242	0xbeac7491	-0.33682683
243	0x3fc23cf9	1.5174857
244	0xbe6551b3	-0.22394447
245	0x3e9f85c0	0.3115673
246	0xbf8db893	-1.1071953
247	0x3e9d1549	0.30680302
248	0x3f8203f2	1.0157454
249	0x3e8e60b6	0.2780816
250	0xbea401f0	-0.32032728
251	0xbe449a17	-0.19199406
252	0xbe955777	-0.29168293
253	0xbe993014	-0.29919493
254	0x3f016160	0.5053921
255	0x3ed66aa5	0.41878238

feats.ImplicitValence.bias f4 [100]
0	0xbea5de5c	-0.3239621
1	0xbf4d1338	-0.8010745
2	0x3ed263b9	0.41091707
3	0x3eefc635	0.46830907
4	0xbd57e0b0	-0.052704513
5	0xbea57276	-0.3231389
6	0xbe75b049	-0.23993029
7	0x3eb75133	0.35804138
8	0x3ef25331	0.47329095
9	0xbf011cd8	-0.5043464
10	0xbed4545a	-0.41470605
11	0x3f4b7792	0.79479325
12	0xbeac8149	-0.33692387
13	0xbdfc05fd	-0.1230583
14	0x3eea51c5	0.4576551
15	0x3ecc254d	0.39872208
16	0x3e5fb740	0.21847248
17	0x3da8d1a1	0.082431085
18	0xbe44fd3d	-0.19237228
19	0x3e3bd10a	0.18341461
20	0x3da8054b	0.082041346
21	0xbf3f45cb	-0.7471587
22	0x3e104662	0.14089349
23	0x3e696100	0.22790909
24	0xbf35a36d	-0.7095249
25	0xbf1b4427	-0.6065087
26	0xbeacf7df	-0.3378286
27	0x3f0abc47	0.5419354
28	0x3edc471c	0.43023002
29	0xbee29d9b	-0.44260868
30	0xbe309796	-0.17245325
31	0xbdfc8215	-0.12329499
32	0xbd9ad9af	-0.07561051
33	0x3e26a65f	0.16274403
34	0x3ee83d17	0.45359108
35	0xbe793326	-0.24335918
36	0xbe086770	-0.13320708
37	0x3f31d0b7	0.694591
38	0xbead5284	-0.33852017
39	0xbbb8b04f	-0.005636252
40	0xbe7b381f	-0.24533127
41	0xbd52ab6b	-0.05143301
42	0xbe83bcad	-0.25729886
43	0xbdb0e8f5	-0.08638183
44	0xbf416549	-0.75545174
45	0x3e54aa3f	0.20768069
46	0xbe70ed3e	-0.23528
47	0xbd05ef1d	-0.03269874
48	0xbe92fd90	-0.28709078
49	0xbf0addf9	-0.54244953
50	0xbc4032d1	-0.011730866
51	0x3d87c6cc	0.06629714
52	0x3e6a7e36	0.22899708
53	0x3e873cb2	0.26413494
54	0x3e03c658	0.12868631
55	0xbfb245d4	-1.392756
56	0x3ecae522	0.3962794
57	0x3f21471a	0.6299912
58	0xbef0ed46	-0.47056025
59	0x3e32d018	0.17462194
60	0xbe239c8d	-0.15977688
61	0xbfaad418	-1.3345976
62	0x3c8daa7a	0.017293204
63	0xbea675cd	-0.3251175
64	0x3e7209b8	0.2363652
65	0x3e7398ad	0.2378871
66	0x3f80a940	1.0051651
67	0x3e5144ad	0.20436354
68	0xbf18b535	-0.596515
69	0xbf209f0c	-0.62742686
70	0x3f86d674	1.0534196
71	0xbea62a31	-0.32454064
72	0x3e0c7ea2	0.13720182
73	0xbf02347a	-0.5086132
74	0xbda631ed	-0.08114991
75	0x3f2b5b9b	0.66936654
76	0x3d8f81c1	0.070071705
77	0xbe51835a	-0.20460263
78	0xbd2c25b2	-0.042028137
79	0xbf6f7fc5	-0.93554336
80	0xbe0b2411	-0.13587977
81	0xbe3f6fd4	-0.18695003
82	0x3e74bfa1	0.23901226
83	0xbe470f15	-0.19439347
84	0x3e470bf2	0.1943815
85	0xbdc44f63	-0.09585454
86	0x3ef12e69	0.4710572
87	0xbecf17ad	-0.4044775
88	0xbea42f74	-0.32067454
89	0xbed7a47e	-0.42117685
90	0xbdae3683	-0.08506491
91	0xbc1a100b	-0.009403239
92	0xbe1d23f2	-0.15345743
93	0x3f423b19	0.75871426
94	0xbf2fddda	-0.68697894
95	0x3f091c21	0.53558546
96	0x3e9fb5bd	0.31193343
97	0xbc3b30bc	-0.011425193
98	0xbd268b56	-0.040660225
99	0x3f019171	0.5061255

feats.Hybridization.weight f4 [100, 5]
0	0xbf922fe5	-1.1420866
1	0xbe70549c	-0.23469776
2	0xbec15b65	-0.3776504
3	0x3dc008e8	0.09376699
4	0x3e9273f9	0.28604105
5	0xbfcbc05c	-1.5918078
6	0xbf0a1bc0	-0.53948593
7	0x3f09e075	0.5385812
8	0x3dd18030	0.10229528
9	0x40021a8c	2.0328703
10	0xbfe39836	-1.7780826
11	0x3f13488a	0.5753256
12	0xbd2bd8db	-0.041954856
13	0x3e07382c	0.13205022
14	0xbfe3d337	-1.7798833
15	0x3e866fd2	0.26257187
16	0x3f346b5e	0.7047633
17	0xbf5538a6	-0.83289564
18	0x3d831700	0.06400871
19	0xbfa9e2c5	-1.327233
20	0xc02a4c6c	-2.6609144
21	0x3f33cdd8	0.7023597
22	0x3eb354af	0.35025546
23	0xbe454bd0	-0.19267201
24	0xc0170d10	-2.3601723
25	0x3e954f89	0.29162243
26	0xbf42c36f	-0.7607946
27	0x3f697e82	0.9120866
28	0x3e0ec038	0.13940513
29	0x3fcbcbdc	1.5921588
30	0xbf9ac108	-1.2090158
31	0xbee19bcc	-0.44064176
32	0x3f151d74	0.58248067
33	0x3ea1a804	0.31573498
34	0x3e603b4f	0.21897624
35	0x4018a31e	2.384956
36	0x3f9b93e9	1.2154514
37	0xbfb4632b	-1.4092764
38	0x3dff9940	0.12480402
39	0xbfafedd7	-1.3744458
40	0x3f7a089d	0.9766939
41	0x3dee2992	0.11629023
42	0x3ebfd5c1	0.3746777
43	0xbda3daa0	-0.08000684
44	0x3f093814	0.53601193
45	0x3fd4af8f	1.6616076
46	0x3ef9be29	0.48777893
47	0xbfcfa19f	-1.6221198
48	0xbeac673e	-0.33672518
49	0x3fd2452f	1.6427363
50	0x3f40d837	0.7532992
51	0x3dbe7025	0.092987336
52	0xbeb4ff4c	-0.35351026
53	0x3cf8c230	0.030366033
54	0x3ffcb246	1.9741905
55	0x406d4840	3.7075348
56	0x3f4329a7	0.7623543
57	0xbf834218	-1.0254545
58	0x3eb0fcb4	0.34567797
59	0xbf563e53	-0.8368885
60	0x4007c8d8	2.1216335
61	0x3eaf2b61	0.34212783
62	0xbf70bdfe	-0.94039905
63	0x3e8f487a	0.27984983
64	0x3b87b19f	0.004141047
65	0xbed3030a	-0.41213256
66	0xbfa1e010	-1.2646503
67	0x3fbe879f	1.4885138
68	0xbe21219a	-0.15735474
69	0x3f822212	1.0166647
70	0xbed2886a	-0.411197
71	0xbf8f96fd	-1.1217953
72	0x3f5a731c	0.8533189
73	0xbe740f71	-0.23834015
74	0xbfa4c357	-1.2872113
75	0xbfbc6d23	-1.4720806
76	0xbee3cedf	-0.44493768
77	0x3def102f	0.11673009
78	0xbec4ab6d	-0.38412037
79	0xbfe5cd18	-1.7953215
80	0x3f687074	0.9079659
81	0xbea13d75	-0.314922
82	0xbf0b70c7	-0.5446896
83	0xbcca37c0	-0.024684787
84	0xbb992810	-0.0046739653
85	0x3f876fdc	1.0581012
86	0x3e938d8b	0.28818926
87	0xc0159b22	-2.3375936
88	0xbcc5dec0	-0.024154067
89	0x4017ce1b	2.3719547
90	0x3e5ff66d	0.21871348
91	0x3d7eb6cf	0.06218606
92	0xc0188d71	-2.383633
93	0x3e0aae58	0.1354307
94	0x3fc9d74d	1.576883
95	0xbf41b024	-0.75659394
96	0x3e5a99ce	0.21347734
97	0xbfcb31b4	-1.5874543
98	0xbdeaadd0	-0.11458933
99	0x3fc9f8b5	1.5779024
100	0x3f1beb30	0.6090574
101	0x3e0c0eac	0.13677472
102	0x3d4f3b52	0.05059368
103	0xbead6ec9	-0.33873585
104	0xbf53dfc4	-0.82763314
105	0x3f66c2cd	0.9014099
106	0x3ed222af	0.41042086
107	0xc0196700	-2.3969116
108	0x3df23580	0.118266106
109	0x4009fdd9	2.1561186
110	0xbfe46dc7	-1.7846001
111	0xbe0497e5	-0.12948568
112	0xbe36d148	-0.17853272
113	0xbd6acca0	-0.05732405
114	0x3ebc1990	0.36738253
115	0x3fda26a5	1.7043043
116	0x3f853df4	1.0409532
117	0xbfac09e8	-1.3440523
118	0xbc8f8c20	-0.017522871
119	0x3fc72db0	1.5560818
120	0xbfedc831	-1.8576719
121	0x3e7e1cad	0.24815626
122	0x3e3a7d9d	0.1821198
123	0xbda5078c	-0.0805808
124	0x3f7c3b8b	0.98528355
125	0x3f3891bd	0.7209738
126	0x3e1306eb	0.14358108
127	0xbfce7e73	-1.6132339
128	0x3e812fbc	0.2523173
129	0x4002be3a	2.0428605
130	0xc033d9d5	-2.8101704
131	0x3f3ab4e1	0.7293225
132	0xbee4648f	-0.4460797
133	0x3ed0129c	0.40639198
134	0xbf5b1cd5	-0.8559087
135	0x3f6a875f	0.9161281
136	0x3d883508	0.0665074
137	0xbeab5f0b	-0.3347095
138	0xbd896138	-0.06707996
139	0xbfcf638e	-1.6202257
140	0xbf8c3584	-1.0953832
141	0xbe60582d	-0.21908636
142	0xbf456336	-0.7710451
143	0x3e6bd0a0	0.23028803
144	0x3f88bf88	1.0683451
145	0xbf8ef44a	-1.1168301
146	0xbe1c5c61	-0.15269615
147	0x3f61df2b	0.8823115
148	0xbc94a920	-0.018147051
149	0xbd842919	-0.06453151
150	0x3e858ec0	0.26085472
151	0xbe8aa159	-0.27076223
152	0x3f1fa41d	0.6235979
153	0x3dcd1120	0.10013032
154	0x3f94f5dc	1.163753
155	0x3ecc25d8	0.39872622
156	0xbf0f02b2	-0.5586349
157	0xbf648e18	-0.8927932
158	0x3e81005a	0.2519558
159	0x3fa2bcd6	1.2713878
160	0xbf1dabc9	-0.6159025
161	0x3e804f6b	0.2506059
162	0x3dd96bd9	0.106162734
163	0x3ec23466	0.37930602
164	0x3f49927e	0.78739154
165	0xbfe6f0df	-1.8042258
166	0x3f229540	0.6350899
167	0xbf0d2052	-0.5512744
168	0xbea391a8	-0.31947064
169	0xc01f47fe	-2.488769
170	0x405d295a	3.455649
171	0xbf10afa9	-0.56518036
172	0x3f9cef92	1.2260611
173	0x3e826196	0.25465077
174	0xbf590f80	-0.84789276
175	0x3fb7dc1c	1.4364047
176	0xbf9a3def	-1.2050151
177	0x3f4dd533	0.8040344
178	0x3e3fc45c	0.18727249
179	0x400c76af	2.1947439
180	0x3e359cb1	0.17735554
181	0x3f3c6015	0.7358411
182	0x3e139a15	0.14414246
183	0xbe313bfc	-0.17308038
184	0xbf8836ff	-1.0641783
185	0xbf3291c8	-0.69753695
186	0x3e9c015a	0.3046978
187	0xbe25ad5f	-0.16179417
188	0xbec342f0	-0.38137007
189	0xbffcd475	-1.9752337
190	0xbf7ea26a	-0.99466574
191	0x3cb43258	0.021996662
192	0x3ea51d4a	0.32248908
193	0xbcca1210	-0.024666816
194	0x3fac8798	1.347888
195	0xbe9e4a4a	-0.30916053
196	0xbf2e01aa	-0.6797129
197	0xbef33557	-0.47501633
198	0x3e54314c	0.2072193
199	0x3fcb978e	1.5905626
200	0x3efb5dfb	0.4909514
201	0x3e7f675a	0.24941769
202	0xbfa1cb82	-1.2640231
203	0x3e4a8a44	0.19779307
204	0xbdfb012d	-0.12256084
205	0x3ff0718c	1.8784652
206	0xbcc3d20f	-0.023903875
207	0xbe786bc4	-0.2425986
208	0xbe272288	-0.16321766
209	0x3f331381	0.69951636
210	0xbecf520d	-0.40492287
211	0x3c8c98b7	0.017162664
212	0xbf3a0ec3	-0.72678775
213	0xbea9f76c	-0.3319658
214	0x3f2b272b	0.6685664
215	0x40060b73	2.0944488
216	0x3ee312c7	0.44350263
217	0xbef3f7c5	-0.4764997
218	0x3e6ea444	0.2330485
219	0xbf93fcce	-1.1561525
220	0xbfe5f05f	-1.796398
221	0x3e9fdd03	0.31223306
222	0xbe830a0e	-0.2559361
223	0x3e0c0818	0.13674963
224	0x3fdadc35	1.7098452
225	0x3facbcc8	1.3495111
226	0xbec55102	-0.38538367
227	0x3fc7b999	1.5603515
228	0xbed58ea5	-0.41710392
229	0xbdfc6a1f	-0.123249285
230	0x3ed270c8	0.4110167
231	0xbe7b583d	-0.24545379
232	0x3f24ed9c	0.64425063
233	0xbecab0cf	-0.3958802
234	0x3f35c21d	0.7099932
235	0xbe1d5bae	-0.15367004
236	0x3d2e2b7c	0.04252194
237	0xbdac3a60	-0.08409572
238	0x3ec7182e	0.38885635
239	0xbfe12c14	-1.7591577
240	0xbda85996	-0.08220212
241	0xbd1a9a58	-0.03774485
242	0xbf1e1984	-0.61757684
243	0xbe270e7a	-0.16314116
244	0xbf1ddcc0	-0.6166496
245	0xbf52fc97	-0.8241667
246	0xbe121d21	-0.14268924
247	0xbf12729d	-0.57206136
248	0xbe5f3e4b	-0.21801107
249	0x3f7cdef8	0.98777723
250	0x3fe66eaa	1.8002522
251	0xbeb4324a	-0.35194618
252	0xbdc7b46c	-0.097512096
253	0x3e125734	0.14291078
254	0x3f2b407a	0.6689526
255	0x3d80e06b	0.06292804

feats.Hybridization.bias f4 [100]
0	0xbf048455	-0.5176442
1	0xbe69ca46	-0.22831067
2	0x3e13b660	0.1442504
3	0xbed2352f	-0.410562
4	0xbd1cf9bf	-0.038324114
5	0x3e481eff	0.19543074
6	0xbe19fd3c	-0.15038007
7	0xbec36f26	-0.38170737
8	0x3ea37f15	0.31932893
9	0x3ef83896	0.48480672
10	0xbe13f003	-0.14447026
11	0xbebc96ba	-0.36833745
12	0x3ed5ae11	0.41734365
13	0xbc58d0e4	-0.013233397
14	0x3ec3d177	0.38245746
15	0xbdaf34dd	-0.08555005
16	0x3ec41387	0.38296148
17	0x3db90406	0.090339705
18	0xbf01e8b6	-0.50745714
19	0x3e866bd9	0.26254156
20	0xbdcea4e7	-0.100900464
21	0xbe08451e	-0.13307616
22	0xbda9ba69	-0.08287508
23	0x3e3c8656	0.1841062
24	0xbe6d5b3a	-0.23179331
25	0xbe2de836	-0.16983113
26	0x3d78faa5	0.06078591
27	0xb9a38d7d	-0.000311952
28	0xbeaaae62	-0.3333617
29	0x3e8fc444	0.28079426
30	0xbeee2a6f	-0.4651675
31	0x3d94761b	0.07249089
32	0xbe231f1f	-0.1592984
33	0x3eac44a1	0.3364611
34	0x3d35e2b0	0.04440564
35	0xbe570681	-0.20998575
36	0xbea7b85c	-0.32757843
37	0xbe86bbff	-0.26315305
38	0x3e100951	0.14066054
39	0x3e362058	0.17785776
40	0xbb2de660	-0.002653502
41	0xbe264f7a	-0.16241255
42	0xbd2a4613	-0.041570734
43	0x3eb36d64	0.35044396
44	0xbeca6820	-0.39532566
45	0xbcd22de0	-0.02565664
46	0xbc5cd3ca	-0.013478229
47	0xbda5656a	-0.08075984
48	0xbddf079f	-0.108901255
49	0x3de63d9e	0.11242221
50	0x3e04d976	0.1297358
51	0xbe8c341d	-0.2738351
52	0x3edc2c6e	0.43002647
53	0xbebf6eca	-0.37389213
54	0xbda2472d	-0.07923732
55	0x3dd6e9d7	0.1049382
56	0xbba85014	-0.005136499
57	0x3de69aa2	0.112599626
58	0xbeef216f	-0.46705195
59	0x3e94549e	0.28970808
60	0x3ef4f612	0.47843987
61	0x3ef9043c	0.48636043
62	0xbe73d4ce	-0.23811647
63	0x3be105db	0.006867153
64	0xbed769c7	-0.4207289
65	0x3e002c78	0.12516963
66	0x3eb1fd35	0.34763494
67	0x3ed4cde6	0.41563338
68	0x3e04b786	0.12960634
69	0xbf047345	-0.5173839
70	0x3e9a060c	0.30082738
71	0x3efdd315	0.49575105
72	0x3e4cd916	0.20004687
73	0x3c93432b	0.017976364
74	0x3e0ec98e	0.13944075
75	0x3e704e06	0.23467264
76	0xbbc7c6df	-0.0060967053
77	0x3ebd081a	0.36920244
78	0xbe7b199d	-0.2452149
79	0x3e5eabbc	0.21745199
80	0x3d9e5117	0.077303104
81	0x3e83f915	0.25775972
82	0x3d8add0e	0.06780444
83	0xbd3469cf	-0.04404622
84	0xbe78c96f	-0.24295591
85	0x3e000264	0.12500912
86	0xbd9bb63c	-0.07603118
87	0x3c1ba688	0.009500153
88	0x3e19d16c	0.15021294
89	0x3ece3637	0.40275738
90	0x3d075c80	0.0330472
91	0xbdfb341a	-0.12265797
92	0xbebe3201	-0.37147525
93	0xbcb3d782	-0.021953348
94	0x3e85a52c	0.2610258
95	0x3f1660da	0.58741534
96	0x3eabe113	0.33570156
97	0x3ee5ecb3	0.4490715
98	0x3d4ae085	0.049530525
99	0x3e8e97cd	0.2785019

feats.FormalCharge.weight f4 [100, 1]
0	0x3f9645c8	1.1740046
1	0xc076e891	-3.8579447
2	0xbf4c5a31	-0.7982512
3	0xbfcf1ffe	-1.6181638
4	0xbf9cb430	-1.2242489
5	0xbf392559	-0.72322613
6	0x3e7d7ae5	0.24753912
7	0xc089e86a	-4.309621
8	0x401d3508	2.4563618
9	0x3fb11f62	1.3837702
10	0x3f28666e	0.65781295
11	0xbfad86e5	-1.3556792
12	0xbf9993eb	-1.1998266
13	0x40524300	3.2853394
14	0xbf96fa29	-1.1795093
15	0x4006855a	2.1018891
16	0xbfbf1fa9	-1.4931537
17	0x3e5a9f75	0.2134989
18	0xbfecd21d	-1.8501621
19	0xbfa72e49	-1.3061
20	0xc02dc390	-2.7150612
21	0xbe93019d	-0.28712168
22	0x3f234cf8	0.6378932
23	0x3f250cc5	0.6447261
24	0xbfbc4e98	-1.4711485
25	0xbf0b58eb	-0.54432553
26	0xc0655c17	-3.5837457
27	0xc02d3633	-2.706433
28	0x3f9f7618	1.2457914
29	0x400aa43c	2.166274
30	0xc033c8b2	-2.8091245
31	0xbff0db88	-1.8816996
32	0x3f0804bb	0.5313222
33	0xc06744c4	-3.6135721
34	0x405618de	3.3452678
35	0x403c7f7a	2.9452806
36	0x3fc34f37	1.525855
37	0xbf763392	-0.9617244
38	0xbe526020	-0.20544481
39	0x3ee9602a	0.4558118
40	0xc08115db	-4.033918
41	0x4042fe2a	3.046763
42	0xbfdc8179	-1.7227012
43	0x3e12824f	0.14307521
44	0xbffe2e0f	-1.9857806
45	0x3fab83d9	1.3399612
46	0x3fbbc9d0	1.4670963
47	0x3fd073ad	1.6285301
48	0xc038f297	-2.8898065
49	0xbf91054d	-1.1329743
50	0x3fb816f3	1.4382004
51	0xbd65d332	-0.056109615
52	0x3f9469b2	1.1594756
53	0xbfb6c271	-1.4278089
54	0x3f29181d	0.6605242
55	0x3e760502	0.24025348
56	0x3f9ae00b	1.2099622
57	0xbff29618	-1.8952055
58	0xbfa6435a	-1.2989304
59	0xc0a23771	-5.0692677
60	0xc00d949f	-2.212196
61	0xc006a4e9	-2.1038153
62	0x3f800259	1.0000716
63	0xbff0cd7e	-1.8812711
64	0xc01b616a	-2.4278207
65	0xbd80cd9e	-0.06289218
66	0xbf167250	-0.5876818
67	0x407558fc	3.8335562
68	0x3fa7733e	1.3082044
69	0xbf834707	-1.0256051
70	0x3e8e07fc	0.27740467
71	0xbf55956d	-0.8343113
72	0xbf99a85d	-1.2004505
73	0xbf395e97	-0.7240996
74	0xbdc2e835	-0.09516946
75	0x4041b524	3.026681
76	0xbe2de669	-0.16982426
77	0xbe211af3	-0.15732937
78	0xc068c0dd	-3.6367714
79	0x3fc845c9	1.5646297
80	0xbf2ccff7	-0.6750483
81	0x3fa40d05	1.2816473
82	0x3f0b1b50	0.5433855
83	0x3ff831ff	1.9390258
84	0xc03dadfc	-2.9637442
85	0xc08510de	-4.158309
86	0x4006c6a3	2.1058738
87	0x402971ea	2.6475778
88	0x4006e3a8	2.107645
89	0xbe3de220	-0.18543291
90	0x4070d375	3.7629063
91	0xbc29dff4	-0.010368336
92	0xbf46f8ba	-0.77723277
93	0xbfa2f5ea	-1.2731297
94	0x3f552948	0.83266115
95	0xbfb68882	-1.4260409
96	0xbfa46b2d	-1.2845207
97	0x3fce31c1	1.6108934
98	0x404f69d2	3.2408338
99	0xbfed54cf	-1.8541507
