attention_pooling35_big.pth (torch, 44233 bytes, 23 tensors)

gates.AtomicNum.nn.0.weight f4 [1, 12]
0.054460585 -0.15025769 -0.11988813 0.1941903 0.12601936 -0.22645101 0.17521977 0.07075459
0.07841107 -0.018784404 0.04985726 0.14733532
00000000: 1012 5f3d 27dd 19be e887 f5bd d2d9 463e
00000010: 380b 013e c6e2 67be d06c 333e c8e7 903d
00000020: fc95 a03d c0e1 99bc 2037 4c3d 12df 163e

gates.Degree.nn.0.weight f4 [1, 6]
-0.3392386 1.6082911 0.17185125 0.037885137 0.20155038 -0.23146419
00000000: afb0 adbe 7cdc cd3f c6f9 2f3e 722d 1b3d
00000010: 3963 4e3e f304 6dbe

gates.TotalNumHs.nn.0.weight f4 [1, 5]
0.29619634 0.21498126 -0.15717298 0.1895724 -0.062375903
00000000: 0ca7 973e 0c24 5c3e f4f1 20be 441f 423e
00000010: e07d 7fbd

gates.ImplicitValence.nn.0.weight f4 [1, 6]
2.9605794 2.634037 2.1567967 0.24623755 0.3187291 -0.07026157
00000000: 227a 3d40 1094 2840 f508 0a40 b225 7c3e
00000010: 7630 a33e 4ce5 8fbd

gates.Hybridization.nn.0.weight f4 [1, 5]
-0.380809 0.08921227 0.40806323 0.3748535 0.1279285
00000000: 66f9 c2be ecb4 b63d aaed d03e ccec bf3e
00000010: b0ff 023e

feats.AtomicNum.weight f4 [35, 12]
0.14353025 -0.02831313 0.21498299 0.13924578 0.23625928 0.22634548 0.59033954 0.41681072
0.40546045 -2.2112298 -0.27210385 0.08710581 -0.13108782 -0.012319803 0.023040503 -0.07352255
0.21175581 0.10125589 0.8039906 -0.001621057 -0.59606886 -0.4340448 -0.27787817 0.058297217
-0.0050171316 -0.07681416 0.02568248 0.1064429 0.12260401 -0.09266846 1.6559232 -6.0881724
-3.7016828 -3.816253 0.2203989 -0.07986599 -0.026688814 -0.22237214 -0.25486448 0.2855358
-0.027494669 0.0076066256 0.41354942 1.0070657 0.39076865 -3.2827404 -0.073339924 0.056233257
-0.043447375 0.085044295 -0.25160342 0.06807214 0.19858727 -0.27730376 -3.117618 -5.584572
2.6128352 3.365068 0.12834105 0.21733946 -0.2639881 -0.18120712 -0.12337951 0.22586334
0.06332776 -0.036454707 1.8787283 -1.9918013 -1.5683243 0.28947565 -0.11842558 -0.12883785
-0.12079528 -0.04529445 0.24413407 0.082500696 -0.016187549 0.12544063 2.0407064 3.6849623
-2.9504797 -0.19531952 0.040311664 0.14059803 -0.08770655 0.2831018 0.18173027 0.09508389
0.13714936 -0.24844514 1.5218035 -0.35092402 -0.60856247 -0.01791289 0.24594736 -0.2366778
0.12515408 -0.091582045 0.061713815 -0.16467007 -0.23447514 0.007412195 2.2645404 -4.4189644
-10.006596 -8.616568 -0.057905868 -0.14263517 -0.12777983 -0.081954226 0.102116495 0.16711354
-0.06578019 0.18370566 1.1284355 0.68603575 -0.43355665 -0.592129 -0.22747366 0.11910796
0.019542664 -0.16852629 -0.09847751 0.22759801 0.023426592 0.015995026 -0.9141844 -0.4665068
-0.016072461 -0.68880606 -0.20569214 -0.18571708 0.12386453 -0.20555125 -0.18226121 -0.022020906
0.17880031 0.005616784 -1.7655102 1.3334926 5.301453 3.4236014 -0.2781557 0.18550244
0.034893572 -0.10492332 -0.08275539 0.27958292 -0.25438085 0.058840364 -0.79535013 -0.5522898
0.007436941 -0.38004425 0.25754285 -0.15718767 0.122736335 -0.066354334 0.238846 0.23667747
0.17826611 0.1566768 -1.9626967 0.7138465 3.7059274 2.6874309 0.01830855 -0.14211701
-0.12898597 -0.12182666 0.28403097 -0.26184678 0.02001515 0.23684907 0.68110263 -2.1098728
-0.6101104 -0.5275428 -0.26213753 -0.0032554567 0.17425439 0.20746455 0.07676199 -0.27426317
-0.16085005 0.22616881 -0.9388773 2.3636005 -1.8639324 -0.36994106 0.28724796 -0.19847247
-0.28699216 -0.0015904307 -0.11560474 -0.02345109 -0.09523128 -0.11998314 2.1396005 -2.2254102
-0.74353623 5.0308604 0.21900731 -0.17833441 -0.04806374 0.036515832 0.11183974 0.15823647
0.071329415 0.21022186 1.7048914 0.5548423 -0.9397098 0.31201348 -0.22726168 -0.053928167
-0.066331625 -0.098885745 0.20954159 0.09936577 -0.056490645 0.014158189 1.8237132 -0.40187153
-2.760253 -2.4478104 0.279051 -0.017723024 -0.22469531 0.06874582 -0.21799263 0.15239868
-0.23595482 0.24994695 5.3030586 -7.7031937 -3.558237 -1.5610646 0.250884 0.06803709
-0.17152877 0.06454629 -0.08415106 -0.062495902 0.2558301 0.22296196 4.035644 -2.6776965
-2.1126108 -6.2185616 -0.08555074 -0.14183775 -0.20248735 0.22748727 -0.02934733 0.16112542
00000000: 98f9 123e f0f0 e7bc 8024 5c3e 7296 0e3e
00000010: f4ed 713e 1cc7 673e 7e20 173f 3768 d53e
00000020: 8398 cf3e ca84 0dc0 3251 8bbe 8864 b23d
00000030: e33b 06be 00d9 49bc 70bf bc3c fe92 96bd
00000040: 84d6 583e 405f cf3d 54d2 4d3f a679 d4ba
00000050: f897 18bf 1f3b debe 0c46 8ebe 10c9 6e3d
00000060: c066 a4bb be50 9dbd 1064 d23c bcfe d93d
00000070: d017 fb3d f6c8 bdbd 4bf5 d33f 4fd2 c2c0
00000080: 5fe8 6cc0 7d3d 74c0 40b0 613e c890 a3bd
00000090: 80a2 dabc 86b5 63be 997d 82be c031 923e
000000a0: 803c e1bc 0041 f93b c0bc d33e 87e7 803f
000000b0: d412 c83e 6b18 52c0 3e33 96bd d854 663d
000000c0: e0f5 31bd b42b ae3d 2ad2 80be 6869 8b3d
000000d0: 765a 4b3e c2fa 8dbe 0e87 47c0 d0b4 b2c0
000000e0: b138 2740 465d 5740 d66b 033e 3c8e 5e3e
000000f0: 7329 87be 5c8e 39be 66ae fcbd b848 673e
00000100: fcb1 813d 8851 15bd 2b7a f03f 58f3 febf
00000110: dabe c8bf 2736 943e 1c89 f2bd 12ee 03be
00000120: 8463 f7bd ac86 39bd 48fe 793e 20f6 a83d
00000130: c09b 84bc 8273 003e ef9a 0240 6cd6 6b40
00000140: a9d4 3cc0 d701 48be d81d 253d eef8 0f3e
00000150: 7e9f b3bd b8f2 903e 8017 3a3e 58bb c23d
00000160: e270 0c3e 6768 7ebe 75ca c23f 50ac b3be
00000170: c0ca 1bbf 0ebe 92bc a0d9 7b3e aa5b 72be
00000180: 6428 003e 5e8f bbbd a0c7 7c3d 459f 28be
00000190: 401a 70be 00e2 f23b 3bee 1040 2868 8dc0
000001a0: 041b 20c1 76dd 09c1 b42e 6dbd f40e 12be
000001b0: b7d8 02be 9ed7 a7bd 7422 d13d d01f 2b3e
000001c0: c4b7 86bd 561d 3c3e 9370 903f 0aa0 2f3f
000001d0: 23fb ddbe c495 17bf dbee 68be e0ee f33d
000001e0: f017 a03c 2892 2cbe 94ae c9bd 740f 693e
000001f0: 20e9 bf3c 0008 833c fd07 6abf fbd9 eebe
00000200: 65aa 83bc 9855 30bf f6a0 52be 9e2c 3ebe
00000210: b0ac fd3d 077c 52be afa2 3abe 3065 b4bc
00000220: 6e17 373e 000d b83b 3dfc e1bf e3af aa3f
00000230: 81a5 a940 491c 5b40 6d6a 8ebe 5af4 3d3e
00000240: 90ec 0e3d 0ae2 d6bd a87b a9bd 7e25 8f3e
00000250: 353e 82be 9802 713d 119c 4bbf dd62 0dbf
00000260: 95b1 f33b 2995 c2be a8dc 833e cef5 20be
00000270: 305d fb3d c8e4 87bd 0c94 743e 945b 723e
00000280: 648b 363e e26f 203e a539 fbbf a5be 363f
00000290: ea2d 6d40 defe 2b40 d0fb 953c 1f87 11be
000002a0: e614 04be 4280 f9bd 826c 913e c810 86be
000002b0: d0f6 a33c 9088 723e be5c 2e3f 2808 07c0
000002c0: 3230 1cbf 0c0d 07bf e436 86be 8059 55bb
000002d0: be6f 323e 9671 543e 6435 9d3d 396c 8cbe
000002e0: e0b5 24be cc98 673e 435a 70bf 3b45 1740
000002f0: 5695 eebf ea68 bdbe 2a12 933e 5e3c 4bbe
00000300: a3f0 92be 0076 d0ba 2ec2 ecbd 801c c0bc
00000310: 9e08 c3bd b8b9 f5bd 37ef 0840 1f6d 0ec0
00000320: 6458 3ebf cffc a040 7443 603e 4c9d 36be
00000330: 7cde 44bd a091 153d 3c0c e53d be08 223e
00000340: 2815 923d 6644 573e e239 da3f 250a 0e3f
00000350: d290 70bf 3bc0 9f3e 49b7 68be c8e3 5cbd
00000360: e0d8 87bd 9c84 cabd 1292 563e 4880 cb3d
00000370: bc62 67bd c0f7 673c 6f6f e93f 1bc2 cdbe
00000380: fca7 30c0 eda8 1cc0 c6df 8e3e e02f 91bc
00000390: 8716 66be 9cca 8c3d 7639 5fbe 660e 1c3e
000003a0: 249e 71be 18f2 7f3e a8b2 a940 9080 f6c0
000003b0: 28ba 63c0 f7d0 c7bf de73 803e 0857 8b3d
000003c0: 3da5 2fbe d830 843d 6457 acbd b4fb 7fbd
000003d0: 2afc 823e 2450 643e ff23 8140 615f 2bc0
000003e0: 0435 07c0 75fe c6c0 3a35 afbd ea3d 11be
000003f0: d858 4fbe 6cf2 683e d069 f0bc 10fe 243e

feats.AtomicNum.bias f4 [35]
0.8899671 0.16737945 -0.13977091 0.7310836 0.13246402 0.11870537 -0.22679989 0.04012962
-0.092741735 0.61990666 0.070635274 -0.06793756 0.2192742 0.17371033 0.23677747 0.12960635
0.48224625 0.13695915 1.2474426 -0.0900942 -0.26183978 -0.4102937 0.47721165 0.42344692
0.27622008 -0.38437828 -1.19306 0.735808 -0.17947777 0.31701592 -0.036608934 -0.020667024
-0.12088048 -0.06912877 1.2404888
00000000: e2d4 633f 8565 2b3e 1b20 0fbe 4b28 3b3f
00000010: a6a4 073e cd1b f33d 3b3e 68be f55e 243d
00000020: 61ef bdbd 34b2 1e3f 3aa9 903d d922 8bbd
00000030: 6a89 603e 1fe1 313e cb75 723e 87b7 043e
00000040: fbe8 f63e 053f 0c3e 33ac 9f3f 4f83 b8bd
00000050: dd0f 86be 0412 d2be 1655 f43e 09ce d83e
00000060: b86c 8d3e 3bcd c4be 31b6 98bf ea5d 3c3f
00000070: 05c9 37be e94f a23e 40f3 15bd e44d a9bc
00000080: 2f90 f7bd 6293 8dbd 56c8 9e3f

feats.Degree.weight f4 [35, 6]
1.6011286 -4.2164893 -0.76881343 -0.70800287 -0.62527966 0.00851503 -2.457373 -0.38593972
0.3370005 0.105390705 -0.32191983 0.35620862 -0.18411507 -0.7486913 -1.4199287 1.0286487
1.2268306 0.10302597 -0.6029036 -8.1828985 1.7052025 1.4852192 -0.7028927 -0.21724127
0.9769798 3.298943 -3.6078513 -0.35345677 0.8426946 -0.008012384 -1.1154153 -1.5390244
-0.17390816 -0.6413254 0.7933095 0.2488414 -0.67179596 -2.3883204 1.9239798 -0.22763383
-3.735822 0.17213541 0.7003832 -2.1713116 0.177732 0.61751664 0.06179481 0.021648496
-0.47508976 -1.2473828 0.574721 -1.7049892 -1.612274 0.17019123 -0.068725556 -1.8370394
0.18284707 -0.04867813 -0.6499077 0.010612041 1.0475643 -0.33734867 -0.36467016 -0.33262056
0.29323173 0.10937959 1.7135583 -0.009035617 0.8707546 0.010548691 -3.0024683 0.14248216
-0.8008499 -0.20321196 -0.15726337 -0.086006455 -0.06164227 0.25367272 0.9045544 -0.67075425
-0.69147617 1.166646 2.3073766 0.2773282 -0.028157678 2.1646597 -1.8764851 -2.1975076
-0.70769984 0.18606848 1.4259709 1.6525502 -1.9130545 -0.9900519 -3.1036496 0.40367824
0.33892986 4.5821657 -1.6995075 -0.22838199 1.9582161 0.2009551 0.4535212 -3.3021975
0.084754474 0.018882027 -0.8599967 -0.26366028 1.2452492 -1.997844 -0.43657848 -1.761024
-4.3294134 -0.11615026 -1.7129124 -3.7783353 3.0542135 3.6328712 4.9677978 0.34164822
-0.9695195 -2.7862186 0.7785823 0.8493165 1.6704732 -0.2392001 1.6150155 1.7198321
-0.2295734 -0.06550104 -0.30254894 0.16720355 0.36351317 -4.947327 -0.2827929 -0.537351
-2.416458 -0.34195977 -0.5859648 -1.371408 0.9619208 0.69586825 -1.1294069 0.112357795
0.3801765 -0.11967038 0.18293782 -0.043927766 -0.23949613 -0.3520228 -0.74645364 0.042829722
0.57708186 1.4298778 1.9388199 -0.061985493 0.72291577 4.051829 -1.301057 3.9372497
2.8558588 -0.15345633 0.45377785 -0.95284253 0.4238287 0.28510594 -1.247326 -0.10606629
0.3935466 1.3852638 0.4013079 0.794822 1.2087953 0.26100224 -0.7430039 -2.4860158
-0.6876375 -1.640443 -1.2622538 -0.36717284 -0.5551365 -3.060056 -0.61101335 6.599898
6.761984 -0.18428214 -0.27780512 1.861706 -0.7752697 -0.38281283 0.18281607 0.090963334
-0.77049387 1.208299 -0.2662296 0.21499453 2.0180256 -0.2575578 -0.009614462 1.532494
1.4092315 -2.3018792 2.4029434 -0.058903277 -0.57069695 -4.86143 -0.735346 -1.1563736
-2.9605684 0.2886201
00000000: c8f1 cc3f 7bed 86c0 f5d0 44bf ad3f 35bf
00000010: 5412 20bf a082 0b3c 9945 1dc0 e499 c5be
00000020: 548b ac3e 15d7 d73d add2 a4be fa60 b63e
00000030: a988 3cbe 3caa 3fbf 39c0 b5bf c3aa 833f
00000040: c908 9d3f 48ff d23d e457 1abf 27ed 02c1
00000050: 1344 da3f aa1b be3f c7f0 33bf 7f74 5ebe
00000060: 591b 7a3f e221 5340 09e7 66c0 49f8 b4be
00000070: d5ba 573f 6046 03bc eec5 8ebf c0fe c4bf
00000080: fb14 32be e72d 24bf 5516 4b3f 48d0 7e3e
00000090: d2fa 2bbf 3eda 18c0 f844 f63f d818 69be
000000a0: b517 6fc0 4444 303e 504c 333f c5f6 0ac0
000000b0: 61ff 353e 9215 1e3f 8e1c 7d3d 3058 b13c
000000c0: f73e f3be 3daa 9fbf ea20 133f 163d dabf
000000d0: ff5e cebf 9c46 2e3e fcbf 8cbd 1b24 ebbf
000000e0: 433c 3b3e b862 47bd 5a60 26bf 20de 2d3c
000000f0: 9616 863f f7b8 acbe 0cb6 babe 3e4d aabe
00000100: 7822 963e 6802 e03d e155 db3f 200a 14bc
00000110: c6e9 5e3f 6bd4 2c3c 7128 40c0 d8e6 113e
00000120: 8004 4dbf cc16 50be a609 21be 2724 b0bd
00000130: 9b7c 7cbd 64e1 813e e190 673f 8db6 2bbf
00000140: 9504 31bf a854 953f 0fac 1340 f6fd 8d3e
00000150: eeaa e6bc c989 0a40 aa30 f0bf f7a3 0cc0
00000160: d12b 35bf bc88 3e3e 3786 b63f c486 d33f
00000170: f8de f4bf 0b74 7dbf 32a2 46c0 eaae ce3e
00000180: 3788 ad3e 1aa1 9240 7689 d9bf f8dc 69be
00000190: d3a6 fa3f 2cc7 4d3e ee33 e83e 3457 53c0
000001a0: c193 ad3d 7bae 9a3c be28 5cbf 7bfe 86be
000001b0: 5364 9f3f 5ab9 ffbf 3787 dfbe 3c69 e1bf
000001c0: 8e8a 8ac0 30e0 edbd b740 dbbf 3fd0 71c0
000001d0: 3c78 4340 f680 6840 33f8 9e40 84ec ae3e
000001e0: 6e32 78bf 6851 32c0 2b51 473f ce6c 593f
000001f0: 11d2 d53f dff0 74be d4b8 ce3f 7523 dc3f
00000200: 4a15 6bbe 6925 86bd b2e7 9abe 6837 2b3e
00000210: 661e ba3e 8150 9ec0 3bca 90be d68f 09bf
00000220: 3fa7 1ac0 5a15 afbe ca01 16bf 4c8a afbf
00000230: 7140 763f 6c24 323f 6890 90bf d81b e63d
00000240: 7fa6 c23e bf15 f5bd 0d54 3b3e 9aed 33bd
00000250: 793e 75be 553c b4be 9617 3fbf 386e 2f3d
00000260: a3bb 133f 3c06 b73f 402b f83f 80e4 7dbd
00000270: 0211 393f 95a8 8140 0989 a6bf e6fb 7b40
00000280: 64c6 3640 a823 1dbe 9255 e83e 7ded 73bf
00000290: 1300 d93e 68f9 913e 61a8 9fbf 4839 d9bd
000002a0: f17e c93e 5350 b13f 3b78 cd3e 7479 4b3f
000002b0: ceb9 9a3f 16a2 853e 8135 3ebf e21a 1fc0
000002c0: 0309 30bf 09fa d1bf 8891 a1bf 14fe bbbe
000002d0: 6d1d 0ebf f5d7 43c0 5f6b 1cbf 5d32 d340
000002e0: 2c62 d840 75b4 3cbe 793c 8ebe 624c ee3f
000002f0: 1378 46bf 0b00 c4be 2334 3b3e fc4a ba3d
00000300: 163f 45bf 8ba9 9a3f 3f4f 88be 8727 5c3e
00000310: 5527 0140 9ede 83be fa85 1dbc c328 c43f
00000320: b361 b43f fd51 13c0 d3c9 1940 9044 71bd
00000330: 3219 12bf d690 9bc0 a33f 3cbf 0d04 94bf
00000340: f479 3dc0 04c6 933e

feats.Degree.bias f4 [35]
-1.4867913 -1.1325052 0.05809832 -0.15699768 1.117969 -1.5042887 -1.3756 -1.3066405
-0.755482 -1.0721122 0.5107102 0.28470317 0.229005 0.63220865 -1.1995636 -0.49229944
0.09087672 -1.9712558 -2.357619 -0.5274428 -1.0488921 1.4799138 -3.3833845 -1.0850658
-0.304882 0.76130486 2.8365448 -0.23194164 0.70631635 -2.1891208 0.108609684 2.190336
1.4431866 1.1664846 -3.8992834
00000000: 2d4f bebf eef5 90bf 81f8 6d3d 00c4 20be
00000010: 9c19 8f3f 888c c0bf a913 b0bf ff3f a7bf
00000020: 4567 41bf f93a 89bf e7bd 023f 9dc4 913e
00000030: 4980 6a3e 6dd8 213f 4d8b 99bf ac0e fcbe
00000040: 931d ba3d 1c52 fcbf 3be3 16c0 7e06 07bf
00000050: 1942 86bf d16d bd3f 5f89 58c0 70e3 8abf
00000060: 7e19 9cbe e0e4 423f f389 3540 1c82 6dbe
00000070: 26d1 343f 8e1a 0cc0 c16e de3d 772e 0c40
00000080: 57ba b83f 5e4f 953f dc8d 79c0

feats.TotalNumHs.weight f4 [35, 5]
0.7554438 0.38621572 0.011592622 -1.383214 0.25615 0.60708565 0.808611 -0.14722535
-1.73791 0.2585703 -2.7953389 -0.57029855 2.2055156 -0.2515347 0.12098503 2.2220309
1.2734593 -3.464991 0.30386353 0.039886445 0.6307219 0.44522223 -0.38177148 -4.404492
0.387654 -0.7335868 1.9250579 -0.73417807 0.19365942 -0.050450385 2.6603236 -2.9809442
-1.4339007 2.3845644 0.17266017 -0.31793422 0.4114965 1.2998248 0.6393962 0.056747973
-4.6059995 0.73160374 2.5476658 2.42156 -0.4015142 1.2256398 1.0418758 -0.7637347
-0.7590177 -0.31008023 -0.30530453 -0.61252743 0.5642434 0.7449428 -0.0049664974 0.742907
-0.98316437 -0.82997227 1.4576116 -0.16459498 -1.2375183 -0.5529425 1.1977943 -1.3546003
-0.22035791 -0.79232806 0.55750203 1.0997077 0.863754 -0.10873097 -2.2274652 -1.2333827
3.082284 1.9875455 0.36290205 -0.05332766 -2.770126 1.2549462 1.9980636 0.101992905
-0.82818824 3.1965468 1.5627677 0.055527076 -0.27529544 0.58251286 0.95294863 -0.14901312
0.6418531 0.013217658 1.3628703 -1.1555042 -1.0487031 -0.3715859 0.41992027 1.1708158
0.27578506 1.331371 -1.3950076 0.0034020543 -2.5241985 1.9157087 2.7406583 1.3242664
0.17057806 -0.7396201 -1.1768968 1.6614938 0.10139635 -0.21936087 1.1385044 1.078039
-0.06389962 -0.15959468 -0.28590333 0.8951901 0.3148158 0.76418054 0.17555109 -0.1518937
0.47436833 -0.021385662 0.14571665 0.011345223 0.3441741 -2.3093154 2.2001238 0.32447863
-0.14868969 0.11268854 -0.25822508 -0.7048291 0.80291414 -1.2813957 -0.3008695 0.9614182
2.6003766 -2.4752798 0.0750276 0.099589646 -0.6789827 0.03985375 -0.079716235 2.7295458
-0.24608432 2.8234289 -1.9499373 0.06487003 0.14087476 -0.17749536 3.11304 0.5037544
-2.1810505 -1.0577847 -0.32025754 -1.3491577 -0.9369434 -0.45902276 1.062483 -0.15004379
-1.0145066 -0.2149739 -0.77918184 0.76388586 -0.24929689 -2.0337846 1.9225276 1.0137082
0.27757365 0.2002185 1.3088166 0.8091188 -0.6280879 0.11900001 -0.0529826
00000000: c464 413f 11be c53e fbee 3d3c 280d b1bf
00000010: 1826 833e f769 1b3f 2101 4f3f 3ec2 16be
00000020: d673 debf 5463 843e d5e6 32c0 16ff 11bf
00000030: 2b27 0d40 28c9 80be 00c7 f73d c135 0e40
00000040: b700 a33f 6ac2 5dc0 0094 9b3e f85f 233d
00000050: fe76 213f 2bf4 e33e 8d77 c3be 99f1 8cc0
00000060: 967a c63e 58cc 3bbf 4c68 f63f 18f3 3bbf
00000070: a84e 463e 10a5 4ebd be42 2a40 cac7 3ec0
00000080: 0f8a b7bf b49c 1840 d4cd 303e 46c8 a2be
00000090: abaf d23e a960 a63f 78af 233f 9070 683d
000000a0: 5964 93c0 624a 3b3f f50c 2340 d7fa 1a40
000000b0: 4593 cdbe c4e1 9c3f 305c 853f 1e84 43bf
000000c0: fc4e 42bf d6c2 9ebe e050 9cbe 99ce 1cbf
000000d0: 4172 103f 92b4 3e3f 00be a2bb 272f 3e3f
000000e0: a9b0 7bbf 1079 54bf 0493 ba3f 968b 28be
000000f0: 0067 9ebf a48d 0dbf 5351 993f 8b63 adbf
00000100: 81a5 61be 03d6 4abf 74b8 0e3f 39c3 8c3f
00000110: fb1e 5d3f 58ae debd ca8e 0ec0 7cdf 9dbf
00000120: 2444 4540 e467 fe3f 4cce b93e 1b6e 5abd
00000130: bf49 31c0 14a2 a03f 8cc0 ff3f a8e1 d03d
00000140: 2504 54bf 3994 4c40 c608 c83f 5c70 633d
00000150: 86f3 8cbe 901f 153f 71f4 733f e596 18be
00000160: 7c50 243f e08e 583c 8972 ae3f 90e7 93bf
00000170: e73b 86bf 8240 bebe caff d63e 4bdd 953f
00000180: b333 8d3e 5d6a aa3f 9c8f b2bf 00f5 5e3b
00000190: 788c 21c0 f135 f53f f266 2f40 9081 a93f
000001a0: 04ac 2e3e be57 3dbf 8ea4 96bf d4ab d43f
000001b0: e4a8 cf3d 23a0 60be 83ba 913f 2ffd 893f
000001c0: cedd 82bd ca6c 23be ec61 92be 2e2b 653f
000001d0: 892f a13e 56a1 433f aac3 333e 068a 1bbe
000001e0: 68e0 f23e fc30 afbc bf36 153e 50e1 393c
000001f0: 9637 b03e d3cb 13c0 d4ce 0c40 1022 a63e
00000200: 1c42 18be 40c9 e63d 1436 84be ae6f 34bf
00000210: c88b 4d3f c604 a4bf 910b 9abe 811f 763f
00000220: 926c 2640 fc6a 1ec0 12a8 993d a8f5 cb3d
00000230: cfd1 2dbf b03d 233d 4442 a3bd e1b0 2e40
00000240: 87fd 7bbe 0fb3 3440 8c97 f9bf 94da 843d
00000250: 7941 103e 58c1 35be 0c3c 4740 0cf6 003f
00000260: 5596 0bc0 7d65 87bf ccf8 a3be 33b1 acbf
00000270: 86db 6fbf 0805 ebbe 71ff 873f 14a5 19be
00000280: 5adb 81bf 1e22 5cbe 7678 47bf 068e 433f
00000290: af47 7fbe 8729 02c0 6215 f63f 31c1 813f
000002a0: 221e 8e3e 1406 4d3e 4d87 a73f 6922 4f3f
000002b0: 5eca 20bf 47b6 f33d 4804 59bd

feats.TotalNumHs.bias f4 [35]
0.7609112 0.29358658 -0.5373415 0.6128196 -0.2789046 -0.10968848 -0.44957253 -0.15623003
0.18401042 0.470442 0.3249843 -0.19579789 0.4261523 -0.25698382 -0.08420615 0.2917212
0.46534112 0.16928114 0.72708124 -0.20403795 -0.33332953 -0.4623611 0.73581463 -0.3011175
-0.29823196 -0.6600274 -1.1122278 0.21510603 0.03215322 0.87817496 -0.4092522 -0.19754247
-0.02645414 0.32603058 1.2502801
00000000: 14cb 423f fb50 963e 368f 09bf bfe1 1c3f
00000010: 95cc 8ebe 5ba4 e0bd 5f2e e6be c4fa 1fbe
00000020: 3a6d 3c3e c6dd f03e 5864 a63e 3e7f 48be
00000030: a230 da3e 6293 83be 4674 acbd 7b5c 953e
00000040: 3141 ee3e 0958 2d3e ff21 3a3f 53ef 50be
00000050: 2baa aabe 98ba ecbe 595e 3c3f 132c 9abe
00000060: dcb1 98be 8ef7 28bf 7b5d 8ebf c144 5c3e
00000070: 18b3 033d 13d0 603f 8189 d1be 9348 4abe
00000080: 5ab6 d8bc 7bed a63e 2e09 a03f

feats.ImplicitValence.weight f4 [35, 6]
-0.243781 -0.025558079 -0.06499605 0.077737376 -0.40295961 0.116654456 -0.21889487 -0.37005
-0.5738117 -0.24441554 0.26823658 -0.009428203 0.13822666 0.105892 -0.41963193 0.43219745
-0.058013767 -0.26454884 0.996117 -0.09896484 0.60723674 -0.008108677 -0.32254997 -0.1815087
-0.16890304 0.05344768 -0.123451784 -0.7152073 -0.21272166 -0.2074483 0.2229893 -0.7338154
-2.1179774 -0.4411441 -0.15128946 -0.06503096 1.4571143 2.1707258 -1.9319603 0.99476683
-0.3676336 0.38407737 0.13764489 0.19175453 -0.8170872 0.62206626 0.38509506 0.0003720522
-0.86381924 -0.395802 0.3325795 2.2862482 -0.069185615 -0.16286413 -0.040796846 -0.1292032
-0.102792874 0.0690498 0.19323438 0.006998062 0.009820548 0.17157127 0.2887227 0.100182354
0.25481528 0.3953318 -0.29169303 0.62501454 -1.2717348 0.05349478 -0.21826605 0.32191253
-0.33582333 -0.52705455 -1.3466825 -0.44895074 -0.09801638 -0.05312878 -0.60572696 0.0025472746
2.5311577 1.5432036 -0.19899212 -0.37777314 0.034090687 0.043051403 -1.4379191 0.79345423
0.38633746 -0.112069756 -0.6640546 0.21416388 0.8057221 1.7522192 -0.35737208 0.045630217
-0.45327362 0.2797858 1.2602079 -0.38980624 0.023608655 -0.33637553 0.60527027 0.53515464
0.59239733 0.52373326 0.38508826 -0.038110286 0.43791267 -0.21922515 -1.5344368 -1.2595997
-0.29718664 -0.041383445 1.0379697 0.3568576 1.0210694 0.6129272 0.202205 -0.14250892
1.2084467 2.050643 2.8953424 0.801126 0.2160731 0.0494062 0.05504252 -0.034278993
-0.94023657 -0.06162968 -0.25692904 -0.121291906 -0.21628678 -0.23640454 -0.21629444 0.11616124
0.170071 0.02415952 0.56791943 0.42508745 -0.33750573 -0.1495806 0.09516734 -0.16629039
0.042552263 0.059724957 0.12822677 -0.003382429 -0.018162072 -0.15043196 0.15675357 -0.6403911
-0.14150642 0.38102388 -0.06014219 0.19044304 -0.4087306 1.1037997 1.1980214 0.8430392
0.100966215 -0.38044173 -0.51335245 0.118703835 2.4890013 0.054538544 0.071830004 -0.26856542
0.5388752 0.58379316 1.067966 0.4881497 0.31019598 -0.07995382 -1.136793 0.32413134
0.03398373 -0.3007821 0.073845625 0.16678149 -0.95110404 -0.34713525 1.2638909 -0.32701996
-0.0738484 -0.2996593 -0.3476163 -0.21710351 0.67884004 -0.4075155 -0.20743316 0.122457266
-0.08838293 -0.36997956 0.4242139 -0.46611372 -0.18091998 -0.15677705 -0.47723585 -0.21344401
-0.5606127 -0.37260774 0.026209027 -0.3361767 -0.043424625 -0.49491277 -0.72530764 -0.018839935
0.168176 0.0007568598
00000000: baa1 79be 2d5f d1bc a61c 85bd c634 9f3d
00000010: b950 cebe 88e8 ee3d fa25 60be 3277 bdbe
00000020: 53e5 12bf 1148 7abe 4e56 893e c078 1abc
00000030: 4a8b 0d3e e8dd d83d ffd9 d6be fc48 dd3e
00000040: d89f 6dbd f272 87be 8601 7f3f 14ae cabd
00000050: de73 1b3f 42da 04bc 4525 a5be 6bdd 39be
00000060: ebf4 2cbe f4eb 5a3d 4ad4 fcbd d317 37bf
00000070: b5d3 59be 546d 54be 4f57 643e 53db 3bbf
00000080: f18c 07c0 a4dd e1be a0eb 1abe f42e 85bd
00000090: b982 ba3f 2ced 0a40 7a4a f7bf 0aa9 7e3f
000000a0: 793a bcbe caa5 c43e c8f2 0c3e 4d5b 443e
000000b0: a02c 51bf bc3f 1f3f 2e2b c53e 0010 c339
000000c0: 4223 5dbf 8fa6 cabe dc47 aa3e e451 1240
000000d0: 30b1 8dbd dbc5 26be 981a 27bd d84d 04be
000000e0: 1285 d2bd fb69 8d3d 3cdf 453e 0050 e53b
000000f0: 5de6 203c 61b0 2f3e 76d3 933e 682c cd3d
00000100: 2677 823e ee68 ca3e ca58 95be f400 203f
00000110: 35c8 a2bf 581d 5b3d 2381 5fbe b8d1 a43e
00000120: 09f1 abbe 0ced 06bf 1860 acbf dfdc e5be
00000130: d0bc c8bd 909d 59bd ec10 1bbf 2df0 263b
00000140: 7dfe 2140 b287 c53f 97c4 4bbe 7b6b c1be
00000150: ada2 0b3d ab56 303d bc0d b8bf d11f 4b3f
00000160: 06ce c53e d484 e5bd 7bff 29bf c74d 5b3e
00000170: ce43 4e3f b848 e03f 79f9 b6be c0e6 3a3d
00000180: 7b13 e8be 1640 8f3e 7e4e a13f af94 c7be
00000190: f066 c13c 6a39 acbe fef2 1a3f e5ff 083f
000001a0: 5aa7 173f 6213 063f 4a2a c53e 8819 1cbd
000001b0: 1736 e03e 8f7c 60be 6d68 c4bf 903a a1bf
000001c0: d928 98be b081 29bd 31dc 843f 0ab6 b63e
000001d0: 67b2 823f cce8 1c3f d40e 4f3e dced 11be
000001e0: 62ae 9a3f bc3d 0340 4a4d 3940 9816 4d3f
000001f0: 4442 5d3e 285e 4a3d 4474 613d 2168 0cbd
00000200: 58b3 70bf 676f 7cbd 348c 83be e467 f8bd
00000210: 487a 5dbe 0814 72be 4a7c 5dbe f2e5 ed3d
00000220: 1827 2e3e 30ea c53c 2b63 113f 10a5 d93e
00000230: 8dcd acbe a82b 19be 18e7 c23d 0748 2abe
00000240: 484b 2e3d 28a2 743d e14d 033e beab 5dbb
00000250: a0c8 94bc d60a 1abe 0284 203e acf0 23bf
00000260: 0fe7 10be 9015 c33e a857 76bd 8003 433e
00000270: 2345 d1be 4f49 8d3f c458 993f 6bd1 573f
00000280: 60c7 ce3d 42c9 c2be 116b 03bf ff1a f33d
00000290: cc4b 1f40 cf63 5f3d 9c1b 933d 6881 89be
000002a0: baf3 093f 7873 153f 1cb3 883f c2ee f93e
000002b0: 02d2 9e3e d4be a3bd 6f82 91bf 8bf4 a53e
000002c0: 8632 0b3d 1d00 9abe 603c 973d c4c8 2a3e
000002d0: 8e7b 73bf b6bb b1be 2dc7 a13f 296f a7be
000002e0: d43d 97bd f26c 99be c4fa b1be 6250 5ebe
000002f0: 76c8 2d3f dfa5 d0be 5c69 54be e0ca fa3d
00000300: 1c02 b5bd f66d bdbe 9032 d93e 75a6 eebe
00000310: 1643 39be 2a8a 20be 4258 f4be 1191 5abe
00000320: 5084 0fbf 71c6 bebe 50b4 d63c 5a1f acbe
00000330: 05de 31bd 3565 fdbe c3ad 39bf 3556 9abc
00000340: 5436 2c3e 0068 463a

feats.ImplicitValence.bias f4 [35]
-0.036321342 0.28007838 0.64522135 0.109274246 -0.25948766 -0.66387296 1.4201508 0.21407837
-0.20852831 -0.044115763 -0.043445695 -0.16836862 0.4698475 0.22937898 -0.007955101 1.1613239
0.10464207 -0.08602969 -0.16717726 0.37940753 1.6530268 0.0714891 0.04181249 0.11228891
-0.048425652 0.15964727 0.28552577 -0.28921977 -0.50611854 -0.35465744 -0.36212873 0.4001063
0.06052245 -1.1690218 -0.077277645
00000000: b0c5 14bd 6f66 8f3e 3a2d 253f 2dcb df3d
00000010: 91db 84be 94f3 29bf 80c7 b53f 5c37 5b3e
00000020: 7288 55be bbb2 34bd 1df4 31bd d368 2cbe
00000030: da8f f03e 53e2 6a3e 1d56 02bc 43a6 943f
00000040: 954e d63d 5630 b0bd 8430 2bbe b441 c23e
00000050: 6296 d33f e168 923d 9343 2b3d baf7 e53d
00000060: fa59 46bd 937a 233e 6f30 923e 9d14 94be
00000070: fc90 01bf a995 b5be f068 b9be bcda cc3e
00000080: 63e6 773d 82a2 95bf be43 9ebd

feats.Hybridization.weight f4 [35, 5]
-0.16177265 -0.0732763 0.3938605 -0.26260176 -0.3414738 -0.55807376 0.4113385 0.7028666
0.105068326 0.23966604 0.5589531 -1.6362585 0.7559215 -0.020593792 -0.06150928 -3.6133826
-0.881487 1.8083004 0.040480137 0.2197566 -1.0764768 -0.015844777 -0.038138516 -0.15463325
-0.42453924 -2.1717792 1.0842357 0.05934257 0.10706329 -0.41927186 -6.3305354 0.90544534
0.4685483 0.3870955 0.3940354 -1.906589 0.33647656 0.9140907 -0.4340764 0.13914126
8.272685 0.5086402 -1.9151671 -0.03456533 0.09495121 -0.55399245 0.45874125 0.8585931
-0.16908422 -0.20894167 0.5615257 0.23867278 -0.14828366 -0.38669357 -0.2870957 -3.3935564
-0.52126807 0.38023382 0.20160854 0.3680268 0.12786646 -0.5094625 0.051121917 0.029013455
0.04805562 4.24098 1.1736742 -1.0853093 0.24826759 -0.023950636 0.35614452 1.72289
-1.2660931 0.23542565 0.27804297 3.1465542 0.3406625 -0.108221084 0.07550967 -0.2494282
-3.128695 1.9512086 -0.8268285 -0.121192396 0.107100844 -2.8285632 0.11354032 0.52203494
0.31332493 0.25215125 -2.1547077 -0.9711375 2.149045 0.22730124 -0.21918868 -0.92236215
1.977877 -0.31382 0.23355484 -0.19660139 -1.7151849 1.287003 -0.91054827 -0.040153384
-0.30820256 0.15936361 -0.28383857 -0.082502715 0.38874716 -0.44257757 -1.4528837 0.4747527
0.5353676 0.17670238 -0.33208168 -1.8079032 -1.5259035 1.1900471 0.1645534 0.34054202
-0.048876815 -0.07195949 0.5094541 0.1919645 0.010180891 0.31457314 0.35162693 0.5064538
-0.1372881 0.1731407 1.3068494 0.41889948 -1.3678149 0.2029441 0.22981322 -8.560555
0.8539691 1.3018295 0.25685072 0.118715405 1.7781135 0.7765421 -0.56653655 0.44201553
0.4310531 -2.7966435 1.6375881 0.8417779 -0.2877257 -0.12372401 -0.43887857 -0.9689863
1.1045234 -0.06575039 -0.02350697 1.0651308 0.03540768 -0.3310758 0.01513347 0.28906578
2.2390704 -0.9333521 -0.50883394 0.33669293 -0.05514148 -0.37152576 -0.39610496 -0.67672884
-0.16226003 0.013306946 -2.1763117 -0.47954428 1.2799442 0.07636589 0.026457787
00000000: bba7 25be e311 96bd 15a8 c93e bd73 86be
00000010: a7d5 aebe ecdd 0ebf f69a d23e 11ef 333f
00000020: 102e d73d 046b 753e 8d17 0f3f eb70 d1bf
00000030: 1284 413f 50b4 a8bc 28f1 7bbd a941 67c0
00000040: 22a9 61bf 6376 e73f 80ce 253d e007 613e
00000050: fec9 89bf e8cc 81bc 2237 1cbd 2e58 1ebe
00000060: 355d d9be 6efe 0ac0 3cc8 8a3f 3211 733d
00000070: 0044 db3d cdaa d6be bf93 cac0 44cb 673f
00000080: 90e5 ef3e 6231 c63e 02bf c93e 1c0b f4bf
00000090: a846 ac3e d901 6a3f 433f debe 0c7b 0e3e
000000a0: eb5c 0441 3f36 023f 3224 f5bf 6094 0dbd
000000b0: c875 c23d 73d2 0dbf 22e0 ea3e c2cc 5b3f
000000c0: 6a24 2dbe cef4 55be 26c0 0f3f a366 743e
000000d0: acd7 17be b3fc c5be 35fe 92be 0730 59c0
000000e0: d371 05bf 02ae c23e 7872 4e3e 026e bc3e
000000f0: 6def 023e 226c 02bf 3765 513d a0ad ed3c
00000100: f8d5 443d 1cb6 8740 f53a 963f 6aeb 8abf
00000110: dc39 7e3e 2034 c4bc 9358 b63e a987 dc3f
00000120: 570f a2bf 6c13 713e a65b 8e3e 2561 4940
00000130: 516b ae3e 04a3 ddbd d0a4 9a3d 1b6a 7fbe
00000140: 8a3c 48c0 34c1 f93f 08ab 53bf b833 f8bd
00000150: b057 db3d 2e07 35c0 d487 e83d 15a4 053f
00000160: 206c a03e f819 813e bbe6 09c0 789c 78bf
00000170: f489 0940 a8c1 683e ff72 60be ed1f 6cbf
00000180: 132b fd3f 04ad a0be 0029 6f3e e051 49be
00000190: 2e8b dbbf 84bc a43f b119 69bf e077 24bd
000001a0: bacc 9dbe 3730 233e 4a53 91be 2ff7 a8bd
000001b0: de09 c73e 8799 e2be 18f8 b9bf c912 f33e
000001c0: da0d 093f 78f1 343e 9c06 aabe 5f69 e7bf
000001d0: ce50 c3bf 7753 983f b080 283e 865b ae3e
000001e0: 0e33 48bd 7f5f 93bd 956b 023f 5892 443e
000001f0: c0cd 263c bb0f a13e 7208 b43e f5a6 013f
00000200: 4095 0cbe cc4b 313e d746 a73f fe79 d63e
00000210: 8f14 afbf 94d0 4f3e 2854 6b3e 09f8 08c1
00000220: b89d 5a3f 59a2 a63f f081 833e 1021 f33d
00000230: 3999 e33f 77cb 463f 8a08 11bf dc4f e23e
00000240: feb2 dc3e 35fc 32c0 7d9c d13f c27e 573f
00000250: c850 93be 0463 fdbd b1b4 e0be 7c0f 78bf
00000260: 0661 8d3f 24a8 86bd b091 c0bc 3556 883f
00000270: a507 113d c482 a9be 60f2 773c 6e00 943e
00000280: ee4c 0f40 2af0 6ebf f142 02bf 0463 ac3e
00000290: 08dc 61bd a038 bebe 45ce cabe 1a3e 2dbf
000002a0: 7e27 26be 6005 5a3c b148 0bc0 d486 f5be
000002b0: 36d5 a33f b865 9c3d 00be d83c

feats.Hybridization.bias f4 [35]
1.2237755 0.15533279 -0.14334093 0.7576106 0.3788612 0.3790393 -0.18005525 -0.28634536
0.016674794 0.12852465 0.35363114 -0.47308624 0.28854275 -0.013944228 0.5936216 0.56072146
0.3178642 -0.014289074 1.0784003 -0.103722215 0.21121438 -0.025501415 1.0795282 0.439365
-0.034132782 -0.60809016 -0.855234 0.4598635 -0.2849808 0.39976054 0.19962016 0.19154982
-0.25354692 -0.39805588 0.8619241
00000000: ada4 9c3f 8f0f 1f3e f7c7 12be c5f2 413f
00000010: 18fa c13e 7011 c23e 6760 38be dc9b 92be
00000020: 9499 883c f79b 033e 240f b53e 5c38 f2be
00000030: e0bb 933e 5576 64bc 96f7 173f 718b 0f3f
00000040: 19bf a23e b81c 6abc 0509 8a3f 506c d4bd
00000050: 9548 583e 58e8 d0bc fb2d 8a3f 73f4 e03e
00000060: d1ce 0bbd ccab 1bbf 9ef0 5abf 3b73 eb3e
00000070: 01e9 91be 6aad cc3e 3a69 4c3e a325 443e
00000080: e7d0 81be fbcd cbbe 0fa7 5c3f

feats.FormalCharge.weight f4 [35, 1]
1.9124554 -0.19936845 -3.3942664 1.558958 -1.9346738 -0.814104 5.8815975 -1.1557783
-3.6686006 0.12633134 -0.13003944 -0.5021326 1.2037832 -0.941492 -1.5346493 0.41628802
1.738221 -2.4509034 3.8176932 -0.6609455 -0.5387578 0.6174726 3.3438184 1.5550437
-0.51757747 -5.2152247 -0.40099713 -1.3643022 -1.9809935 1.3464309 -2.3338902 -1.628532
0.9667758 0.74705285 2.1249466
00000000: 57cb f43f 3e27 4cbe a93b 59c0 f08b c73f
00000010: 64a3 f7bf 1f69 50bf 0c36 bc40 8bf0 93bf
00000020: 5aca 6ac0 015d 013e 0f29 05be c38b 00bf
00000030: 9115 9a3f 9f05 71bf 636f c4bf b423 d53e
00000040: 077e de3f 9adb 1cc0 1655 7440 b933 29bf
00000050: 08ec 09bf af12 1e3f 1f01 5640 ac0b c73f
00000060: f57f 04bf 1fe3 a6c0 7f4f cdbe 74a1 aebf
00000070: 3291 fdbf d957 ac3f 755e 15c0 bd73 d0bf
00000080: 9e7e 773f db3e 3f3f 20ff 0740

feats.FormalCharge.bias f4 [35]
0.61351216 0.41142586 0.58573174 -0.47947648 -0.2785029 -0.02875729 0.5117727 0.28009868
-0.31598914 -0.011619605 -0.5706866 -0.752627 0.17847759 -0.3325259 0.6545383 0.73979145
0.50250584 0.8893509 0.29667088 -0.058735497 -1.0733776 -0.08438788 1.2370411 -0.3368704
-0.8940271 0.2804151 -2.188632 1.3574979 -0.9828869 1.4179674 0.37675282 -0.0041158246
-0.24390765 -1.0400578 0.41190007
00000000: 220f 1d3f 69a6 d23e 84f2 153f f17d f5be
00000010: ef97 8ebe 6994 ebbc 8903 033f 1869 8f3e
00000020: 54c9 a1be 2860 3ebc 8418 12bf 2aac 40bf
00000030: d4c2 363e d640 aabe d28f 273f f962 3d3f
00000040: 39a4 003f 80ac 633f 3fe5 973e a294 70bd
00000050: 7064 89bf 8ed3 acbd 5d57 9e3f 477a acbe
00000060: f6de 64bf 9192 8f3e 8c12 0cc0 7ec2 ad3f
00000070: 7a9e 7bbf f57f b53f bfe5 c03e 0ade 86bb
00000080: edc2 79be 9d20 85bf 91e4 d23e

feats.IsInRing.weight f4 [35, 1]
-0.025806366 0.6132231 2.7074955 -4.1605167 -2.3173757 2.6623476 -2.4580865 -1.7109228
0.18926708 0.29759088 -0.044141594 1.4768852 0.16249678 -0.28332236 2.671911 -1.609062
-3.7422295 -1.2285424 -0.056976877 -2.2504299 0.7501844 0.04692756 0.4940755 -2.3127246
-0.45764685 -1.3694799 -0.15785901 -2.0081353 0.47136676 1.8754791 -0.60437024 -0.3184898
0.23665683 -0.3834706 0.16121736
00000000: df67 d3bc 30fc 1c3f 9b47 2d40 f422 85c0
00000010: e24f 14c0 e763 2a40 4a51 1dc0 85ff dabf
00000020: 3bcf 413e d55d 983e d1cd 34bd 930a bd3f
00000030: 8e65 263e a10f 91be 9700 2b40 bef5 cdbf
00000040: b080 6fc0 e140 9dbf 9660 69bd 0b07 10c0
00000050: 160c 403f 1d37 403d 77f7 fc3e ae03 14c0
00000060: b050 eabe 1e4b afbf cba5 21be 4a85 00c0
00000070: fc56 f13e b30f f03f 02b8 1abf 1811 a3be
00000080: 2b56 723e 4256 c4be 2a16 253e

feats.IsInRing.bias f4 [35]
0.17632997 -0.7715455 -0.11598251 -0.87820566 -1.2158629 0.88054717 -0.4582738 -0.20828803
0.3359577 -0.507331 -0.39426562 -0.34480938 -0.5491151 -0.5097125 0.47387275 -0.9702767
-1.1213039 -0.5485088 0.90899783 -0.4380973 -0.19201876 -0.59184194 -0.04418748 -0.12433703
0.64635324 0.09694429 -0.29930273 -0.23595941 -0.8005247 0.15919647 0.09199619 0.024651118
-0.5413278 0.41225934 0.2368513
00000000: d88f 343e 0284 45bf 3d88 edbd 16d2 60bf
00000010: 65a1 9bbf 8a6b 613f dda2 eabe 7549 55be
00000020: a602 ac3e 72e0 01bf 2fdd c9be db8a b0be
00000030: cf92 0cbf 857c 02bf 739f f23e 0e64 78bf
00000040: e386 8fbf 136b 0cbf 15b4 683f 4a4e e0be
00000050: 91a0 44be f482 17bf eefd 34bd 6aa4 febd
00000060: 6877 253f ba8a c63d 353e 99be 589f 71be
00000070: 30ef 4cbf 6604 233e 8068 bc3d 24f1 c93c
00000080: 7594 0abf a813 d33e 2689 723e

feats.IsAromatic.weight f4 [35, 1]
0.23463644 -0.23183447 -1.1693082 0.81616396 0.28850186 -5.6588945 -2.0737662 7.1519866
-1.2336502 -0.60666823 0.18097137 1.9205568 0.25186032 1.932614 0.51396 8.000432
2.9122512 3.646926 -1.2969874 4.8027096 -3.4090393 -0.08825249 0.12992305 4.9477553
0.31855312 5.484638 0.01363534 -4.1882353 -0.14156151 -3.987464 -2.6161203 0.72860634
0.6287753 5.4006753 1.1454287
00000000: 8944 703e 0466 6dbe e4ab 95bf 1ff0 503f
00000010: 84b6 933e aa15 b5c0 96b8 04c0 13dd e440
00000020: 40e8 9dbf 9c4e 1bbf 8f50 393e ced4 f53f
00000030: d6f3 803e e55f f73f e292 033f c501 0041
00000040: 5362 3a40 3c67 6940 af03 a6bf ccaf 9940
00000050: b32d 5ac0 b9bd b4bd 8c0a 053e 0354 9e40
00000060: 6519 a33e 2882 af40 c366 5f3c 0606 86c0
00000070: 80f5 10be 9c32 7fc0 846e 27c0 f285 3a3f
00000080: 6bf7 203f 55d2 ac40 689d 923f

feats.IsAromatic.bias f4 [35]
0.04746825 -0.5586148 -0.8830788 0.8821128 -0.657456 0.73315406 -0.7753182 -0.4778645
0.6293823 -0.20019495 0.41059655 -1.130316 0.06688482 -0.34700173 0.9695983 -0.15319265
1.4989544 0.31114632 1.3265737 0.11561511 0.61828756 -0.19312544 1.1426877 -0.53520817
-0.08804423 -1.1900641 -1.9617358 -0.044490602 -1.0871246 1.4147853 -0.9493423 0.44077852
0.78121924 0.13288817 1.8693461
00000000: 116e 423d 6101 0fbf 7411 62bf 25d2 613f
00000010: 094f 28bf fcaf 3b3f 417b 46bf a8aa f4be
00000020: 331f 213f e8ff 4cbe b639 d23e 32ae 90bf
00000030: e9fa 883d 36aa b1be 9837 783f 89de 1cbe
00000040: bddd bf3f 924e 9f3e 2bcd a93f 9dc7 ec3d
00000050: 1848 1e3f adc2 45be 9743 923f 6703 09bf
00000060: 8950 b4bd 0554 98bf 291a fbbf c73b 36bd
00000070: e626 8bbf af17 b53f 1908 73bf b9ad e13e
00000080: fcfd 473f d613 083e bc46 ef3f

feats.NumRadicalElectrons.weight f4 [35, 1]
0.027910113 0.40294158 0.024998307 0.42362237 0.099045396 -0.7680476 -0.6804043 -0.6688827
0.07340658 -0.16312504 0.7463541 0.9096086 -0.44176364 -0.3119769 0.39447963 -0.28977084
-0.71443 -0.027335525 -0.62869596 -0.41202247 -0.4094056 -0.21156275 -0.67120457 0.3976823
-0.37739146 -0.45493734 -0.34384453 -0.7649301 0.035817742 -0.91064894 0.9789964 0.6444173
0.34229457 -0.3918308 0.9428332
00000000: c0a3 e43c 5c4e ce3e 40c9 cc3c 08e5 d83e
00000010: 50d8 ca3d c49e 44bf fa2e 2ebf e63b 2bbf
00000020: 3056 963d 400a 27be 1011 3f3f 1cdc 683f
00000030: d82e e2be 70bb 9fbe 3cf9 c93e d85c 94be
00000040: e2e4 36bf c0ee dfbc 38f2 20bf 9cf4 d2be
00000050: 9c9d d1be e8a3 58be 10d4 2bbf 049d cb3e
00000060: 7439 c1be 8ced e8be 640c b0be 76d2 43bf
00000070: a0b5 123d 4a20 69bf 829f 7a3f 88f8 243f
00000080: 3c41 af3e 0c9e c8be 845d 713f

feats.NumRadicalElectrons.bias f4 [35]
0.08490567 0.5937484 -0.24798824 -0.26906052 -0.82272035 0.96640545 -0.7237478 1.072743
-0.62605244 -0.4829725 0.35910624 0.5653277 0.9652843 -0.17482391 0.043331552 1.1454728
1.5600108 0.9920446 0.86805433 -0.9731019 0.7363615 0.42828554 0.09761252 -0.11620772
0.11636916 -0.5429801 -0.50599325 0.28995407 0.29259717 0.6598943 -0.14081028 -1.217058
-0.17867237 0.53175163 1.6492171
00000000: 06e3 ad3d e5ff 173f a1f0 7dbe 4dc2 89be
00000010: cd9d 52bf 5966 773f 8947 39bf a54f 893f
00000020: f944 20bf 2c48 f7be c6dc b73e 51b9 103f
00000030: df1c 773f 0a05 33be 6d7c 313d da9e 923f
00000040: 6fae c73f a3f6 7d3f cf38 5e3f 351d 79bf
00000050: 3082 3c3f 3e48 db3e 13e9 c73d 50fe edbd
00000060: f452 ee3d be00 0bbf c688 01bf dc74 943e
00000070: 4ccf 953e d5ee 283f 9230 10be 8ec8 9bbf
00000080: e4f5 36be e020 083f 8c19 d33f
