attention_pooling35_human.pth (torch, 43689 bytes, 23 tensors)

gates.AtomicNum.nn.0.weight f4 [1, 12]
0	0xbe348721	-0.17629673
1	0xbe8bd4dd	-0.2731084
2	0x3e70573c	0.23470777
3	0x3d8fd418	0.070228755
4	0x3e50dfae	0.20397827
5	0xbe38e4ac	-0.18055981
6	0xbe818df4	-0.25303614
7	0x3e36e72e	0.17861626
8	0xbe0fea4f	-0.14054225
9	0x3e2caf70	0.16863799
10	0xbc95a3c0	-0.018266559
11	0x3d9ddb14	0.077078015

gates.Degree.nn.0.weight f4 [1, 6]
0	0xbdbceb63	-0.09224584
1	0xbf1abfc5	-0.6044887
2	0x3f3e34ca	0.742993
3	0x3db0decd	0.08636246
4	0xbfb43f8b	-1.4081892
5	0x3da1d9c4	0.079028636

gates.TotalNumHs.nn.0.weight f4 [1, 5]
0	0x3e734cca	0.23759761
1	0xbf28c31c	-0.65922713
2	0x3f5f5fbd	0.8725546
3	0x3fcacae5	1.5843168
4	0xbe4eb5fd	-0.2018661

gates.ImplicitValence.nn.0.weight f4 [1, 6]
0	0xbe840f04	-0.25792706
1	0x3e933954	0.28754675
2	0x3ea481ea	0.32130367
3	0x3e1407cc	0.144561
4	0x3e3f8998	0.18704832
5	0xbd1bbc40	-0.038021326

gates.Hybridization.nn.0.weight f4 [1, 5]
0	0xbf565221	-0.8371907
1	0x3f05752e	0.52131927
2	0x3f51ef5e	0.8200587
3	0x3e9d76da	0.3075474
4	0x3d24a12a	0.04019276

feats.AtomicNum.weight f4 [35, 12]
0	0xbe0e7649	-0.1391231
1	0xbedc881b	-0.4307259
2	0xbe54bf36	-0.20776066
3	0xbb168100	-0.0022965074
4	0x3d0fce70	0.035108984
5	0x3fee3b6e	1.8611887
6	0xbeb3f2ff	-0.3514633
7	0x3fc63acb	1.5486692
8	0x3e900d7a	0.28135282
9	0x3f341b08	0.70353746
10	0x3d91971c	0.071089
11	0xbfa8d63f	-1.3190383
12	0xbdce81da	-0.10083361
13	0xbd84a715	-0.06477181
14	0xbdb831e0	-0.08993888
15	0x3e91ed96	0.28501576
16	0xbe640aa8	-0.2226969
17	0x3ef0e792	0.47051674
18	0x3e0e1949	0.13876833
19	0x3f8a5d6a	1.0809758
20	0xbe495ac0	-0.19663525
21	0x3f1ecb17	0.6202864
22	0x3d4c3478	0.049854726
23	0xbe124ae3	-0.1428638
24	0x3e457ee8	0.19286692
25	0xbf1379fc	-0.5760801
26	0x3e7a8808	0.24465954
27	0x3d05da90	0.03267914
28	0x3e365370	0.17805266
29	0x3fe96e8b	1.823686
30	0xbf3ad067	-0.72974247
31	0x3f9b0f44	1.2114034
32	0x3f52f48d	0.82404405
33	0x3f4b7361	0.7947293
34	0x3df4ae6c	0.11947331
35	0x3f117311	0.568162
36	0xbdd744a4	-0.10511139
37	0xbe9411b1	-0.28919747
38	0x3e34f286	0.1767064
39	0x3e124848	0.14285386
40	0xbe89f443	-0.2694417
41	0x3f94ac3b	1.161506
42	0xbf2cbf3d	-0.67479306
43	0x3f798938	0.97475004
44	0x3f5fd40f	0.8743295
45	0x3d107b4e	0.035273843
46	0x3d9e2ed8	0.077237785
47	0xbe2d5ae0	-0.16929197
48	0x3dd22540	0.10261011
49	0x3d7c3f5e	0.06158387
50	0xbe6ee7dc	-0.23330635
51	0x3dc9881c	0.09840414
52	0x3e8819fa	0.2658232
53	0x401f91a5	2.4932644
54	0xbeb308d9	-0.34967688
55	0xbfaab133	-1.3335327
56	0x40399ef8	2.9003277
57	0x40114985	2.2701123
58	0xbd868036	-0.06567423
59	0xbf58dc02	-0.84710705
60	0x3df120c0	0.11773825
61	0x3f6260b2	0.88428795
62	0x3e2313d2	0.1592553
63	0xbe1f733b	-0.155713
64	0x3c98bbe0	0.018644273
65	0x4002b4f3	2.0422943
66	0xbbf8b236	-0.007589604
67	0xc00a69bc	-2.1627035
68	0x3fac11a9	1.344289
69	0x3f487862	0.7830869
70	0xbd89abce	-0.06722222
71	0xbfbcb863	-1.474377
72	0xbdea4e74	-0.11440745
73	0x3ec65420	0.38736057
74	0x3d9e3220	0.07724404
75	0xbe8819af	-0.26582095
76	0xbe5f190a	-0.21786895
77	0xbf802c82	-1.0013583
78	0x3e07fa65	0.13279112
79	0xbde0aa6a	-0.10970004
80	0xbeb67d0b	-0.35642275
81	0x3ee4a9f4	0.44660914
82	0x3dae9f88	0.08526522
83	0x3eaccbd7	0.33749267
84	0xbdf9e2f8	-0.12201494
85	0xbe22e0bb	-0.1590604
86	0xbd668910	-0.056283057
87	0xbdb563b8	-0.088569105
88	0xbcf0fff0	-0.029418916
89	0xbf2710c4	-0.6525996
90	0xbcdd432c	-0.02700957
91	0xbef7ef4f	-0.48424765
92	0xbf0d74c1	-0.5525628
93	0xbdde97db	-0.10868808
94	0x3daa752c	0.0832313
95	0x3f293256	0.6609243
96	0xbd26b894	-0.04070337
97	0xbe89f0b1	-0.26941445
98	0x3e72b28c	0.23700923
99	0xbd770c48	-0.060314447
100	0x3c44d220	0.012012988
101	0xc018e264	-2.3888178
102	0x3ea806a0	0.32817554
103	0x3f500aa9	0.81266266
104	0xbf9916e6	-1.1960113
105	0xbf4949a1	-0.78627974
106	0xbe86e23e	-0.26344484
107	0x3edffc8d	0.43747368
108	0xbe5a1a61	-0.21299125
109	0xbf189784	-0.59606194
110	0xbdf207a0	-0.118178606
111	0xbd9f394e	-0.07774602
112	0x3c79a0c0	0.01523608
113	0xbe99cd93	-0.30039653
114	0xbebeb8b5	-0.37250295
115	0xbf5cae92	-0.86203873
116	0x3f117d6e	0.56832016
117	0xbf83c3a0	-1.0294075
118	0x3d0684c8	0.032841474
119	0x3fa1b492	1.2633231
120	0xbe4fd564	-0.20296246
121	0xbf8f26f9	-1.1183769
122	0xbe73a4eb	-0.2379338
123	0xbc7d53a0	-0.015461832
124	0x3dc63df4	0.09679785
125	0x3fd4fa8f	1.6638964
126	0xbd1ff72a	-0.039054073
127	0x3f6eeab9	0.9332691
128	0x3ed62db3	0.4183174
129	0x3ecc0907	0.39850637
130	0xbe90a4c8	-0.28250718
131	0x3bc90799	0.006134939
132	0x3e523240	0.20526981
133	0x3f7fb96d	0.9989231
134	0x3e91f6da	0.28508645
135	0xbe92d59a	-0.2867859
136	0x3e5ba854	0.21450931
137	0x3f7d98ba	0.9906117
138	0x3e24591c	0.16049618
139	0xbfe2dc0c	-1.7723403
140	0x3f194597	0.5987181
141	0x3f36d3a7	0.71416706
142	0x3b871480	0.004122317
143	0xbf01548f	-0.5051965
144	0x3c26f740	0.010190785
145	0xbd63d909	-0.055626903
146	0xbe8cefff	-0.27526852
147	0x3e85f272	0.26161534
148	0x3d8db668	0.06919557
149	0xbf642805	-0.89123565
150	0x3d7445ef	0.059637006
151	0xbf252ef6	-0.6452478
152	0x3e2ddd76	0.16979012
153	0xbeeb0f45	-0.45910087
154	0x3e06e024	0.1317144
155	0x3ebaddbd	0.36497298
156	0xbdd3a422	-0.1033404
157	0xbe0d29d5	-0.13785489
158	0x3e8f2e7e	0.27965158
159	0x3d3fc4e0	0.046818614
160	0x3d9d5580	0.076823235
161	0x3f9e69bb	1.2376016
162	0x3d34c2b2	0.04413099
163	0x3f7bfcd0	0.98432636
164	0x3f264d0e	0.64961326
165	0x3f79edd4	0.9762852
166	0xbe3f7a5d	-0.18699022
167	0xbf879757	-1.059306
168	0xbdeed168	-0.11661035
169	0xbf97bffa	-1.1855462
170	0xbe035fda	-0.12829533
171	0x3e7019dc	0.23447365
172	0xbe56c541	-0.20973684
173	0x3ffbb18f	1.9663562
174	0xbe743541	-0.2384844
175	0x3f80d5bd	1.0065228
176	0x3e97a092	0.29614693
177	0x3f356ea7	0.7087197
178	0xbe7c2207	-0.24622355
179	0xbf2f0986	-0.68373907
180	0x3e87c7f6	0.26519746
181	0x3fa22d43	1.2670063
182	0xbd6aadb4	-0.057294562
183	0xbe220416	-0.15821871
184	0x3dba7f84	0.09106353
185	0xbf86b17f	-1.0522918
186	0x3e386a3b	0.18009274
187	0xbfd40078	-1.6562643
188	0x3dc63ccd	0.096795656
189	0xbe873ac5	-0.26412025
190	0x3e936b36	0.28792733
191	0xbcef2c79	-0.02919601
192	0xbe4bfaea	-0.19919935
193	0x3e3de2f6	0.1854361
194	0xbd2c290c	-0.042031333
195	0x3e62ec6c	0.221605
196	0xbbeec8c0	-0.007287115
197	0xbf80d284	-1.0064244
198	0x3ee0f35c	0.43935668
199	0xc00f64b3	-2.2405212
200	0x3d82f06f	0.06393515
201	0xbee1f39d	-0.44131175
202	0x3c9971c0	0.018730998
203	0x3f2345d1	0.63778406
204	0xbe8e314d	-0.2777199
205	0x3f166df4	0.58761525
206	0xbd9ab7fe	-0.07554625
207	0xbd5b1e18	-0.053495497
208	0xbddeac3a	-0.10872693
209	0x4009bdcc	2.1522093
210	0x3e16c3c9	0.14723124
211	0xbfd2a12c	-1.6455436
212	0x3fb53521	1.4156839
213	0x3e3f28f3	0.18667965
214	0xbe56c3c8	-0.20973122
215	0xbf1b66b6	-0.607036
216	0x3dc8e008	0.098083556
217	0xbf9f6b84	-1.2454686
218	0xbe01820a	-0.12647262
219	0xbe879ca4	-0.26486695
220	0x3e147544	0.14497858
221	0x3fe7968a	1.8092816
222	0xbf0a7b88	-0.54094744
223	0x400580f1	2.085995
224	0x3ee3289b	0.44366917
225	0x3fa1c2a0	1.263752
226	0x3db778d4	0.08958593
227	0xbf653de0	-0.8954754
228	0xbe6ace36	-0.22930226
229	0xbfc25f71	-1.5185376
230	0xbdcd6664	-0.10029295
231	0xbe01aba8	-0.12663138
232	0x3e05dcbe	0.13072488
233	0x3f2addd7	0.6674475
234	0xbe653d8a	-0.22386757
235	0x3f893e86	1.0722206
236	0xbf6326a1	-0.8873082
237	0x3f7e2da7	0.9928841
238	0xbcceb9f0	-0.025235146
239	0x3ec8a7c4	0.39190495
240	0x3d65e280	0.05612421
241	0xbf2eb182	-0.68239605
242	0xbd3b5f7c	-0.045745358
243	0x3e009242	0.12555793
244	0xbe5fd2bd	-0.21857734
245	0xc031fbaa	-2.7809854
246	0x3dbceb6d	0.092245914
247	0x3f971554	1.1803384
248	0xbfbf0200	-1.4922485
249	0xbf4f49cd	-0.80971986
250	0xbe3438a8	-0.17599738
251	0x3fbf9650	1.4967747
252	0x3d8fc41c	0.07019827
253	0x3dcbf813	0.09959426
254	0xbe3cba67	-0.18430482
255	0x3e6dbd88	0.23216832

feats.AtomicNum.bias f4 [35]
0	0xbbb77e3a	-0.005599764
1	0xbe6fef16	-0.23431048
2	0xbde3c03e	-0.11120652
3	0xbda2500c	-0.07925424
4	0x3dbc3cf9	0.09191317
5	0xbe08adaa	-0.13347498
6	0x3d5239cc	0.05132465
7	0xbe9c0fba	-0.30480748
8	0xbd0e0be7	-0.03467932
9	0xbeab9443	-0.33511552
10	0x3eb93c21	0.36178687
11	0x3b2061eb	0.0024472426
12	0xbd8e293e	-0.0694146
13	0x3e397f94	0.18115073
14	0xbe0da930	-0.13834071
15	0x3e3e6216	0.18592104
16	0x3d965029	0.07339508
17	0x3e8fdb93	0.2809721
18	0x3c0ce6e3	0.00859997
19	0x3ce0e7a0	0.027454197
20	0xbdaafc5b	-0.08348914
21	0x3df5835e	0.11987947
22	0xbdeff359	-0.11716337
23	0x3ca6d68b	0.020365974
24	0xbd565e11	-0.052335802
25	0xbe42505d	-0.18975969
26	0xbb9b4e3c	-0.004739551
27	0xbde2f9fd	-0.11082838
28	0xbdb366e7	-0.087598614
29	0x3d42c0e0	0.04754722
30	0x3da03baa	0.0782388
31	0xbeba1ac4	-0.36348546
32	0xbc36dda1	-0.011161239
33	0xbd04d719	-0.032431696
34	0x3dedd812	0.11613478

feats.Degree.weight f4 [35, 6]
0	0x3be1362a	0.006872912
1	0x3fa4f349	1.2886745
2	0xbf32b4bc	-0.6980703
3	0x3f604af2	0.8761436
4	0xbf993190	-1.196825
5	0x3e4e4000	0.20141602
6	0xbe25e96b	-0.16202323
7	0xbf1c8ef3	-0.61155623
8	0xbdf16e2a	-0.1178859
9	0x3e1d9cfd	0.15391918
10	0x3d3f4d88	0.0467048
11	0x3e076358	0.1322149
12	0x3f1c951c	0.6116502
13	0x3f2166a1	0.63047224
14	0xbe8bf528	-0.27335477
15	0xbef10712	-0.47075707
16	0x3ec0acbb	0.37631783
17	0x3e77b5c4	0.24190432
18	0xbe0ccbc0	-0.137496
19	0x3fc99ccf	1.5750979
20	0xbf12f8a7	-0.57410663
21	0x3f321e9c	0.69577956
22	0xbf272599	-0.65291744
23	0xbeb47664	-0.35246575
24	0xbf05e7fc	-0.52307105
25	0xbda54104	-0.08069041
26	0x3ee4b9ab	0.44672903
27	0x3ea7e9ca	0.32795554
28	0xbf928251	-1.144602
29	0x3e78c0fc	0.24292368
30	0xbf256c24	-0.64618134
31	0xbffa697f	-1.9563445
32	0xbd95ba04	-0.0731087
33	0x3e2b4aab	0.16727702
34	0xbf839a08	-1.0281382
35	0xbce1a080	-0.027542353
36	0xbf0e2dde	-0.5553874
37	0xbf86c7f5	-1.0529772
38	0x3e9bd3a8	0.30434918
39	0xbe36c407	-0.17848216
40	0x3f39451a	0.72371066
41	0xbcf64ad0	-0.03006497
42	0xbf1448c2	-0.5792352
43	0xbf5b47f4	-0.85656667
44	0xba0a0399	-0.00052648183
45	0xbe5b35f1	-0.21407296
46	0x3fdf3ebf	1.7441024
47	0xbeab2474	-0.3342625
48	0x3eaa257e	0.3323173
49	0xbf28d6aa	-0.6595255
50	0x3f2286c2	0.63486874
51	0xbf052538	-0.52009916
52	0x3fe85dc6	1.8153617
53	0x3ea867aa	0.3289159
54	0xbe55f9da	-0.20896092
55	0xbf695d8a	-0.91158354
56	0x3bb07180	0.005384624
57	0xbeb7ed5e	-0.35923284
58	0x3f5e2e82	0.86789715
59	0x3d155570	0.036458433
60	0x3edcc19c	0.43116462
61	0x3f547edc	0.8300607
62	0xbebf6a2b	-0.37385687
63	0x3f04fc3b	0.51947373
64	0xbe89f8b2	-0.26947552
65	0xbce94640	-0.02847588
66	0xbf1eda4d	-0.6205185
67	0xbfa5b37f	-1.2945403
68	0xbe243670	-0.16036391
69	0xbe406d95	-0.18791802
70	0xbf1a0880	-0.6016922
71	0x3dfda5a0	0.12385106
72	0x3d0158b5	0.03157874
73	0x3f56bca0	0.8388157
74	0x3f1649be	0.5870627
75	0xbe69f915	-0.22848924
76	0xbcbb245d	-0.022844488
77	0x3cce3b80	0.025174856
78	0xbda03a05	-0.07823566
79	0x3fb26d29	1.3939563
80	0xbee349d5	-0.44392267
81	0x3f4dfec0	0.8046684
82	0xbf6166c3	-0.88047427
83	0x3e774494	0.24147254
84	0x3f16178d	0.58629686
85	0x3efe46f5	0.4966351
86	0xbf287684	-0.6580584
87	0xbe00358e	-0.1252043
88	0x3e01fb11	0.1269343
89	0x3cd9ed80	0.026602507
90	0xbcf07ba5	-0.029355833
91	0xbf6c3a8b	-0.9227683
92	0x3e93fe31	0.2890487
93	0xbe51ca1e	-0.20487258
94	0xbe6c891b	-0.23099177
95	0x3c219180	0.00986135
96	0xbf2fcc00	-0.68670654
97	0xbfb4c591	-1.4122792
98	0x3f1d3858	0.614141
99	0xbf6d1af1	-0.92619234
100	0x3f9ed4ff	1.2408751
101	0x3ebacf38	0.3648622
102	0xbdf5fc0f	-0.12010967
103	0x3f9d9ff4	1.2314439
104	0x3e867f9a	0.26269227
105	0x3eb5f841	0.35540965
106	0xbfe0f3c4	-1.7574391
107	0x3ea01a0e	0.31269878
108	0x3f164f7f	0.5871505
109	0x3f880dff	1.0629271
110	0xbf87e0a3	-1.0615429
111	0x3f7beaeb	0.9840533
112	0xbf789c0d	-0.97113115
113	0x3e4d88b4	0.2007168
114	0x3f40af34	0.7526734
115	0xbe8d9532	-0.2765289
116	0xbf21075c	-0.62901855
117	0xbec8b531	-0.39200738
118	0x3fbe3c56	1.4862163
119	0x3e1de1ac	0.15418118
120	0x3ebfe3f0	0.3747859
121	0x3efa4b08	0.4888537
122	0x3ef993ed	0.4874567
123	0xbf6fc0dd	-0.9365366
124	0x3ff62da3	1.9232677
125	0xbe97a3da	-0.29617196
126	0x3e399db4	0.18126565
127	0x3fc2ea19	1.5227691
128	0xbf4fb213	-0.81131095
129	0x3f824677	1.0177754
130	0xc004b554	-2.0735674
131	0x3e8641f8	0.26222205
132	0xbdaa2cb5	-0.083093084
133	0xbeb85d04	-0.36008465
134	0x3eb34519	0.35013655
135	0x3e4456b9	0.19173707
136	0xbf505696	-0.8138212
137	0xbddf3358	-0.10898465
138	0x3ef61bd0	0.48068094
139	0x3fdfc1df	1.748104
140	0xbec97971	-0.39350465
141	0x3e9662eb	0.29372343
142	0x3d689505	0.05678274
143	0xbde247f0	-0.11048877
144	0xbd251a96	-0.040308557
145	0xbe6373bb	-0.22212116
146	0x3edf8664	0.4365722
147	0xbe01e008	-0.12683117
148	0xbf8b6911	-1.0891439
149	0x3dec4748	0.11537033
150	0xbf5ef455	-0.8709157
151	0xbf0e74f3	-0.556472
152	0xbf16137c	-0.5862348
153	0x3e909eb8	0.28246093
154	0xbfb2fbe2	-1.3983119
155	0x3e3be7d4	0.18350154
156	0xbe397b59	-0.1811346
157	0x3edb49cb	0.42829737
158	0xbec5dad0	-0.38643503
159	0x3f30bdac	0.69039416
160	0xc021f009	-2.5302756
161	0xbeb7d72a	-0.35906345
162	0xbf7b3456	-0.98126733
163	0xbf665d46	-0.89986074
164	0x3f198c0d	0.59979326
165	0xbed8befb	-0.42333207
166	0xbe477581	-0.19478418
167	0xbdfa8414	-0.12232223
168	0xbeb9780b	-0.36224398
169	0xbf6d97b9	-0.92809635
170	0x3f77d76a	0.9681307
171	0xbf4a0c9e	-0.789255
172	0x3e1074b2	0.14107016
173	0x3e4f7da0	0.20262766
174	0x3d8d4c5c	0.0689933
175	0xbf92255a	-1.1417649
176	0x3e3fac1f	0.18718003
177	0x3c90da4b	0.017682215
178	0xbe99b260	-0.30018902
179	0x3e2fb578	0.17159069
180	0x3e9e9c7e	0.3097877
181	0x3fca523f	1.580635
182	0xbe17d4a7	-0.14827214
183	0x3eceaa86	0.40364474
184	0xbf3a60b0	-0.72803783
185	0xbec25705	-0.37957016
186	0xbeef1d84	-0.46702206
187	0xbed40e49	-0.4141715
188	0xbd39bbd5	-0.045345146
189	0xbf5460e6	-0.82960355
190	0xbf28988e	-0.6585778
191	0xbe2fbfc8	-0.17163002
192	0xbf11c2f4	-0.569381
193	0xbfdde377	-1.7335042
194	0x3f4efbe6	0.80853117
195	0xbe8ec354	-0.278834
196	0xbe90a04e	-0.28247303
197	0x3e5513f8	0.20808399
198	0xbeccc136	-0.39991158
199	0xbfb22a77	-1.3919209
200	0x3edbae9c	0.42906654
201	0xbf5b4f48	-0.8566785
202	0x3f8ebc90	1.1151295
203	0xbe6c6a19	-0.23087348
204	0xbf4c6769	-0.7984529
205	0xbed2f414	-0.41201842
206	0x3e98b0ac	0.2982229
207	0xbe9e3455	-0.308993
208	0x3d3eadb0	0.04655236
209	0xbe26c000	-0.1628418

feats.Degree.bias f4 [35]
0	0x3ea8f8dc	0.33002365
1	0xbcd1f298	-0.025628373
2	0x3d2de588	0.042455226
3	0x3f0c4e9f	0.54807466
4	0xbeb5d22a	-0.35511905
5	0xbe6ff235	-0.23432238
6	0xbdd33fe5	-0.10314921
7	0x3cce8fe1	0.025215091
8	0xbe473a10	-0.19455743
9	0xbda02d18	-0.07821101
10	0x3ef33d47	0.47507688
11	0xbe3bb9d6	-0.1833261
12	0x3e19d09a	0.15020981
13	0x3ead2e4d	0.33824387
14	0xbec23c38	-0.37936568
15	0xbea52930	-0.32257986
16	0xbe7e82f6	-0.24854645
17	0x3ed4f06f	0.41589686
18	0x3eff13cd	0.49819794
19	0xbe1b431d	-0.1516232
20	0x3e561ace	0.20908663
21	0xbdd23acc	-0.10265121
22	0xbe45aa94	-0.19303352
23	0x3f142fc8	0.5788541
24	0xbe7391b5	-0.23786052
25	0xbf183793	-0.594598
26	0x3e03f7c9	0.12887491
27	0x3d3f2e88	0.046675235
28	0xbe854277	-0.2602727
29	0xbea17998	-0.3153808
30	0x3e90c27e	0.28273386
31	0xbe8a8cab	-0.27060446
32	0xbea91a3f	-0.33027837
33	0xbf0ef824	-0.5584738
34	0xbd8dad6b	-0.069178425

feats.TotalNumHs.weight f4 [35, 5]
0	0x3ebfce31	0.37462
1	0xbe87c317	-0.2651603
2	0x3e2fccbe	0.17167947
3	0x3ed37974	0.413036
4	0x3ee2e5a8	0.4431584
5	0xbdf09c55	-0.11748568
6	0xbe4f7833	-0.20260696
7	0xbeffe51c	-0.49979484
8	0xbf5619e8	-0.8363328
9	0x3e010d14	0.12602645
10	0xbda702ee	-0.08154856
11	0xbe27c8d0	-0.16385198
12	0x3f29363a	0.6609837
13	0x3f88f97d	1.0701138
14	0xbe5e1c0d	-0.21690388
15	0x3ed3bd8d	0.41355553
16	0xbf0afca1	-0.5429173
17	0x3f86e83b	1.0539621
18	0xbe84821f	-0.25880525
19	0x3ed15478	0.40884757
20	0x3e0e8731	0.13918759
21	0x3ed5e6e6	0.41777724
22	0x3f415554	0.75520825
23	0xbf9d05c4	-1.2267385
24	0xbebab341	-0.36464885
25	0x3ecd8810	0.4014287
26	0x3dbe6be6	0.09297924
27	0xbf5809dd	-0.8439005
28	0xbfa2332c	-1.2671866
29	0x3e39dc84	0.18150526
30	0x3eed34d6	0.46329373
31	0x3eb820cf	0.3596253
32	0xbf5e909d	-0.8693941
33	0xbfbd2435	-1.4776675
34	0x3e79ae4c	0.24382895
35	0xbe828fea	-0.25500423
36	0xbf3790ed	-0.71705514
37	0x3f00f9fc	0.50381446
38	0xbf1df570	-0.6170263
39	0xbe3b3c98	-0.18284833
40	0x3f2166cb	0.63047475
41	0xbf29b3a1	-0.66289717
42	0xbf050277	-0.51956886
43	0xbe8c798b	-0.2743648
44	0x3de4fe00	0.11181259
45	0xbec6a922	-0.38800913
46	0xbe7eaf7e	-0.24871632
47	0x3f146597	0.57967514
48	0xbe5bfa78	-0.21482265
49	0xbeb1d935	-0.34736028
50	0xbe6131e6	-0.21991691
51	0xbea93082	-0.3304482
52	0x3f47d791	0.78063303
53	0x3e9e8460	0.3096037
54	0xbe63d0a6	-0.22247562
55	0x3e573057	0.21014534
56	0x3e706cf6	0.23479065
57	0xbf95a126	-1.1689804
58	0xbff8117e	-1.9380338
59	0x3e1fda2c	0.1561057
60	0xbecb20eb	-0.39673552
61	0x3e30d9c1	0.17270567
62	0x3ebfda05	0.37471023
63	0x3fa31467	1.2740601
64	0x3edaab66	0.42708892
65	0x3e8c68da	0.27423745
66	0x3e249eb3	0.16076164
67	0x3e1bb300	0.15205002
68	0x3d27dffc	0.040985093
69	0x3e8f13e6	0.2794487
70	0x3e8215b9	0.25407198
71	0x3dd44716	0.10365121
72	0x3f962680	1.1730499
73	0x3e0f3c73	0.13987903
74	0xbe0f3df0	-0.13988471
75	0xbe3ba278	-0.18323696
76	0x3f31ab9e	0.6940249
77	0xbfbeac26	-1.4896286
78	0xbed3284c	-0.41241682
79	0xbe9682a6	-0.29396552
80	0xbec72100	-0.38892365
81	0x3ecd4695	0.40092912
82	0xbf00ef98	-0.5036559
83	0xbe621954	-0.22079974
84	0x3eaff7dc	0.3436879
85	0xbeaae34e	-0.33376545
86	0x3f1339e3	0.57510203
87	0x3ea7b5b5	0.3275582
88	0xbeb39a38	-0.35078597
89	0x3cdd6f20	0.027030528
90	0x3eb4757e	0.3524589
91	0xbeb9330c	-0.36171758
92	0x3f78376f	0.96959585
93	0x3f0bd52a	0.5462214
94	0xb9321000	-0.00016981363
95	0x3f28e80f	0.65979093
96	0xbf9c6985	-1.2219702
97	0x3f140313	0.5781719
98	0xbd744bb9	-0.059642527
99	0xbe34f28e	-0.17670652
100	0x3d98270b	0.07429322
101	0xbf6b164a	-0.91830885
102	0x3f11beb5	0.5693162
103	0x3f63eb2b	0.8903071
104	0x3d9d1038	0.07669109
105	0x3eb6f678	0.35734916
106	0x3f87a2d8	1.0596571
107	0xbf3aebef	-0.73016256
108	0xbe2a2685	-0.16616257
109	0x3d4c42e8	0.049868494
110	0x3e9de0c4	0.30835545
111	0x3d893170	0.066988826
112	0xbf6e11f9	-0.92996174
113	0x3d5fd477	0.05464598
114	0xbe978bcb	-0.2959884
115	0xbcd7f89a	-0.02636366
116	0xbe665d40	-0.2249651
117	0x3f55514a	0.8332716
118	0x3f968699	1.1759826
119	0x3e4ec670	0.20192885
120	0x3ea331b8	0.3187387
121	0x3e37fdcc	0.1796791
122	0x3e795bfd	0.24351497
123	0xbf143e39	-0.57907444
124	0x3eda68f2	0.42658192
125	0x3f16c09f	0.58887666
126	0x3f262c08	0.64910936
127	0x3d9e9364	0.07742956
128	0xbf962895	-1.1731135
129	0xbe7ecbc4	-0.24882418
130	0x3f0c6d94	0.548547
131	0x3f831e47	1.0243615
132	0xbeee50c6	-0.46546
133	0xbf9485ff	-1.1603392
134	0xbe305f8c	-0.17223948
135	0xbe90f967	-0.2831528
136	0x3f6d76f0	0.9275961
137	0xbf55215e	-0.8325404
138	0xbf293392	-0.66094315
139	0xbe147c58	-0.14500558
140	0xbef87e90	-0.4853406
141	0x3f2e814f	0.6816606
142	0xbf12c986	-0.5733875
143	0xbbcf1d28	-0.0063206144
144	0xbdc46d34	-0.09591141
145	0xbc184c79	-0.009295576
146	0x3f7a9a0f	0.97891325
147	0xbf779062	-0.96704686
148	0xbfafda28	-1.3738451
149	0xbecdc754	-0.40191138
150	0x3e40e6e1	0.18838073
151	0xbf2f014a	-0.6836134
152	0x3f1bff19	0.60936123
153	0x3e6a59aa	0.22885767
154	0x3c183420	0.009289771
155	0x3e1b61b8	0.15173995
156	0xbda29784	-0.079390556
157	0x3f2f21ed	0.6841114
158	0x3d9c473b	0.07630774
159	0xbeb12f68	-0.3460648
160	0xbda90200	-0.082523346
161	0xbed60091	-0.41797307
162	0xbf444d2f	-0.7668027
163	0xbec86b80	-0.39144516
164	0xbe0b92d4	-0.13630229
165	0xbeffaf59	-0.49938467
166	0x3dc38549	0.095469065
167	0xbf411200	-0.7541809
168	0x3f00f7cc	0.5037811
169	0xbe6c6e44	-0.23088938
170	0x3ea68058	0.32519794
171	0xbe979d4f	-0.29612204
172	0xbf37c22f	-0.71780676
173	0xbf762570	-0.96150875
174	0x3df7a368	0.12091714

feats.TotalNumHs.bias f4 [35]
0	0x3d854076	0.065064356
1	0xbeb896b5	-0.3605248
2	0x3ea64284	0.32472622
3	0x3e149714	0.14510757
4	0xbd709258	-0.058733314
5	0xbeeb89c5	-0.46003547
6	0xbf0ed1b6	-0.55788743
7	0xbe2f4ecb	-0.17119901
8	0xbf39b854	-0.7254689
9	0xbe0ca554	-0.13734943
10	0x3ef2176f	0.47283503
11	0x3d58577b	0.052817803
12	0x3e182a70	0.14859939
13	0x3e6a33d8	0.2287134
14	0x3d09fd87	0.03368905
15	0x3e47d6a1	0.19515468
16	0xbebfbc7d	-0.37448493
17	0x3e4ec1dd	0.2019114
18	0xbd8f1fac	-0.06988463
19	0xbe9435d6	-0.28947324
20	0xbe627144	-0.2211352
21	0x3efe38f9	0.49652842
22	0xbec37047	-0.38171598
23	0xbd14799d	-0.036248792
24	0xbe2049bf	-0.15653132
25	0x3cdba505	0.026812086
26	0x3de431ef	0.111423366
27	0xbe487ff8	-0.19580066
28	0xbd887cd7	-0.06664436
29	0xbed00d99	-0.40635374
30	0x3e9fb1c7	0.3119032
31	0xbe3ad824	-0.18246514
32	0xbe05b58a	-0.13057533
33	0x3c65624f	0.014000489
34	0xbefa0627	-0.4883282

feats.ImplicitValence.weight f4 [35, 6]
0	0x3f00a9c8	0.50259066
1	0xbf7e4a3b	-0.99332017
2	0x3d263a63	0.040583026
3	0x3e9fb196	0.31190175
4	0xbe9b6520	-0.3035059
5	0xbeaee384	-0.34157956
6	0xbbe3c8c3	-0.006951423
7	0x3db9dd18	0.090753734
8	0x3e8be213	0.27320918
9	0xbf1daf0f	-0.61595243
10	0xbeb22c50	-0.34799433
11	0xbdcc4488	-0.09974009
12	0xbf2d5447	-0.6770672
13	0x3f8ac0dc	1.0840106
14	0xbe981f56	-0.29711407
15	0x3e4c8ce9	0.19975628
16	0xbdaa1848	-0.083054125
17	0xbec5ae38	-0.3860948
18	0x3d7c7236	0.061632358
19	0xbf026275	-0.50931484
20	0x3efbd4c1	0.49185756
21	0xbeb2d2de	-0.34926504
22	0xbea1986a	-0.31561595
23	0x3e20c668	0.15700686
24	0x3f319d60	0.6938076
25	0xbf97cf67	-1.1860169
26	0xbf0d7943	-0.55263156
27	0xbfae39cb	-1.3611387
28	0xbe554731	-0.20827939
29	0xbe134822	-0.14382985
30	0x3ef2cc19	0.4742134
31	0xbfa5fa1a	-1.296695
32	0xbeebb5b2	-0.4603706
33	0xbf6e9d86	-0.9320911
34	0x3e7ac6ac	0.2448985
35	0xbe2333e4	-0.15937763
36	0x3e2029fc	0.15641016
37	0xbfc7d9cc	-1.5613341
38	0x3e5203df	0.20509289
39	0xbf13b006	-0.57690465
40	0xbb0f7380	-0.0021888912
41	0x3ecd68f0	0.40119123
42	0x3e8df049	0.27722386
43	0xbe72176e	-0.2364175
44	0xbb323d8b	-0.0027197327
45	0xbef36a49	-0.47542027
46	0x3da11734	0.07865754
47	0xbd214460	-0.039371848
48	0xbe0b07ea	-0.13577238
49	0xbf81c2f5	-1.0137621
50	0x3ebe9826	0.37225455
51	0xbebf2a8a	-0.37337142
52	0x3c26d620	0.010182887
53	0xbe54f719	-0.20797385
54	0xbeab3ef1	-0.33446458
55	0x3f0dc01b	0.55371255
56	0xbf13e65e	-0.5777339
57	0xbc7be8ad	-0.015375298
58	0x3ec5a1a4	0.38599885
59	0x3ecf72ee	0.40517372
60	0xbee30bee	-0.4434504
61	0x3e5737b1	0.21017338
62	0x3f0f756a	0.56038535
63	0xbb5233de	-0.0032074372
64	0x3e3455c0	0.17610836
65	0xbcf46a60	-0.02983588
66	0x3f847ef0	1.0351238
67	0xbfef1622	-1.8678629
68	0xbdc9d26c	-0.09854588
69	0xbfed23c0	-1.8526535
70	0xbe5fc921	-0.21854068
71	0xbda5bc28	-0.080925286
72	0xbe03739f	-0.12837075
73	0x40012c4b	2.0183284
74	0xbf1caf9e	-0.6120547
75	0x3f14d480	0.5813675
76	0x3d2912a0	0.041277528
77	0xbe02e7f8	-0.12783802
78	0xbe316fae	-0.17327759
79	0xbdb4da75	-0.0883073
80	0x3f172da5	0.59054023
81	0x3e8e501b	0.2779549
82	0xbe8c75a4	-0.27433503
83	0x3e6421e4	0.22278553
84	0x3eb22961	0.34797195
85	0xbe5da835	-0.21646197
86	0x3ef15bf0	0.47140455
87	0x3e29e019	0.16589393
88	0x3e5816e0	0.21102476
89	0x3e8dafbc	0.27673137
90	0x3efd53a6	0.4947788
91	0xbf9daa76	-1.2317646
92	0xbde83361	-0.11337925
93	0xbf4909d9	-0.7853065
94	0xbe27d27f	-0.16388892
95	0xbe824dba	-0.25449926
96	0xbe0c485d	-0.1369948
97	0x3e58ad00	0.21159744
98	0xbe5b0f58	-0.21392572
99	0xbf27529c	-0.65360427
100	0xbd90d8fc	-0.070726365
101	0x3e677100	0.226017
102	0x3efb2443	0.49051103
103	0xbf113e3a	-0.56735575
104	0xbda0b259	-0.07846517
105	0xbe8b472a	-0.2720273
106	0x3e6ad5bc	0.22933096
107	0xbdc769d8	-0.09736985
108	0xbe9eb69a	-0.3099869
109	0xbf24e401	-0.64410406
110	0x3f0d53e6	0.55206144
111	0x3e8f5f94	0.28002608
112	0xbe48b5d0	-0.19600606
113	0x3e36b1e8	0.17841303
114	0xbedaff4a	-0.42772895
115	0xbf450b92	-0.7697078
116	0x3e6a343a	0.22871485
117	0x3ec37744	0.3817693
118	0xbec65b20	-0.38741398
119	0x3e01a9cc	0.12662429
120	0xbf6bcc2d	-0.9210842
121	0x3f68e4bf	0.9097404
122	0x3d71e043	0.059051763
123	0x3f3d9eba	0.7407032
124	0xbe82a6a8	-0.25517774
125	0x3e6196c0	0.22030163
126	0x3dc9ee94	0.09859958
127	0xbf2cafee	-0.6745595
128	0xbe6b64f5	-0.22987731
129	0xbf231329	-0.6370111
130	0xbe8ee20f	-0.27906844
131	0xbd8a05dc	-0.06739399
132	0x3e99b653	0.30021915
133	0xbea0a0bf	-0.3137264
134	0x3ed7a3a3	0.42117032
135	0x3d392c02	0.045207985
136	0xbde2ae4c	-0.11068401
137	0x3eaf39cc	0.34223783
138	0xbf245b4d	-0.64201814
139	0x3fecb60b	1.8493055
140	0x3daf65e5	0.08564357
141	0x3fa4a1dd	1.2861897
142	0xbeb57a1a	-0.3544472
143	0xbd86bae4	-0.06578615
144	0x3ef84d62	0.48496538
145	0xbf3cfcac	-0.73823047
146	0x3ef35227	0.47523615
147	0xbec2af6c	-0.3802446
148	0xbe53a3d8	-0.2066797
149	0xbe638c5a	-0.22221509
150	0x3f91b04b	1.1381925
151	0xbfc93bca	-1.5721371
152	0xbe7db674	-0.24776632
153	0xbf8a1332	-1.0787108
154	0xbdfbdf0c	-0.12298402
155	0x3e9a1f7a	0.3010214
156	0x3efdb92f	0.49555346
157	0xbfa1843c	-1.261848
158	0x3e511441	0.20417883
159	0xbf2aa7be	-0.66662204
160	0x3e3a4cc0	0.1819334
161	0xbeacc96b	-0.3374742
162	0x3f18750b	0.59553593
163	0xbdcba7c2	-0.09944107
164	0xbf7a251a	-0.9771286
165	0xbed6e2c4	-0.41969883
166	0x3ecd10e2	0.40051943
167	0xbe7c5aa4	-0.24643952
168	0x3f180931	0.59389025
169	0x3ef11a7e	0.47090524
170	0xbf6f5634	-0.9349091
171	0xbda9f612	-0.08298887
172	0xbe54253f	-0.20717333
173	0xbe968bdf	-0.29403588
174	0x3f726ce0	0.9469738
175	0xbfcf5e95	-1.6200739
176	0xbe9115b0	-0.2833686
177	0xbfab346c	-1.3375373
178	0x3b990240	0.0046694577
179	0xbdc3b9b0	-0.095569015
180	0xbda88e0e	-0.0823022
181	0x3b35040e	0.0027620825
182	0xbe2e413b	-0.17017071
183	0xbe9b16c3	-0.30290803
184	0xbec5da67	-0.3864319
185	0xbeab9b15	-0.33516756
186	0x3db71e9d	0.08941386
187	0xbf271a73	-0.65274733
188	0xbf00bc50	-0.5028734
189	0xbd4e816c	-0.050416395
190	0xbe91692c	-0.28400552
191	0x3cb290e0	0.021797597
192	0xbe190235	-0.14942248
193	0xbd9d0b6f	-0.076681964
194	0xbdfbce73	-0.122952364
195	0xbec01f25	-0.3752376
196	0x3dc0f498	0.094216526
197	0x3d909a58	0.07060689
198	0xbef43b50	-0.47701502
199	0x3e4ec308	0.20191586
200	0xbd77b4fd	-0.06047534
201	0x3dec0d78	0.115260065
202	0xbe5f4f82	-0.21807674
203	0xbe965f11	-0.29369405
204	0x3d5e6231	0.05429286
205	0xbd5a781f	-0.053337213
206	0x3facf233	1.3511413
207	0x3d227035	0.03965779
208	0xbc9871d0	-0.018608958
209	0xbebfdcf6	-0.37473267

feats.ImplicitValence.bias f4 [35]
0	0x3eadb5e0	0.33927822
1	0xbe9f0e1d	-0.31065455
2	0x3ecd1958	0.40058398
3	0x3d64fff2	0.05590815
4	0xbeeedd62	-0.46653277
5	0x3d745c92	0.059658594
6	0xbe768463	-0.24073939
7	0xbedc1953	-0.4298807
8	0xbeb77f85	-0.35839477
9	0xbe84c058	-0.25927997
10	0x3e81b3c4	0.25332463
11	0x3eb9cac9	0.36287525
12	0x3ea16c50	0.31527948
13	0xbe09e0a4	-0.134646
14	0xbd69f660	-0.057119727
15	0xbe93f670	-0.28898954
16	0x3e4005c9	0.18752207
17	0xbd1a7ba2	-0.03771556
18	0x3e204837	0.15652548
19	0xbd433f6c	-0.047667906
20	0xbdb41d23	-0.0879462
21	0x3eba4508	0.36380792
22	0x3ded2c35	0.115806974
23	0x3e13ff5d	0.14452882
24	0x3e191d74	0.14952642
25	0x3e9afd8d	0.3027157
26	0xbe954817	-0.29156563
27	0xbd09880b	-0.033577006
28	0x3d7dd9be	0.061975233
29	0x3ec32854	0.38116705
30	0xbd0f68f9	-0.03501222
31	0xbdda817d	-0.10669229
32	0x3d5ba281	0.053621773
33	0xbda0b922	-0.07847811
34	0x3db180e3	0.08667161

feats.Hybridization.weight f4 [35, 5]
0	0xbf1ca912	-0.6119548
1	0x3ddc5e62	0.107601896
2	0xbe35fd51	-0.17772414
3	0xbe64cc59	-0.22343577
4	0xbc512712	-0.012765663
5	0x3dfb0fe4	0.1225889
6	0xbef25003	-0.4732667
7	0xbda34a2e	-0.07973133
8	0x3b14d080	0.0022707283
9	0xbf07aca7	-0.5299782
10	0xbfba6f17	-1.4565152
11	0x3f375fe4	0.7163069
12	0x3e38d71c	0.18050808
13	0xbe7625c4	-0.24037844
14	0xbf2a5ef2	-0.66551125
15	0xbf6d9ead	-0.92820245
16	0x3ef5ac9b	0.4798325
17	0xbd5f164f	-0.054464635
18	0xbe96d6c8	-0.2946074
19	0xbc589edf	-0.013221472
20	0x3eb4c779	0.35308436
21	0x3f9595c0	1.1686325
22	0xbeceea05	-0.40412918
23	0x3cfef930	0.031124681
24	0xbe00e236	-0.12586293
25	0x3f02c4fa	0.5108181
26	0x3ec671da	0.38758737
27	0x3e708fd5	0.23492368
28	0x3edb16f6	0.42790955
29	0x3f903f10	1.1269245
30	0x3f73c6c9	0.952252
31	0xbf9c3a33	-1.2205261
32	0x3f1c6d6f	0.6110448
33	0xbc608c60	-0.013705343
34	0x3e690abe	0.22758004
35	0x3efb97d0	0.4913926
36	0x3e70704b	0.23480336
37	0xbe8a88f2	-0.27057606
38	0xbed93e63	-0.4243041
39	0xbe38ccde	-0.180469
40	0x3ecfac18	0.40560985
41	0xbf4a6d10	-0.79072666
42	0x3eafa633	0.34306487
43	0xbed39ea1	-0.41331962
44	0xbed04835	-0.4068009
45	0x3efcc31a	0.493676
46	0x3f33302c	0.6999538
47	0xbe169dbc	-0.14708608
48	0x3db63e30	0.0889858
49	0xbe92907c	-0.28625858
50	0xbefcba91	-0.4936109
51	0x3f3ab46e	0.72931564
52	0xbecbc656	-0.39799756
53	0x3eb72a76	0.35774583
54	0xbf5cd0af	-0.86255926
55	0x3fb3b926	1.4040878
56	0xbed207f8	-0.41021705
57	0x3eb191d5	0.34681574
58	0x3e104cd4	0.14091808
59	0x3f311479	0.69171864
60	0x3d9ac11c	0.07556364
61	0x3f76ed4e	0.9645585
62	0xbe115f71	-0.14196564
63	0x3e3aa13c	0.18225569
64	0xbec91f49	-0.3928168
65	0x3da08a70	0.07838905
66	0x3b876f8f	0.004133172
67	0x3d7834a9	0.060597096
68	0xbe417a52	-0.18894318
69	0x3df5c16d	0.11999784
70	0xbd944140	-0.07239008
71	0x3f4b48fa	0.7940823
72	0x3d4e39ef	0.05034822
73	0x3ee3b31a	0.4447258
74	0xbf68e829	-0.9097925
75	0x3fa59ed9	1.2939101
76	0xbf8fb69c	-1.1227603
77	0x3ee49f1c	0.4465264
78	0xbc9b2c10	-0.01894191
79	0x3f98436e	1.1895578
80	0x3f804ee5	1.0024077
81	0xbe3928e6	-0.18082008
82	0x3e832631	0.25615075
83	0x3ec4e37c	0.38454807
84	0x3e8664fe	0.26248926
85	0x3ebd6fd3	0.36999378
86	0x3f91466d	1.1349617
87	0xbf5576ba	-0.8338429
88	0x3ea41c6c	0.32052934
89	0x3f29ca6b	0.6632449
90	0xbf5b2c5f	-0.8561458
91	0x3ea1831d	0.31545344
92	0xbe873aca	-0.2641204
93	0xbdcda12c	-0.10040507
94	0xbf25733e	-0.6462897
95	0xbfb3d4ee	-1.4049356
96	0x3ec7e295	0.39040056
97	0x3ee45c37	0.44601604
98	0x3ed1410a	0.40869933
99	0xbf94524c	-1.1587615
100	0xbf2d33d8	-0.6765723
101	0xbf17d4c1	-0.5930901
102	0x3ebd62b0	0.36989355
103	0xbe5fb7e4	-0.21847492
104	0xbf80d494	-1.0064874
105	0x3f91d1d5	1.1392161
106	0xbebda3e2	-0.37039095
107	0x3dff10d5	0.12454382
108	0xbe092e50	-0.13396573
109	0x3ef460d1	0.47730115
110	0x3eaf54e2	0.34244448
111	0xbf0c9338	-0.5491214
112	0x3e3f1908	0.18661892
113	0xbe9f77a0	-0.31145954
114	0x3f4e7863	0.80652446
115	0xbf6b9cbe	-0.92036045
116	0x3df75306	0.12076382
117	0x3e9d8296	0.30763692
118	0xbedf8aab	-0.43660483
119	0xbf72756d	-0.9471043
120	0xbf523c66	-0.8212341
121	0x3eb822a4	0.3596393
122	0xbe8ef8b9	-0.27924135
123	0x3b515a00	0.0031944513
124	0x3deb0309	0.11475188
125	0x3f490d5a	0.78536
126	0x3f1d9192	0.6155025
127	0x3e5634e8	0.2091862
128	0xbe625481	-0.22102548
129	0x3ecfed5b	0.40610775
130	0x3f3193ff	0.6936645
131	0x3f635518	0.8880172
132	0xbeda7059	-0.4266384
133	0xbe1c7268	-0.15278018
134	0x3f0114d3	0.504224
135	0x3fca273e	1.5793226
136	0xbf0e5fbc	-0.5561483
137	0xbca0dd0c	-0.019636653
138	0xbdbaec5c	-0.09127113
139	0x3f96bfd2	1.1777289
140	0x3fa6205f	1.2978629
141	0xbe7199c1	-0.23593809
142	0x3e8d278f	0.27569243
143	0x3ecb2f6e	0.39684623
144	0x3f5a7e32	0.8534881
145	0x40080e23	2.1258628
146	0xbf311077	-0.6916575
147	0xbe12139f	-0.14265297
148	0x3d42fa48	0.047601968
149	0x3fbf0acc	1.492517
150	0xbf78188b	-0.9691245
151	0x3f53f558	0.8279624
152	0xbe7f7211	-0.24945857
153	0x3e7c4b24	0.24638039
154	0xbf0cbef1	-0.54978853
155	0x3e8f3e21	0.27977088
156	0x3e28e58c	0.16493815
157	0xbeb82674	-0.35966837
158	0x3ebdbab8	0.37056518
159	0x3f69289c	0.9107759
160	0xbd9bdbd6	-0.0761029
161	0xbea6b832	-0.32562405
162	0x3eba2e0f	0.36363265
163	0xbc4c55a0	-0.0124715865
164	0xbe41875c	-0.18899292
165	0x3f05fed4	0.5234196
166	0xbf41d4a7	-0.75715107
167	0x3d833278	0.064061105
168	0x3ee279a2	0.44233423
169	0xbcad1107	-0.021126283
170	0x3f182bf2	0.59442055
171	0xbf2816b1	-0.65659624
172	0x3f283206	0.6570133
173	0x3c54f4a0	0.012997776
174	0x3f236cc8	0.6383786

feats.Hybridization.bias f4 [35]
0	0x3eac71e6	0.33680648
1	0xbd9b1ee6	-0.07574253
2	0x3e49a10d	0.19690342
3	0x3eea234d	0.45730057
4	0x3f2be11f	0.6714038
5	0x3e975a99	0.29561308
6	0xbe5cb8a4	-0.2155481
7	0x3f0412a8	0.5159097
8	0xbedee971	-0.43537477
9	0x3ee6b12f	0.45057055
10	0x3c98280c	0.018573783
11	0xbeac557b	-0.33658966
12	0x3eca58f1	0.39520982
13	0xbe075e68	-0.13219607
14	0x3d9a0765	0.07520942
15	0x3e8bafd2	0.27282578
16	0x3eaa3130	0.33240652
17	0x3d919b25	0.071096696
18	0x3ebc58d1	0.36786512
19	0xbee6009b	-0.44922337
20	0xbe483f32	-0.19555357
21	0x3d799d66	0.060941122
22	0xbe4e2e6f	-0.201349
23	0xbd862969	-0.06550867
24	0xbe058bef	-0.13041662
25	0x3f01644f	0.50543684
26	0x3f1aace1	0.6042004
27	0x3e9fdad9	0.31221655
28	0x3ea71703	0.32634744
29	0x3e0c1ae5	0.13682134
30	0xbd62d06e	-0.055374555
31	0x3ec65f15	0.38744417
32	0xbd3bafc6	-0.045821927
33	0xbf073065	-0.5280822
34	0x3d828343	0.063726924

feats.FormalCharge.weight f4 [35, 1]
0	0xbf945cca	-1.1590817
1	0xbfc89467	-1.5670289
2	0xbe9cb490	-0.30606508
3	0x3f2a2ed3	0.664777
4	0x3eac2cfc	0.3362807
5	0x3eab8759	0.335017
6	0x3e65218b	0.22376077
7	0x3f1a9fc8	0.60400057
8	0xbf743cb1	-0.9540511
9	0xbec653e1	-0.3873587
10	0xbd975a69	-0.07390291
11	0x3f6ec00d	0.93261796
12	0xbf711d28	-0.94185114
13	0xbeffc67e	-0.49956125
14	0x3c5824d7	0.013192377
15	0x3fa9ad23	1.3255962
16	0xbf0268ba	-0.5094105
17	0x3f0db54b	0.55354756
18	0xbfd5633d	-1.667091
19	0xbef0df58	-0.47045398
20	0x3e2827e9	0.16421475
21	0x3e085f2d	0.13317557
22	0x3faef55c	1.3668628
23	0xbe9e4cce	-0.30917972
24	0xbf7a1668	-0.9769044
25	0xbebea315	-0.37233797
26	0xbe821f37	-0.2541444
27	0x3fbe5f8e	1.4872911
28	0x3fde6b5a	1.7376511
29	0x3fad4d74	1.3539262
30	0x3e695ffc	0.22790521
31	0x3f6e34dd	0.9304941
32	0x3e138c3b	0.14408962
33	0x3eb8f3e0	0.36123562
34	0x3f0f5670	0.5599127

feats.FormalCharge.bias f4 [35]
0	0x3f1d7e0e	0.6152047
1	0x3ebaa98f	0.36457488
2	0x3f260e15	0.6486524
3	0xbf00fc65	-0.50385123
4	0xbefcd183	-0.49378595
5	0x3dcb351b	0.099222384
6	0x3ec3a989	0.38215283
7	0x3e0e45d1	0.1389382
8	0xbd1d8c35	-0.03846379
9	0x3f4b59c1	0.7943383
10	0xbf0a6b97	-0.5407042
11	0xbf05e87d	-0.52307874
12	0xbe2e1e62	-0.17003778
13	0x3d9457e0	0.07243323
14	0xbe90f70b	-0.2831348
15	0x3d15e204	0.0365925
16	0xbf4b2e22	-0.7936727
17	0xbec4fe76	-0.38475388
18	0xbf0492a3	-0.5178625
19	0xbe1e0f50	-0.15435529
20	0xbf31210e	-0.6919106
21	0x3f5fad81	0.8737412
22	0x3f610c48	0.87909365
23	0xbf66aa25	-0.9010337
24	0xbed17f1a	-0.40917283
25	0xbefc9beb	-0.49337706
26	0x3e39a642	0.18129829
27	0xbf1b176e	-0.60582626
28	0x3f156f2f	0.5837278
29	0x3f5706b5	0.8399461
30	0x3e3f12f2	0.18659571
31	0xbeb06f47	-0.34459898
32	0x3ec9844f	0.39358756
33	0x3f6da6dc	0.9283273
34	0xbf54ea60	-0.8317013

feats.IsInRing.weight f4 [35, 1]
0	0xbeca8a19	-0.39558485
1	0xbf4c47ae	-0.79796875
2	0xbe4dbed3	-0.20092325
3	0x3f7c255a	0.98494494
4	0xbfd55f69	-1.6669742
5	0x3d95c734	0.073133856
6	0xc001a65f	-2.0257795
7	0xbf074d13	-0.5285198
8	0x3fb5a49a	1.4190857
9	0xbf037d0d	-0.5136269
10	0x3e142690	0.14467835
11	0xbeb1f7ed	-0.34759465
12	0x4007563f	2.114639
13	0x3e32c717	0.17458759
14	0xbf6f441c	-0.934633
15	0xbe988b46	-0.29793757
16	0xbf9d1b09	-1.2273875
17	0xbe241a98	-0.1602577
18	0xbf861b67	-1.0477113
19	0xbec88d28	-0.39170194
20	0x3fc3259f	1.5245856
21	0xbf289872	-0.65857613
22	0xbf910a05	-1.1331183
23	0x3fe5bf2c	1.7948966
24	0xbeb01b32	-0.34395748
25	0xc0078679	-2.1175826
26	0xbeace058	-0.3376491
27	0x3efdb04f	0.49548575
28	0x3ed3a228	0.41334653
29	0xbfef0734	-1.8674073
30	0x3f363aa3	0.7118322
31	0xbe9fb8f1	-0.31195787
32	0xbeb4c22d	-0.35304394
33	0xbfc5733d	-1.5425793
34	0x3f1318c6	0.57459676

feats.IsInRing.bias f4 [35]
0	0x3f801cae	1.0008752
1	0x3f422f54	0.75853467
2	0xbf49e69f	-0.78867525
3	0x3e51f350	0.20502973
4	0xbf729e35	-0.94772655
5	0x3eab0217	0.33400032
6	0x3dfcf0a0	0.12350583
7	0xbf82bb41	-1.0213395
8	0x3f02dfe6	0.5112289
9	0x3eee05cb	0.46488795
10	0xbea5e987	-0.3240473
11	0xbdcc8fc1	-0.099883564
12	0xbeba8307	-0.3642809
13	0xbf019527	-0.50618213
14	0xbf47a1bb	-0.77981156
15	0xbe614f72	-0.22002962
16	0x3f45b722	0.77232563
17	0x3ed90335	0.4238526
18	0x3e72fbaf	0.23728822
19	0x3da79df6	0.081844255
20	0xbf19a009	-0.6000982
21	0xbf525842	-0.8216592
22	0x3ea22fa1	0.31676963
23	0x3f04d0f4	0.5188134
24	0xbf1e239a	-0.61773074
25	0xbee9d8c3	-0.4567319
26	0x3f72b438	0.9480624
27	0x3e623fc6	0.2209464
28	0xbf616c39	-0.8805576
29	0x3ea0f339	0.31435564
30	0x3f53bd26	0.8271049
31	0x3e61fb9d	0.22068639
32	0xbf13ff19	-0.57811123
33	0xbf7ad1a1	-0.9797612
34	0xbf62d296	-0.8860258

feats.IsAromatic.weight f4 [35, 1]
0	0xbf6f9895	-0.93592197
1	0xbf864b26	-1.0491683
2	0xbf3102c2	-0.69144833
3	0x3f8cece3	1.1009792
4	0xbf237e44	-0.6386454
5	0xbf95683a	-1.1672432
6	0xbf9e1699	-1.2350646
7	0x3f0f7845	0.5604289
8	0x3fc9f753	1.5778602
9	0x3f523f37	0.8212771
10	0x3e544a4f	0.20731471
11	0xbf088b15	-0.5333722
12	0x3f764d9d	0.9621218
13	0xbf5e26e6	-0.86778104
14	0xbbb64b05	-0.0055631422
15	0xbf6edb3b	-0.9330327
16	0x3dd594be	0.10428761
17	0x3e692e35	0.22771533
18	0xbf06e2e8	-0.5268998
19	0x3f416baf	0.7555494
20	0x3fc144b0	1.5099087
21	0xbf8816d2	-1.0631964
22	0x3e6f8dae	0.2339389
23	0x3fe3e0db	1.7802995
24	0xbf77eaca	-0.96842635
25	0xbf0aa5be	-0.5415915
26	0xbc88ea27	-0.016713215
27	0xbe3c53a1	-0.18391277
28	0xbeebebe8	-0.4607842
29	0xbfefc981	-1.8733369
30	0x3e8d53fe	0.27603143
31	0xbf16d164	-0.58913255
32	0xbed0c811	-0.4077764
33	0x3eb96629	0.36210755
34	0xbf4bdcac	-0.79633594

feats.IsAromatic.bias f4 [35]
0	0xbf3a5cd1	-0.72797877
1	0xbf2eeb98	-0.6832824
2	0x3d90eafa	0.07076068
3	0x3d0d27f3	0.034461927
4	0x3f1be60e	0.6089791
5	0xbe9bc3d0	-0.3042283
6	0xbd992aad	-0.07478843
7	0xbf623424	-0.8836081
8	0xbf4adc7f	-0.792427
9	0x3f211fec	0.62939334
10	0xbf0b24b1	-0.5435286
11	0x3bd1f4de	0.0064073643
12	0x3e8407dc	0.25787246
13	0xbe2aefe2	-0.1669307
14	0x3e012ca4	0.12614685
15	0x3ef42d81	0.47690967
16	0xbe7bef37	-0.24602972
17	0x3f476dfe	0.7790221
18	0xbe32a3bf	-0.17445277
19	0xbf76d757	-0.9642233
20	0xbf5ad83a	-0.85486186
21	0xbe245242	-0.16047004
22	0x3f26a16e	0.6509007
23	0xbec27e86	-0.37987155
24	0xbd7e83e7	-0.06213751
25	0xbf41288d	-0.754525
26	0x3dc8cbb1	0.09804476
27	0x3f0d8548	0.55281496
28	0x3e3038e3	0.172092
29	0x3f1ae2ec	0.60502505
30	0xbd062b84	-0.032756343
31	0x3f4657d6	0.77477777
32	0xbebe13db	-0.37124524
33	0x3f4c4421	0.79791456
34	0xbddb5a49	-0.1071058

feats.NumRadicalElectrons.weight f4 [35, 1]
0	0xbcb0af00	-0.021567822
1	0xbecce8c4	-0.40021336
2	0x3f47f846	0.7811321
3	0xbe63e810	-0.22256494
4	0x3f572746	0.840443
5	0x3e1de000	0.1541748
6	0x3f15a1dc	0.584501
7	0x3f4efef4	0.8085778
8	0x3e4f9350	0.20271039
9	0x3f48a0d4	0.78370404
10	0xbf721194	-0.9455807
11	0x3f1aaf16	0.6042341
12	0x3e4f7e40	0.20263004
13	0xbf29226e	-0.6606816
14	0xbf353f1c	-0.7079942
15	0x3f53dd40	0.82759476
16	0x3f34b912	0.70594895
17	0x3f31cac4	0.6945002
18	0xbddee740	-0.10883951
19	0xbf6ee246	-0.93314016
20	0xbed600dc	-0.4179753
21	0x3e4de5f0	0.20107245
22	0x3f6d791e	0.92762935
23	0xbf39e63a	-0.7261692
24	0x3eee7538	0.46573806
25	0xbed4e7d8	-0.41583133
26	0x3f47ada2	0.7799932
27	0xbf54417a	-0.8291241
28	0x3f3dcb9e	0.7413882
29	0x3f7ae61c	0.9800737
30	0x3f611096	0.87915933
31	0x3e143400	0.14472961
32	0xbf5a328a	-0.85233366
33	0xbe9c37f4	-0.3051144
34	0x3e85b2bc	0.26112926

feats.NumRadicalElectrons.bias f4 [35]
0	0xbf10c5b4	-0.5655167
1	0xbec62554	-0.38700354
2	0x3f22bd41	0.6357003
3	0x3e8ac1d3	0.27101
4	0xbf11f3b3	-0.5701248
5	0x3ea62a3f	0.32454106
6	0xbf450abd	-0.7696951
7	0x3f0c6a4a	0.54849684
8	0x3d69273e	0.05692219
9	0xbebc4c73	-0.36777076
10	0xbf31faea	-0.6952349
11	0x3eaaf95f	0.3339338
12	0x3f141abb	0.5785329
13	0xbef7621f	-0.48317048
14	0xbddec05f	-0.108765356
15	0xbe45cde3	-0.19316821
16	0xbf17132f	-0.59013647
17	0x3f649812	0.8929454
18	0x3f4df2c2	0.80448544
19	0xbeadcea7	-0.33946726
20	0x3f513c2e	0.8173245
21	0xbeda5859	-0.4264553
22	0x3f461434	0.7737458
23	0xbee8400f	-0.45361373
24	0x3ea5d778	0.32390952
25	0x3ebec40b	0.37258944
26	0x3dabc17e	0.08386515
27	0xbeafd622	-0.34343058
28	0x3d5ee815	0.05442055
29	0x3e5f8c04	0.21830755
30	0xbd3d6543	-0.04623915
31	0x3edbaf2a	0.42907077
32	0x3ec491a0	0.38392353
33	0x3f071a87	0.5277485
34	0xbdd5ee93	-0.10445895
